closed/kai_jiang/code/kws/K1_BOARD_V1.0_HIGH_FREQ/models/kws_ref_model.onnx (onnx, 49775 bytes, 37 tensors)

StatefulPartitionedCall/functional_1/dense/MatMul/ReadVariableOp:0 i1 [12, 64]
0	0xf7	-9
1	0x23	35
2	0xdf	-33
3	0xe8	-24
4	0xfa	-6
5	0xdd	-35
6	0x13	19
7	0xf1	-15
8	0xdb	-37
9	0x0d	13
10	0xe3	-29
11	0x23	35
12	0xd0	-48
13	0xcc	-52
14	0xd8	-40
15	0xe5	-27
16	0xfd	-3
17	0x07	7
18	0xdc	-36
19	0x16	22
20	0x07	7
21	0xfc	-4
22	0xe5	-27
23	0x09	9
24	0x07	7
25	0xf7	-9
26	0xff	-1
27	0xfa	-6
28	0xe2	-30
29	0x0d	13
30	0x16	22
31	0xe7	-25
32	0xda	-38
33	0xfe	-2
34	0x15	21
35	0xdc	-36
36	0xef	-17
37	0xf4	-12
38	0xf2	-14
39	0x05	5
40	0x17	23
41	0x02	2
42	0x1c	28
43	0xdf	-33
44	0xcd	-51
45	0x22	34
46	0xec	-20
47	0x06	6
48	0xdc	-36
49	0xee	-18
50	0x22	34
51	0xe0	-32
52	0xfa	-6
53	0x06	6
54	0xd5	-43
55	0xe1	-31
56	0x03	3
57	0x1d	29
58	0xef	-17
59	0xec	-20
60	0xf6	-10
61	0xf0	-16
62	0x13	19
63	0x22	34
64	0x1a	26
65	0xf0	-16
66	0xf5	-11
67	0xed	-19
68	0x19	25
69	0xdc	-36
70	0xfe	-2
71	0xde	-34
72	0xe1	-31
73	0x00	0
74	0xef	-17
75	0x0d	13
76	0xdc	-36
77	0xeb	-21
78	0xe9	-23
79	0xd9	-39
80	0x1e	30
81	0x18	24
82	0x2a	42
83	0x05	5
84	0xec	-20
85	0x00	0
86	0xd9	-39
87	0xd8	-40
88	0xd4	-44
89	0xe3	-29
90	0xdc	-36
91	0xf9	-7
92	0x01	1
93	0x1f	31
94	0xfe	-2
95	0x19	25
96	0xfd	-3
97	0xe7	-25
98	0x03	3
99	0x19	25
100	0x16	22
101	0xdd	-35
102	0xe7	-25
103	0x03	3
104	0xda	-38
105	0x07	7
106	0xd9	-39
107	0x1d	29
108	0xdc	-36
109	0x07	7
110	0xe4	-28
111	0xea	-22
112	0xd8	-40
113	0xda	-38
114	0x15	21
115	0x15	21
116	0xe2	-30
117	0xe8	-24
118	0x02	2
119	0xe6	-26
120	0x06	6
121	0x00	0
122	0xfd	-3
123	0x25	37
124	0x0f	15
125	0xf6	-10
126	0x12	18
127	0x00	0
128	0xdc	-36
129	0xeb	-21
130	0x10	16
131	0xd4	-44
132	0xce	-50
133	0x21	33
134	0xe0	-32
135	0xf3	-13
136	0xf1	-15
137	0xee	-18
138	0x08	8
139	0xd2	-46
140	0xe5	-27
141	0x12	18
142	0x22	34
143	0x0d	13
144	0xdf	-33
145	0xff	-1
146	0xe0	-32
147	0xd5	-43
148	0xf4	-12
149	0xf2	-14
150	0xcf	-49
151	0x18	24
152	0x02	2
153	0x1a	26
154	0x1b	27
155	0x07	7
156	0x19	25
157	0xe2	-30
158	0xe0	-32
159	0xf4	-12
160	0xdb	-37
161	0xf5	-11
162	0xd8	-40
163	0x0d	13
164	0xf8	-8
165	0xf4	-12
166	0x21	33
167	0x22	34
168	0x14	20
169	0xec	-20
170	0xe9	-23
171	0xf1	-15
172	0x09	9
173	0xe4	-28
174	0xef	-17
175	0x0c	12
176	0xef	-17
177	0xe7	-25
178	0xd5	-43
179	0xe1	-31
180	0x14	20
181	0x11	17
182	0x1d	29
183	0x1b	27
184	0x19	25
185	0xfd	-3
186	0x21	33
187	0xdd	-35
188	0xd4	-44
189	0xe1	-31
190	0xd4	-44
191	0xd4	-44
192	0x1c	28
193	0xcf	-49
194	0x17	23
195	0xf0	-16
196	0xd1	-47
197	0xdf	-33
198	0xe3	-29
199	0xe3	-29
200	0xfa	-6
201	0x20	32
202	0xf5	-11
203	0xd5	-43
204	0xdd	-35
205	0xf5	-11
206	0x25	37
207	0xe6	-26
208	0x13	19
209	0x0e	14
210	0x12	18
211	0x05	5
212	0xe0	-32
213	0xdd	-35
214	0xe4	-28
215	0xdb	-37
216	0x15	21
217	0xff	-1
218	0x0e	14
219	0xf5	-11
220	0xdd	-35
221	0xe7	-25
222	0xeb	-21
223	0x17	23
224	0xe8	-24
225	0xeb	-21
226	0x03	3
227	0x17	23
228	0xdf	-33
229	0x06	6
230	0xe0	-32
231	0xe9	-23
232	0x01	1
233	0xdf	-33
234	0x15	21
235	0xf8	-8
236	0xea	-22
237	0x20	32
238	0x00	0
239	0xe3	-29
240	0xeb	-21
241	0xe4	-28
242	0xe4	-28
243	0xe5	-27
244	0xe1	-31
245	0xe9	-23
246	0xec	-20
247	0xf3	-13
248	0x18	24
249	0x10	16
250	0xe9	-23
251	0x22	34
252	0x09	9
253	0xe3	-29
254	0x1e	30
255	0x12	18

StatefulPartitionedCall/functional_1/conv2d_1/BiasAdd_weights_fused_bn i1 [64, 64, 1, 1]
0	0x2a	42
1	0x05	5
2	0xb2	-78
3	0x8c	-116
4	0x25	37
5	0x1e	30
6	0xe5	-27
7	0xde	-34
8	0x39	57
9	0x94	-108
10	0x9b	-101
11	0x56	86
12	0xf8	-8
13	0x37	55
14	0xda	-38
15	0x16	22
16	0xe7	-25
17	0xf3	-13
18	0xb2	-78
19	0x5e	94
20	0xd8	-40
21	0x06	6
22	0x3b	59
23	0x11	17
24	0x51	81
25	0xd3	-45
26	0x2f	47
27	0xd7	-41
28	0x58	88
29	0xf1	-15
30	0xf6	-10
31	0x37	55
32	0xa0	-96
33	0x4f	79
34	0x00	0
35	0x25	37
36	0x2f	47
37	0x15	21
38	0x4c	76
39	0xc8	-56
40	0x16	22
41	0x5f	95
42	0x21	33
43	0x19	25
44	0x50	80
45	0xd7	-41
46	0xdc	-36
47	0xcc	-52
48	0xe4	-28
49	0xfc	-4
50	0xfb	-5
51	0x1c	28
52	0xf7	-9
53	0x1c	28
54	0x3d	61
55	0x21	33
56	0x80	-128
57	0x1c	28
58	0xf5	-11
59	0x88	-120
60	0xe0	-32
61	0xf2	-14
62	0x9b	-101
63	0x54	84
64	0xc4	-60
65	0x9a	-102
66	0x79	121
67	0x26	38
68	0x3c	60
69	0x0c	12
70	0xbc	-68
71	0xb6	-74
72	0x41	65
73	0xea	-22
74	0xe6	-26
75	0x0e	14
76	0x93	-109
77	0x20	32
78	0xac	-84
79	0xb2	-78
80	0x3a	58
81	0x80	-128
82	0x1b	27
83	0x02	2
84	0x02	2
85	0x1f	31
86	0xce	-50
87	0xe3	-29
88	0xe1	-31
89	0xec	-20
90	0x00	0
91	0xfb	-5
92	0x3c	60
93	0x1c	28
94	0xa7	-89
95	0xc5	-59
96	0xc7	-57
97	0x1d	29
98	0x02	2
99	0x09	9
100	0x3d	61
101	0xe0	-32
102	0x3f	63
103	0xce	-50
104	0x01	1
105	0xd9	-39
106	0xd9	-39
107	0x57	87
108	0xc7	-57
109	0x46	70
110	0x52	82
111	0x19	25
112	0xee	-18
113	0x75	117
114	0x02	2
115	0xd7	-41
116	0x0c	12
117	0xe0	-32
118	0xf4	-12
119	0x9d	-99
120	0x29	41
121	0xe0	-32
122	0xe4	-28
123	0xca	-54
124	0xe6	-26
125	0x17	23
126	0x00	0
127	0xe6	-26
128	0xd8	-40
129	0x0c	12
130	0x9c	-100
131	0xeb	-21
132	0x79	121
133	0xdb	-37
134	0x8b	-117
135	0x27	39
136	0xff	-1
137	0xf8	-8
138	0x9c	-100
139	0x77	119
140	0xb8	-72
141	0xdb	-37
142	0xd8	-40
143	0xce	-50
144	0x26	38
145	0x94	-108
146	0xf7	-9
147	0x0f	15
148	0x0f	15
149	0xa9	-87
150	0x05	5
151	0x0a	10
152	0x19	25
153	0x18	24
154	0x04	4
155	0x21	33
156	0xfc	-4
157	0xd0	-48
158	0xc9	-55
159	0x01	1
160	0xf4	-12
161	0xec	-20
162	0x06	6
163	0x2c	44
164	0x81	-127
165	0xbb	-69
166	0x0e	14
167	0x42	66
168	0x0b	11
169	0x43	67
170	0x12	18
171	0x68	104
172	0x36	54
173	0xe6	-26
174	0xed	-19
175	0xf6	-10
176	0x03	3
177	0x0d	13
178	0xcd	-51
179	0x3c	60
180	0x11	17
181	0x46	70
182	0xd2	-46
183	0xc4	-60
184	0xc3	-61
185	0xde	-34
186	0xf6	-10
187	0xfb	-5
188	0xc1	-63
189	0x57	87
190	0xf6	-10
191	0x49	73
192	0x3f	63
193	0xfc	-4
194	0x1f	31
195	0x0c	12
196	0xa9	-87
197	0xfa	-6
198	0x13	19
199	0xe0	-32
200	0x19	25
201	0x11	17
202	0xde	-34
203	0xfc	-4
204	0x15	21
205	0xde	-34
206	0x03	3
207	0x2a	42
208	0x07	7
209	0xbe	-66
210	0xe4	-28
211	0xff	-1
212	0xe6	-26
213	0xc4	-60
214	0xef	-17
215	0x25	37
216	0xb0	-80
217	0xce	-50
218	0xe4	-28
219	0x04	4
220	0x0b	11
221	0x12	18
222	0xe5	-27
223	0xfb	-5
224	0x0a	10
225	0xf8	-8
226	0xde	-34
227	0x00	0
228	0x03	3
229	0x06	6
230	0x09	9
231	0xaf	-81
232	0x12	18
233	0x4f	79
234	0x43	67
235	0xbd	-67
236	0x58	88
237	0xa3	-93
238	0x52	82
239	0xe9	-23
240	0x14	20
241	0xf9	-7
242	0xe5	-27
243	0x45	69
244	0x80	-128
245	0x4d	77
246	0xfa	-6
247	0x08	8
248	0xca	-54
249	0x1f	31
250	0x11	17
251	0x26	38
252	0x17	23
253	0xed	-19
254	0xef	-17
255	0xff	-1

StatefulPartitionedCall/functional_1/conv2d_4/BiasAdd_weights_fused_bn i1 [64, 64, 1, 1]
0	0xeb	-21
1	0x1f	31
2	0xea	-22
3	0x8f	-113
4	0xec	-20
5	0x27	39
6	0xe5	-27
7	0x18	24
8	0xd6	-42
9	0xf3	-13
10	0xea	-22
11	0xd6	-42
12	0xc9	-55
13	0xfe	-2
14	0xdc	-36
15	0x4d	77
16	0x02	2
17	0xd6	-42
18	0x03	3
19	0xc7	-57
20	0x22	34
21	0xe3	-29
22	0x46	70
23	0x38	56
24	0xc2	-62
25	0x5d	93
26	0xef	-17
27	0xea	-22
28	0xf7	-9
29	0x54	84
30	0x0f	15
31	0xdf	-33
32	0x18	24
33	0x4a	74
34	0x1c	28
35	0xea	-22
36	0x07	7
37	0xce	-50
38	0x65	101
39	0xcb	-53
40	0xc2	-62
41	0x2d	45
42	0x0a	10
43	0xd4	-44
44	0x00	0
45	0x26	38
46	0xe9	-23
47	0x16	22
48	0x9d	-99
49	0x0f	15
50	0x0f	15
51	0xec	-20
52	0xe4	-28
53	0xde	-34
54	0xd2	-46
55	0xae	-82
56	0x42	66
57	0x07	7
58	0xd8	-40
59	0x81	-127
60	0x9f	-97
61	0xf8	-8
62	0x0a	10
63	0xf7	-9
64	0x22	34
65	0xd5	-43
66	0x1d	29
67	0x0a	10
68	0x1f	31
69	0x06	6
70	0xec	-20
71	0xfc	-4
72	0xb2	-78
73	0x2e	46
74	0x43	67
75	0x12	18
76	0x03	3
77	0x09	9
78	0xf2	-14
79	0xd6	-42
80	0x11	17
81	0xf1	-15
82	0xe9	-23
83	0x33	51
84	0xed	-19
85	0xdb	-37
86	0x18	24
87	0xe1	-31
88	0x19	25
89	0xd5	-43
90	0x63	99
91	0xd7	-41
92	0x09	9
93	0xec	-20
94	0x04	4
95	0x03	3
96	0x4c	76
97	0x7f	127
98	0x23	35
99	0xe5	-27
100	0x25	37
101	0x08	8
102	0xfc	-4
103	0x10	16
104	0x3f	63
105	0xeb	-21
106	0xce	-50
107	0xd8	-40
108	0xf9	-7
109	0x08	8
110	0xed	-19
111	0xc0	-64
112	0xea	-22
113	0xe0	-32
114	0xf3	-13
115	0x07	7
116	0x0a	10
117	0xdc	-36
118	0x0f	15
119	0x21	33
120	0xeb	-21
121	0x0a	10
122	0xf3	-13
123	0xa7	-89
124	0xf8	-8
125	0xf3	-13
126	0x00	0
127	0x18	24
128	0xd0	-48
129	0x8a	-118
130	0xe6	-26
131	0xc5	-59
132	0x00	0
133	0xc5	-59
134	0xdc	-36
135	0x00	0
136	0xa4	-92
137	0x29	41
138	0xf2	-14
139	0xb8	-72
140	0xf4	-12
141	0xc0	-64
142	0x0c	12
143	0x0e	14
144	0xe3	-29
145	0xd1	-47
146	0x26	38
147	0xee	-18
148	0x18	24
149	0xea	-22
150	0x16	22
151	0xef	-17
152	0x29	41
153	0x48	72
154	0xf4	-12
155	0x3a	58
156	0x04	4
157	0x4a	74
158	0xe8	-24
159	0x03	3
160	0x12	18
161	0x0a	10
162	0xf4	-12
163	0x14	20
164	0xcc	-52
165	0xc3	-61
166	0xac	-84
167	0xe2	-30
168	0xff	-1
169	0x12	18
170	0x16	22
171	0x7f	127
172	0xea	-22
173	0x28	40
174	0x00	0
175	0xdf	-33
176	0xba	-70
177	0xee	-18
178	0xe0	-32
179	0xf3	-13
180	0x42	66
181	0xfa	-6
182	0xff	-1
183	0x19	25
184	0x54	84
185	0xb4	-76
186	0xcc	-52
187	0xd6	-42
188	0xf8	-8
189	0x31	49
190	0x17	23
191	0x20	32
192	0xef	-17
193	0xcf	-49
194	0x03	3
195	0x0d	13
196	0xd1	-47
197	0xf9	-7
198	0xfd	-3
199	0x36	54
200	0xf5	-11
201	0xf4	-12
202	0x17	23
203	0xfa	-6
204	0x31	49
205	0x0f	15
206	0x32	50
207	0x80	-128
208	0xd1	-47
209	0x0a	10
210	0x1a	26
211	0xee	-18
212	0xd4	-44
213	0xf2	-14
214	0x20	32
215	0x04	4
216	0x0e	14
217	0xce	-50
218	0xdf	-33
219	0xf5	-11
220	0xfd	-3
221	0xef	-17
222	0x0c	12
223	0xf5	-11
224	0x40	64
225	0xc5	-59
226	0x03	3
227	0x1a	26
228	0xe8	-24
229	0x02	2
230	0xee	-18
231	0xf5	-11
232	0xe6	-26
233	0xee	-18
234	0xf0	-16
235	0xf0	-16
236	0x01	1
237	0xeb	-21
238	0xf4	-12
239	0x43	67
240	0xfc	-4
241	0x36	54
242	0x09	9
243	0x14	20
244	0xde	-34
245	0x5c	92
246	0xf0	-16
247	0x14	20
248	0x26	38
249	0xfc	-4
250	0x2c	44
251	0xfe	-2
252	0xec	-20
253	0x3c	60
254	0xf6	-10
255	0xfb	-5

Conv__101_weights_fused_bn i1 [64, 1, 3, 3]
0	0x4f	79
1	0x24	36
2	0x7f	127
3	0xfd	-3
4	0x12	18
5	0x0f	15
6	0x66	102
7	0x1c	28
8	0x66	102
9	0x80	-128
10	0xa1	-95
11	0xbb	-69
12	0xd4	-44
13	0xd8	-40
14	0xc8	-56
15	0xde	-34
16	0xc8	-56
17	0x96	-106
18	0x7f	127
19	0x72	114
20	0x64	100
21	0x11	17
22	0x1f	31
23	0x17	23
24	0x4f	79
25	0x5a	90
26	0x68	104
27	0xb0	-80
28	0xf0	-16
29	0xda	-38
30	0xe4	-28
31	0xf3	-13
32	0xe0	-32
33	0x89	-119
34	0xd4	-44
35	0x80	-128
36	0x7a	122
37	0x7f	127
38	0x18	24
39	0xf5	-11
40	0x27	39
41	0x42	66
42	0x47	71
43	0x5a	90
44	0x13	19
45	0x77	119
46	0x7b	123
47	0x69	105
48	0x01	1
49	0xf4	-12
50	0xe8	-24
51	0x7b	123
52	0x7f	127
53	0x7e	126
54	0x81	-127
55	0xb6	-74
56	0x97	-105
57	0xf9	-7
58	0xed	-19
59	0x07	7
60	0x93	-109
61	0xaa	-86
62	0xe7	-25
63	0xf6	-10
64	0xc6	-58
65	0xc1	-63
66	0xa9	-87
67	0xc3	-61
68	0xc8	-56
69	0x9c	-100
70	0x81	-127
71	0x9b	-101
72	0x7f	127
73	0x5b	91
74	0x26	38
75	0x27	39
76	0x35	53
77	0x37	55
78	0x2c	44
79	0x3a	58
80	0x66	102
81	0x7f	127
82	0x82	-126
83	0xed	-19
84	0x07	7
85	0x94	-108
86	0x34	52
87	0x28	40
88	0x8b	-117
89	0xbe	-66
90	0x80	-128
91	0xb8	-72
92	0x67	103
93	0x91	-111
94	0xea	-22
95	0x07	7
96	0x97	-105
97	0xc3	-61
98	0x2d	45
99	0x5e	94
100	0x55	85
101	0x1e	30
102	0x26	38
103	0x29	41
104	0x1b	27
105	0x3c	60
106	0x3d	61
107	0x81	-127
108	0xb9	-71
109	0x3b	59
110	0x5c	92
111	0x80	-128
112	0x2e	46
113	0x3b	59
114	0xac	-84
115	0xef	-17
116	0x3d	61
117	0x7a	122
118	0x7f	127
119	0x6d	109
120	0x28	40
121	0x30	48
122	0x30	48
123	0x58	88
124	0x5d	93
125	0x5e	94
126	0x66	102
127	0x60	96
128	0x10	16
129	0x1d	29
130	0x16	22
131	0xf6	-10
132	0x4f	79
133	0x7f	127
134	0x5d	93
135	0x80	-128
136	0xd2	-46
137	0xba	-70
138	0x00	0
139	0x02	2
140	0x15	21
141	0x9d	-99
142	0xb1	-79
143	0x96	-106
144	0x72	114
145	0x7f	127
146	0x68	104
147	0x17	23
148	0x10	16
149	0x28	40
150	0x67	103
151	0x5c	92
152	0x5b	91
153	0xa9	-87
154	0xa9	-87
155	0x8d	-115
156	0xa9	-87
157	0xfe	-2
158	0xc0	-64
159	0xaa	-86
160	0xa0	-96
161	0x80	-128
162	0x71	113
163	0x54	84
164	0x53	83
165	0x08	8
166	0xed	-19
167	0xef	-17
168	0x7f	127
169	0x6f	111
170	0x61	97
171	0xbf	-65
172	0x94	-108
173	0xa7	-89
174	0x06	6
175	0xed	-19
176	0xfe	-2
177	0xb6	-74
178	0x80	-128
179	0xa5	-91
180	0x47	71
181	0x47	71
182	0x29	41
183	0x50	80
184	0xfa	-6
185	0x3f	63
186	0x47	71
187	0x7f	127
188	0x3c	60
189	0xa2	-94
190	0x80	-128
191	0xdc	-36
192	0xe2	-30
193	0xc7	-57
194	0xd5	-43
195	0x83	-125
196	0x89	-119
197	0xe0	-32
198	0x53	83
199	0x7f	127
200	0x5c	92
201	0xed	-19
202	0x25	37
203	0x3f	63
204	0x45	69
205	0x7e	126
206	0x61	97
207	0x4c	76
208	0x75	117
209	0x7f	127
210	0x27	39
211	0x4c	76
212	0x11	17
213	0x53	83
214	0x41	65
215	0x16	22
216	0x81	-127
217	0xbf	-65
218	0xcc	-52
219	0xe1	-31
220	0xe8	-24
221	0x11	17
222	0xb1	-79
223	0xc6	-58
224	0xbc	-68
225	0x79	121
226	0x36	54
227	0x44	68
228	0x00	0
229	0x18	24
230	0xf9	-7
231	0x7d	125
232	0x60	96
233	0x7f	127
234	0x5b	91
235	0x73	115
236	0x50	80
237	0x0e	14
238	0xe9	-23
239	0x07	7
240	0xa1	-95
241	0x97	-105
242	0x80	-128
243	0x57	87
244	0x4c	76
245	0x51	81
246	0x28	40
247	0x20	32
248	0x2c	44
249	0x7f	127
250	0x64	100
251	0x66	102
252	0xa4	-92
253	0x14	20
254	0x95	-107
255	0xd6	-42

Conv__97_weights_fused_bn i1 [64, 1, 3, 3]
0	0xf5	-11
1	0x16	22
2	0x20	32
3	0x66	102
4	0x80	-128
5	0xd1	-47
6	0x55	85
7	0xc1	-63
8	0x1a	26
9	0x02	2
10	0x20	32
11	0x7f	127
12	0xab	-85
13	0x27	39
14	0x5c	92
15	0x05	5
16	0x2a	42
17	0xb5	-75
18	0xe3	-29
19	0x21	33
20	0xf3	-13
21	0xdc	-36
22	0xce	-50
23	0xc5	-59
24	0x80	-128
25	0xc2	-62
26	0xee	-18
27	0x7f	127
28	0x3b	59
29	0x27	39
30	0x72	114
31	0x4f	79
32	0xc7	-57
33	0x52	82
34	0x21	33
35	0xc5	-59
36	0xf9	-7
37	0x5b	91
38	0x2d	45
39	0xef	-17
40	0x2a	42
41	0xf5	-11
42	0xec	-20
43	0x35	53
44	0x80	-128
45	0x29	41
46	0x57	87
47	0x80	-128
48	0x65	101
49	0x22	34
50	0x88	-120
51	0x1d	29
52	0x5c	92
53	0xee	-18
54	0x97	-105
55	0xe6	-26
56	0x1a	26
57	0xc0	-64
58	0xe3	-29
59	0x7f	127
60	0xaa	-86
61	0xac	-84
62	0x45	69
63	0xcb	-53
64	0x80	-128
65	0x1e	30
66	0x19	25
67	0x9e	-98
68	0xac	-84
69	0xe8	-24
70	0xd6	-42
71	0xd1	-47
72	0x44	68
73	0x36	54
74	0xe3	-29
75	0x7f	127
76	0x3c	60
77	0xe2	-30
78	0x3f	63
79	0x3e	62
80	0x51	81
81	0xe2	-30
82	0x38	56
83	0xfa	-6
84	0xe8	-24
85	0x15	21
86	0x19	25
87	0xc3	-61
88	0x00	0
89	0x80	-128
90	0x58	88
91	0x28	40
92	0xbf	-65
93	0x10	16
94	0x4d	77
95	0x80	-128
96	0x36	54
97	0xc8	-56
98	0xfa	-6
99	0xd5	-43
100	0xda	-38
101	0xf9	-7
102	0xde	-34
103	0xff	-1
104	0xde	-34
105	0x24	36
106	0x7f	127
107	0xd7	-41
108	0xc0	-64
109	0xbd	-67
110	0xc6	-58
111	0x03	3
112	0xa9	-87
113	0x15	21
114	0xe4	-28
115	0x80	-128
116	0xe8	-24
117	0x77	119
118	0x93	-109
119	0x53	83
120	0x63	99
121	0xbb	-69
122	0x26	38
123	0xf9	-7
124	0xd6	-42
125	0x7f	127
126	0xb5	-75
127	0x80	-128
128	0x25	37
129	0xe6	-26
130	0x36	54
131	0x27	39
132	0xe8	-24
133	0x3a	58
134	0xb0	-80
135	0xd0	-48
136	0x7f	127
137	0xa6	-90
138	0x18	24
139	0x12	18
140	0xc3	-61
141	0x06	6
142	0x1f	31
143	0x80	-128
144	0x7f	127
145	0xea	-22
146	0x17	23
147	0x46	70
148	0x52	82
149	0x29	41
150	0x92	-110
151	0x19	25
152	0x83	-125
153	0xa1	-95
154	0xa7	-89
155	0xba	-70
156	0xec	-20
157	0xc2	-62
158	0x26	38
159	0x80	-128
160	0xde	-34
161	0x46	70
162	0xb2	-78
163	0x0d	13
164	0x3c	60
165	0xc7	-57
166	0xe4	-28
167	0x7f	127
168	0xb9	-71
169	0xc7	-57
170	0x32	50
171	0x80	-128
172	0x5c	92
173	0x21	33
174	0xc3	-61
175	0x3c	60
176	0x69	105
177	0x0e	14
178	0xe8	-24
179	0x15	21
180	0x7f	127
181	0x9e	-98
182	0x0d	13
183	0x0b	11
184	0xc5	-59
185	0x3d	61
186	0x05	5
187	0xd9	-39
188	0x42	66
189	0x3a	58
190	0xfe	-2
191	0xda	-38
192	0x7f	127
193	0x3b	59
194	0x27	39
195	0x74	116
196	0x73	115
197	0x2b	43
198	0x40	64
199	0xed	-19
200	0x35	53
201	0xe9	-23
202	0xc3	-61
203	0x42	66
204	0xd5	-43
205	0x80	-128
206	0x34	52
207	0x70	112
208	0x0b	11
209	0x7b	123
210	0x7f	127
211	0x15	21
212	0xda	-38
213	0x19	25
214	0x09	9
215	0xd6	-42
216	0x64	100
217	0x3f	63
218	0xf4	-12
219	0x23	35
220	0x34	52
221	0x19	25
222	0xe4	-28
223	0x7f	127
224	0x2a	42
225	0x40	64
226	0x22	34
227	0x42	66
228	0xfe	-2
229	0x3f	63
230	0xdb	-37
231	0x84	-124
232	0x7f	127
233	0xba	-70
234	0x7f	127
235	0x26	38
236	0x12	18
237	0x38	56
238	0x03	3
239	0x21	33
240	0xf7	-9
241	0xd7	-41
242	0x5b	91
243	0x12	18
244	0x58	88
245	0xbb	-69
246	0x28	40
247	0x2d	45
248	0x80	-128
249	0xf2	-14
250	0x40	64
251	0x81	-127
252	0xe9	-23
253	0x2c	44
254	0xee	-18
255	0xdc	-36

StatefulPartitionedCall/functional_1/conv2d/BiasAdd_weights_fused_bn i1 [64, 1, 10, 4]
0	0x1c	28
1	0x45	69
2	0x28	40
3	0xfe	-2
4	0x23	35
5	0x4d	77
6	0x61	97
7	0x5c	92
8	0xda	-38
9	0x06	6
10	0x2f	47
11	0x62	98
12	0x06	6
13	0xae	-82
14	0x05	5
15	0x15	21
16	0x10	16
17	0x80	-128
18	0xb4	-76
19	0xdc	-36
20	0x28	40
21	0x03	3
22	0xae	-82
23	0xad	-83
24	0xcc	-52
25	0x07	7
26	0xd1	-47
27	0xc1	-63
28	0xe7	-25
29	0xeb	-21
30	0xc8	-56
31	0xeb	-21
32	0x04	4
33	0x0c	12
34	0x29	41
35	0xf1	-15
36	0xb6	-74
37	0x1d	29
38	0xe6	-26
39	0xf7	-9
40	0xd6	-42
41	0x19	25
42	0xee	-18
43	0x03	3
44	0xe3	-29
45	0xe6	-26
46	0x0b	11
47	0x27	39
48	0xf5	-11
49	0xea	-22
50	0xfa	-6
51	0x05	5
52	0xfb	-5
53	0xeb	-21
54	0xee	-18
55	0x01	1
56	0x18	24
57	0xf8	-8
58	0xe1	-31
59	0x20	32
60	0x19	25
61	0x1d	29
62	0xf9	-7
63	0x02	2
64	0xf2	-14
65	0x34	52
66	0x1d	29
67	0xec	-20
68	0xd8	-40
69	0x3d	61
70	0x76	118
71	0xd1	-47
72	0xdd	-35
73	0x1a	26
74	0x34	52
75	0x80	-128
76	0x07	7
77	0xee	-18
78	0xff	-1
79	0xcf	-49
80	0x28	40
81	0x3e	62
82	0x08	8
83	0xe9	-23
84	0xcc	-52
85	0x0f	15
86	0xfd	-3
87	0x0e	14
88	0xc4	-60
89	0x0c	12
90	0xfa	-6
91	0x1b	27
92	0xa4	-92
93	0x17	23
94	0x0c	12
95	0x1f	31
96	0xf0	-16
97	0x10	16
98	0x1c	28
99	0xd6	-42
100	0x05	5
101	0xf8	-8
102	0x20	32
103	0xc6	-58
104	0x3d	61
105	0xe4	-28
106	0x19	25
107	0xe8	-24
108	0x4d	77
109	0xf9	-7
110	0xd9	-39
111	0xeb	-21
112	0x24	36
113	0xbf	-65
114	0x98	-104
115	0x10	16
116	0x36	54
117	0xcd	-51
118	0x80	-128
119	0x5f	95
120	0xff	-1
121	0x25	37
122	0x06	6
123	0x10	16
124	0x00	0
125	0x11	17
126	0xa4	-92
127	0x3f	63
128	0x0d	13
129	0x1f	31
130	0x80	-128
131	0x7a	122
132	0x16	22
133	0x05	5
134	0xc1	-63
135	0x5b	91
136	0x2b	43
137	0xa0	-96
138	0x40	64
139	0x10	16
140	0x22	34
141	0xc4	-60
142	0x50	80
143	0x8d	-115
144	0x07	7
145	0x0b	11
146	0x06	6
147	0x96	-106
148	0xed	-19
149	0x09	9
150	0x0f	15
151	0xd3	-45
152	0xd2	-46
153	0x25	37
154	0x1c	28
155	0x12	18
156	0xe5	-27
157	0x02	2
158	0xfe	-2
159	0x21	33
160	0xeb	-21
161	0x0b	11
162	0x3c	60
163	0xf6	-10
164	0xd0	-48
165	0xfa	-6
166	0x64	100
167	0x03	3
168	0xbe	-66
169	0xc8	-56
170	0x01	1
171	0x03	3
172	0xba	-70
173	0xed	-19
174	0xae	-82
175	0xc2	-62
176	0x26	38
177	0xf0	-16
178	0xc9	-55
179	0xda	-38
180	0x2f	47
181	0x08	8
182	0xb2	-78
183	0x2a	42
184	0x4b	75
185	0xfd	-3
186	0xd9	-39
187	0x2c	44
188	0x2d	45
189	0x02	2
190	0xf1	-15
191	0x49	73
192	0xf7	-9
193	0xfa	-6
194	0x1c	28
195	0x7f	127
196	0xbd	-67
197	0x24	36
198	0x08	8
199	0x53	83
200	0xc1	-63
201	0xbc	-68
202	0x50	80
203	0xaa	-86
204	0xcb	-53
205	0xdb	-37
206	0x3d	61
207	0xf4	-12
208	0xea	-22
209	0xb6	-74
210	0x16	22
211	0xdc	-36
212	0xcb	-53
213	0xbb	-69
214	0x41	65
215	0x32	50
216	0xd0	-48
217	0xbb	-69
218	0x79	121
219	0x22	34
220	0x04	4
221	0xc6	-58
222	0x7d	125
223	0x22	34
224	0x0d	13
225	0xd5	-43
226	0x34	52
227	0x02	2
228	0x26	38
229	0xf5	-11
230	0x2d	45
231	0x20	32
232	0xf4	-12
233	0xde	-34
234	0x24	36
235	0x14	20
236	0xd5	-43
237	0xe4	-28
238	0x1a	26
239	0x7f	127
240	0x05	5
241	0xdd	-35
242	0xbc	-68
243	0x1f	31
244	0xd6	-42
245	0xf9	-7
246	0xde	-34
247	0x62	98
248	0xc0	-64
249	0x29	41
250	0x22	34
251	0x74	116
252	0xe0	-32
253	0x3c	60
254	0x2b	43
255	0x79	121

Conv__99_weights_fused_bn i1 [64, 1, 3, 3]
0	0xff	-1
1	0x5e	94
2	0x80	-128
3	0xc9	-55
4	0x4d	77
5	0xbf	-65
6	0xd6	-42
7	0x41	65
8	0xc6	-58
9	0xc0	-64
10	0xe0	-32
11	0x80	-128
12	0xc9	-55
13	0xe4	-28
14	0xc8	-56
15	0xa2	-94
16	0x08	8
17	0xc5	-59
18	0xae	-82
19	0x80	-128
20	0x07	7
21	0x05	5
22	0x8b	-117
23	0x3e	62
24	0x49	73
25	0xc4	-60
26	0x70	112
27	0x7f	127
28	0xe7	-25
29	0x32	50
30	0x70	112
31	0x40	64
32	0x7d	125
33	0x63	99
34	0x5c	92
35	0x40	64
36	0x45	69
37	0x53	83
38	0xee	-18
39	0xf6	-10
40	0x5d	93
41	0xce	-50
42	0x7f	127
43	0x13	19
44	0xce	-50
45	0xda	-38
46	0xf5	-11
47	0xb2	-78
48	0xc4	-60
49	0xab	-85
50	0x80	-128
51	0xc5	-59
52	0xc7	-57
53	0x91	-111
54	0x80	-128
55	0x04	4
56	0x96	-106
57	0xe3	-29
58	0x06	6
59	0x99	-103
60	0x89	-119
61	0x19	25
62	0xa2	-94
63	0xf2	-14
64	0x30	48
65	0xde	-34
66	0xed	-19
67	0x44	68
68	0xfe	-2
69	0xa2	-94
70	0x7f	127
71	0xd8	-40
72	0x23	35
73	0xc3	-61
74	0x81	-127
75	0x3c	60
76	0xa4	-92
77	0xea	-22
78	0xfd	-3
79	0x80	-128
80	0xfc	-4
81	0x6b	107
82	0x40	64
83	0x37	55
84	0x25	37
85	0x34	52
86	0x1a	26
87	0x7f	127
88	0x17	23
89	0xc6	-58
90	0x2d	45
91	0x3a	58
92	0x7f	127
93	0xcb	-53
94	0x3e	62
95	0x5f	95
96	0x3c	60
97	0x2a	42
98	0x6d	109
99	0xa7	-89
100	0x68	104
101	0xcd	-51
102	0xe1	-31
103	0x37	55
104	0xdd	-35
105	0x39	57
106	0xbd	-67
107	0x7f	127
108	0x0f	15
109	0x30	48
110	0x80	-128
111	0xe1	-31
112	0x27	39
113	0xbc	-68
114	0xc4	-60
115	0x46	70
116	0xb2	-78
117	0x7f	127
118	0x40	64
119	0x15	21
120	0x12	18
121	0x4c	76
122	0x92	-110
123	0x3b	59
124	0x1f	31
125	0xdf	-33
126	0x63	99
127	0x71	113
128	0x7f	127
129	0x5a	90
130	0x6a	106
131	0xef	-17
132	0x5c	92
133	0x38	56
134	0xfa	-6
135	0xcc	-52
136	0xfd	-3
137	0xf5	-11
138	0xd3	-45
139	0xe1	-31
140	0x8f	-113
141	0x9c	-100
142	0x2a	42
143	0x80	-128
144	0x14	20
145	0xeb	-21
146	0x6b	107
147	0x3c	60
148	0x24	36
149	0x30	48
150	0x7f	127
151	0x0a	10
152	0x0f	15
153	0x15	21
154	0x11	17
155	0x8b	-117
156	0x49	73
157	0xb0	-80
158	0xe7	-25
159	0x54	84
160	0x80	-128
161	0x1b	27
162	0x4c	76
163	0x27	39
164	0x00	0
165	0x2b	43
166	0x1b	27
167	0xc3	-61
168	0x7f	127
169	0x4f	79
170	0xff	-1
171	0x5c	92
172	0xce	-50
173	0x80	-128
174	0x70	112
175	0x05	5
176	0xa8	-88
177	0x0e	14
178	0x2e	46
179	0xfc	-4
180	0xfb	-5
181	0x9d	-99
182	0x13	19
183	0x0e	14
184	0xa5	-91
185	0x59	89
186	0x7f	127
187	0xbc	-68
188	0xd8	-40
189	0xe4	-28
190	0xe6	-26
191	0xe0	-32
192	0xd9	-39
193	0xe3	-29
194	0xf7	-9
195	0x80	-128
196	0xf6	-10
197	0xb8	-72
198	0x40	64
199	0x7f	127
200	0x68	104
201	0x08	8
202	0x52	82
203	0xf4	-12
204	0x1d	29
205	0x2d	45
206	0x0c	12
207	0x80	-128
208	0x5c	92
209	0xbf	-65
210	0xb8	-72
211	0x2d	45
212	0x02	2
213	0x23	35
214	0xf0	-16
215	0xfe	-2
216	0x7f	127
217	0xda	-38
218	0x4c	76
219	0x0f	15
220	0x3b	59
221	0x30	48
222	0x46	70
223	0x56	86
224	0x51	81
225	0xf4	-12
226	0xd3	-45
227	0xbe	-66
228	0xce	-50
229	0xad	-83
230	0xa7	-89
231	0x80	-128
232	0xa7	-89
233	0xba	-70
234	0x35	53
235	0xc7	-57
236	0xc9	-55
237	0xff	-1
238	0x27	39
239	0xdd	-35
240	0x81	-127
241	0xd3	-45
242	0xd7	-41
243	0xf3	-13
244	0x57	87
245	0xa4	-92
246	0xfc	-4
247	0x21	33
248	0xc6	-58
249	0xf8	-8
250	0x15	21
251	0x81	-127
252	0x28	40
253	0x17	23
254	0x17	23
255	0x00	0

StatefulPartitionedCall/functional_1/conv2d_3/BiasAdd_weights_fused_bn i1 [64, 64, 1, 1]
0	0x8d	-115
1	0xd8	-40
2	0x13	19
3	0xb1	-79
4	0xef	-17
5	0x8f	-113
6	0x13	19
7	0x34	52
8	0xdc	-36
9	0x6e	110
10	0xf0	-16
11	0xe0	-32
12	0x48	72
13	0x07	7
14	0x44	68
15	0x6c	108
16	0xc3	-61
17	0x15	21
18	0xa7	-89
19	0x27	39
20	0xcd	-51
21	0xed	-19
22	0xfd	-3
23	0xb4	-76
24	0xd3	-45
25	0xce	-50
26	0x24	36
27	0x14	20
28	0x9a	-102
29	0x68	104
30	0xd8	-40
31	0x43	67
32	0x94	-108
33	0x16	22
34	0x66	102
35	0xaa	-86
36	0x65	101
37	0x33	51
38	0xc6	-58
39	0xd7	-41
40	0x07	7
41	0xcb	-53
42	0x2b	43
43	0xa8	-88
44	0x7e	126
45	0x97	-105
46	0x7f	127
47	0x57	87
48	0x22	34
49	0x93	-109
50	0xfd	-3
51	0x64	100
52	0xd2	-46
53	0x1f	31
54	0xad	-83
55	0xba	-70
56	0x06	6
57	0x60	96
58	0x04	4
59	0x8c	-116
60	0x64	100
61	0x7b	123
62	0xdb	-37
63	0x48	72
64	0xb2	-78
65	0xe1	-31
66	0x29	41
67	0xf3	-13
68	0x07	7
69	0xec	-20
70	0x0b	11
71	0x17	23
72	0xa9	-87
73	0x47	71
74	0xfd	-3
75	0xbc	-68
76	0xdd	-35
77	0x16	22
78	0xd8	-40
79	0xc8	-56
80	0x00	0
81	0x00	0
82	0x1a	26
83	0xc8	-56
84	0x20	32
85	0xaf	-81
86	0x06	6
87	0xee	-18
88	0x0c	12
89	0xd6	-42
90	0x5c	92
91	0x26	38
92	0xdf	-33
93	0x42	66
94	0x9c	-100
95	0x65	101
96	0x1a	26
97	0xe7	-25
98	0xde	-34
99	0xfb	-5
100	0x34	52
101	0xf3	-13
102	0x0c	12
103	0xdf	-33
104	0x34	52
105	0x51	81
106	0xb0	-80
107	0x15	21
108	0x03	3
109	0x12	18
110	0x01	1
111	0xf8	-8
112	0xf7	-9
113	0x28	40
114	0xe8	-24
115	0x21	33
116	0x33	51
117	0x7f	127
118	0x04	4
119	0x1c	28
120	0xc5	-59
121	0x13	19
122	0x01	1
123	0x08	8
124	0x22	34
125	0x1e	30
126	0xc5	-59
127	0xf5	-11
128	0x26	38
129	0x24	36
130	0xc9	-55
131	0xde	-34
132	0x10	16
133	0xec	-20
134	0xc3	-61
135	0x1b	27
136	0xdf	-33
137	0xff	-1
138	0xaf	-81
139	0xe0	-32
140	0x40	64
141	0xed	-19
142	0x1d	29
143	0x45	69
144	0xfc	-4
145	0xf3	-13
146	0xee	-18
147	0x3f	63
148	0x22	34
149	0x04	4
150	0x14	20
151	0xe3	-29
152	0xf8	-8
153	0x38	56
154	0xba	-70
155	0x23	35
156	0xd2	-46
157	0xff	-1
158	0x0b	11
159	0xe5	-27
160	0x34	52
161	0xb2	-78
162	0x1c	28
163	0xd6	-42
164	0x0b	11
165	0xdc	-36
166	0x0e	14
167	0xa5	-91
168	0xe5	-27
169	0x14	20
170	0xeb	-21
171	0xf0	-16
172	0xe6	-26
173	0xdf	-33
174	0x11	17
175	0x3c	60
176	0x0f	15
177	0x2d	45
178	0xf0	-16
179	0xc7	-57
180	0x20	32
181	0x80	-128
182	0x2a	42
183	0xfc	-4
184	0xed	-19
185	0x49	73
186	0xe9	-23
187	0xec	-20
188	0x03	3
189	0xdb	-37
190	0xf5	-11
191	0x9b	-101
192	0xdb	-37
193	0xaa	-86
194	0x49	73
195	0x30	48
196	0xde	-34
197	0xa2	-94
198	0xfe	-2
199	0xd7	-41
200	0xfb	-5
201	0xfa	-6
202	0x27	39
203	0xff	-1
204	0x00	0
205	0x4d	77
206	0x2a	42
207	0xc8	-56
208	0xdc	-36
209	0x0e	14
210	0x28	40
211	0x7f	127
212	0x43	67
213	0xcf	-49
214	0x02	2
215	0x48	72
216	0x4a	74
217	0x04	4
218	0xca	-54
219	0x0a	10
220	0x4c	76
221	0x96	-106
222	0x15	21
223	0x0e	14
224	0xce	-50
225	0x14	20
226	0xa8	-88
227	0xa2	-94
228	0x1c	28
229	0x07	7
230	0xc6	-58
231	0xeb	-21
232	0x5e	94
233	0xfd	-3
234	0xd6	-42
235	0x13	19
236	0x19	25
237	0x07	7
238	0x5b	91
239	0x10	16
240	0xca	-54
241	0x01	1
242	0xf9	-7
243	0x45	69
244	0xd8	-40
245	0xf0	-16
246	0xdc	-36
247	0x21	33
248	0xb4	-76
249	0xe0	-32
250	0x91	-111
251	0x11	17
252	0xf0	-16
253	0xde	-34
254	0x23	35
255	0x1d	29

Conv__95_weights_fused_bn i1 [64, 1, 3, 3]
0	0x8d	-115
1	0xe2	-30
2	0x53	83
3	0x80	-128
4	0xf3	-13
5	0xae	-82
6	0xa8	-88
7	0xb4	-76
8	0x26	38
9	0x7f	127
10	0xba	-70
11	0xda	-38
12	0xc4	-60
13	0xa9	-87
14	0x07	7
15	0xf9	-7
16	0xf0	-16
17	0x10	16
18	0x0a	10
19	0xdd	-35
20	0xaf	-81
21	0xd7	-41
22	0x00	0
23	0x5c	92
24	0xc5	-59
25	0xf6	-10
26	0x7f	127
27	0x0e	14
28	0xe7	-25
29	0x30	48
30	0x0a	10
31	0xba	-70
32	0xc4	-60
33	0xdc	-36
34	0x7f	127
35	0xda	-38
36	0x1c	28
37	0xf5	-11
38	0x0c	12
39	0xcd	-51
40	0x23	35
41	0x10	16
42	0x7f	127
43	0xf3	-13
44	0xf3	-13
45	0xe3	-29
46	0xe7	-25
47	0x89	-119
48	0x36	54
49	0x09	9
50	0x80	-128
51	0x16	22
52	0xe4	-28
53	0xad	-83
54	0x34	52
55	0x0e	14
56	0x80	-128
57	0x45	69
58	0xe8	-24
59	0x92	-110
60	0x13	19
61	0x24	36
62	0xd7	-41
63	0xb5	-75
64	0x27	39
65	0xd3	-45
66	0x02	2
67	0x2c	44
68	0x89	-119
69	0xaa	-86
70	0x7f	127
71	0xac	-84
72	0x42	66
73	0x80	-128
74	0x6a	106
75	0x14	20
76	0xd4	-44
77	0x55	85
78	0x15	21
79	0x18	24
80	0xeb	-21
81	0xf5	-11
82	0x44	68
83	0x41	65
84	0x40	64
85	0x7f	127
86	0xd6	-42
87	0xed	-19
88	0x16	22
89	0x0a	10
90	0x6f	111
91	0x2a	42
92	0x94	-108
93	0xca	-54
94	0xf6	-10
95	0x7f	127
96	0xf4	-12
97	0xb4	-76
98	0x75	117
99	0x25	37
100	0x62	98
101	0x98	-104
102	0x51	81
103	0x93	-109
104	0x6f	111
105	0x4b	75
106	0x80	-128
107	0x10	16
108	0xeb	-21
109	0xd2	-46
110	0xe5	-27
111	0xe1	-31
112	0x7f	127
113	0x09	9
114	0xf6	-10
115	0xed	-19
116	0x01	1
117	0x2f	47
118	0x80	-128
119	0xfe	-2
120	0x5f	95
121	0xc2	-62
122	0x0d	13
123	0x71	113
124	0xfd	-3
125	0xb3	-77
126	0xfa	-6
127	0xd8	-40
128	0xa3	-93
129	0x33	51
130	0xcf	-49
131	0xa1	-95
132	0xe4	-28
133	0x7f	127
134	0x3b	59
135	0x25	37
136	0x11	17
137	0xbd	-67
138	0x7f	127
139	0xba	-70
140	0xf1	-15
141	0x96	-106
142	0xd4	-44
143	0xee	-18
144	0xbb	-69
145	0x10	16
146	0x31	49
147	0xb7	-73
148	0xfd	-3
149	0xb5	-75
150	0x7f	127
151	0xe0	-32
152	0xa6	-90
153	0xdc	-36
154	0x20	32
155	0xeb	-21
156	0xbb	-69
157	0xe4	-28
158	0x80	-128
159	0xf5	-11
160	0xe5	-27
161	0x92	-110
162	0x6b	107
163	0x4e	78
164	0xcf	-49
165	0x92	-110
166	0x18	24
167	0x80	-128
168	0xe9	-23
169	0x14	20
170	0xbe	-66
171	0xe7	-25
172	0x1e	30
173	0x2a	42
174	0x74	116
175	0x54	84
176	0xce	-50
177	0x7f	127
178	0x6c	108
179	0xa1	-95
180	0x46	70
181	0xc2	-62
182	0x7f	127
183	0x84	-124
184	0xad	-83
185	0x20	32
186	0x82	-126
187	0xf5	-11
188	0x6b	107
189	0x80	-128
190	0x11	17
191	0x1c	28
192	0xad	-83
193	0x2d	45
194	0xfa	-6
195	0xae	-82
196	0x08	8
197	0x37	55
198	0xea	-22
199	0x0d	13
200	0x16	22
201	0x2c	44
202	0x2b	43
203	0xdf	-33
204	0x19	25
205	0xdf	-33
206	0x80	-128
207	0xf1	-15
208	0xfb	-5
209	0x7f	127
210	0xc5	-59
211	0xe7	-25
212	0x27	39
213	0xd9	-39
214	0xe9	-23
215	0x06	6
216	0xc2	-62
217	0x83	-125
218	0xf9	-7
219	0x7f	127
220	0xa3	-93
221	0x11	17
222	0x06	6
223	0xd2	-46
224	0xc2	-62
225	0xb0	-80
226	0xcf	-49
227	0xe3	-29
228	0x9e	-98
229	0xd0	-48
230	0xab	-85
231	0xd5	-43
232	0x62	98
233	0x81	-127
234	0xcb	-53
235	0xca	-54
236	0xf2	-14
237	0xd1	-47
238	0x81	-127
239	0xdf	-33
240	0x26	38
241	0xa2	-94
242	0xdc	-36
243	0x0d	13
244	0x35	53
245	0x26	38
246	0x41	65
247	0xcd	-51
248	0x7f	127
249	0xdb	-37
250	0xec	-20
251	0xc9	-55
252	0xb8	-72
253	0x08	8
254	0xf6	-10
255	0xcc	-52

StatefulPartitionedCall/functional_1/conv2d_2/BiasAdd_weights_fused_bn i1 [64, 64, 1, 1]
0	0x0e	14
1	0xe3	-29
2	0x90	-112
3	0xce	-50
4	0xcc	-52
5	0x10	16
6	0xc6	-58
7	0x31	49
8	0xd2	-46
9	0xbf	-65
10	0x0d	13
11	0x0f	15
12	0x3a	58
13	0x1b	27
14	0xb3	-77
15	0x1b	27
16	0x06	6
17	0xcb	-53
18	0x00	0
19	0x31	49
20	0x64	100
21	0xcb	-53
22	0xc6	-58
23	0x49	73
24	0xd8	-40
25	0xc9	-55
26	0x1b	27
27	0xc8	-56
28	0x9c	-100
29	0xf1	-15
30	0x2c	44
31	0xd2	-46
32	0x10	16
33	0x26	38
34	0x2c	44
35	0x23	35
36	0x00	0
37	0x05	5
38	0x02	2
39	0x40	64
40	0x4e	78
41	0x1a	26
42	0x80	-128
43	0x0c	12
44	0x24	36
45	0x18	24
46	0xe1	-31
47	0xfc	-4
48	0xe9	-23
49	0xe4	-28
50	0xeb	-21
51	0xe0	-32
52	0xf0	-16
53	0xd9	-39
54	0x2c	44
55	0xcb	-53
56	0x27	39
57	0xfc	-4
58	0xdc	-36
59	0xd9	-39
60	0x24	36
61	0x0f	15
62	0x57	87
63	0x10	16
64	0x9a	-102
65	0x0f	15
66	0xd0	-48
67	0xa7	-89
68	0x0f	15
69	0x24	36
70	0x33	51
71	0xd4	-44
72	0xfc	-4
73	0x4a	74
74	0x15	21
75	0x0e	14
76	0xdf	-33
77	0x42	66
78	0xce	-50
79	0x0d	13
80	0x31	49
81	0x4a	74
82	0xd9	-39
83	0x1b	27
84	0xda	-38
85	0x32	50
86	0x55	85
87	0x80	-128
88	0xbd	-67
89	0x07	7
90	0x08	8
91	0xe0	-32
92	0xd9	-39
93	0xed	-19
94	0x0f	15
95	0xdd	-35
96	0x44	68
97	0x1b	27
98	0xc1	-63
99	0x3b	59
100	0x3f	63
101	0xfb	-5
102	0xaa	-86
103	0xc0	-64
104	0xea	-22
105	0xfa	-6
106	0xb5	-75
107	0xe7	-25
108	0x09	9
109	0x19	25
110	0x95	-107
111	0xfe	-2
112	0x72	114
113	0xc2	-62
114	0x25	37
115	0x44	68
116	0xbe	-66
117	0x53	83
118	0xc8	-56
119	0xa4	-92
120	0xb7	-73
121	0x18	24
122	0xf8	-8
123	0xe5	-27
124	0xde	-34
125	0xd0	-48
126	0x25	37
127	0xfa	-6
128	0xd9	-39
129	0xf7	-9
130	0xdb	-37
131	0x24	36
132	0xb6	-74
133	0xb0	-80
134	0xbf	-65
135	0xe5	-27
136	0x08	8
137	0x95	-107
138	0xfe	-2
139	0xd3	-45
140	0xe9	-23
141	0x05	5
142	0x23	35
143	0xfb	-5
144	0xfc	-4
145	0xbf	-65
146	0x36	54
147	0xfe	-2
148	0x1b	27
149	0x4d	77
150	0x30	48
151	0xd0	-48
152	0xba	-70
153	0x40	64
154	0xd3	-45
155	0x01	1
156	0xc8	-56
157	0x04	4
158	0x16	22
159	0x31	49
160	0x37	55
161	0x09	9
162	0xf2	-14
163	0x2d	45
164	0x80	-128
165	0x00	0
166	0x6a	106
167	0x24	36
168	0x0b	11
169	0x42	66
170	0x62	98
171	0xdf	-33
172	0x2a	42
173	0x02	2
174	0x13	19
175	0x07	7
176	0xe5	-27
177	0x2c	44
178	0xc3	-61
179	0xfc	-4
180	0xfc	-4
181	0x15	21
182	0x4a	74
183	0xce	-50
184	0x12	18
185	0xbc	-68
186	0x81	-127
187	0x52	82
188	0xcd	-51
189	0xc6	-58
190	0x26	38
191	0x43	67
192	0xc7	-57
193	0x36	54
194	0x66	102
195	0x59	89
196	0x67	103
197	0xff	-1
198	0xae	-82
199	0xdd	-35
200	0x81	-127
201	0xfc	-4
202	0x8d	-115
203	0x2b	43
204	0x1d	29
205	0x80	-128
206	0xdf	-33
207	0xe9	-23
208	0xeb	-21
209	0xb5	-75
210	0x43	67
211	0xfc	-4
212	0x34	52
213	0x0d	13
214	0xfd	-3
215	0x26	38
216	0xc7	-57
217	0xb5	-75
218	0x4a	74
219	0x12	18
220	0xf3	-13
221	0x34	52
222	0x53	83
223	0x95	-107
224	0x30	48
225	0xb4	-76
226	0xb3	-77
227	0xec	-20
228	0x54	84
229	0x3b	59
230	0x5f	95
231	0x07	7
232	0xa4	-92
233	0x10	16
234	0xcc	-52
235	0xd2	-46
236	0x8c	-116
237	0xcc	-52
238	0xb5	-75
239	0x0a	10
240	0x51	81
241	0xcf	-49
242	0xd5	-43
243	0x50	80
244	0x10	16
245	0x31	49
246	0x9b	-101
247	0x2d	45
248	0xf8	-8
249	0x1d	29
250	0xee	-18
251	0xa4	-92
252	0xd6	-42
253	0x0c	12
254	0x3d	61
255	0x17	23

PPQ_Variable_53 f4 [64]
0	0x37c0dd5c	2.2991262e-05
1	0x38481a41	4.7708167e-05
2	0x3820d749	3.8347473e-05
3	0x386eb648	5.6913384e-05
4	0x38432798	4.6528497e-05
5	0x374d19a0	1.22249185e-05
6	0x37a37e7a	1.949001e-05
7	0x376c8f7f	1.41001065e-05
8	0x383ef8ab	4.553112e-05
9	0x37b4e9e5	2.1566588e-05
10	0x384c3998	4.869103e-05
11	0x37ddb736	2.6430567e-05
12	0x3867b872	5.524647e-05
13	0x379b5449	1.8516688e-05
14	0x384121bb	4.60462e-05
15	0x382e54e2	4.1563886e-05
16	0x38156d87	3.5626374e-05
17	0x3821abd5	3.8545422e-05
18	0x38266345	3.9669936e-05
19	0x37ecb319	2.8216791e-05
20	0x37cf021f	2.467731e-05
21	0x379a4df0	1.8394523e-05
22	0x385a14b3	5.1994528e-05
23	0x37bf6a26	2.2818404e-05
24	0x37a57fbf	1.972902e-05
25	0x380b3923	3.3193395e-05
26	0x3787bba0	1.6180624e-05
27	0x381d55e1	3.7511698e-05
28	0x37e0e9bc	2.6811722e-05
29	0x37d39609	2.5223026e-05
30	0x37a9bf0d	2.0235335e-05
31	0x37b1948f	2.1169222e-05
32	0x381cfc0a	3.7428028e-05
33	0x37c89b09	2.3914052e-05
34	0x3841762b	4.612484e-05
35	0x37c221fe	2.3142431e-05
36	0x37f12cf3	2.875037e-05
37	0x374b856b	1.2130807e-05
38	0x3805fdb6	3.1945958e-05
39	0x385a6233	5.2066705e-05
40	0x385592a3	5.0919723e-05
41	0x380a3d1c	3.2958676e-05
42	0x37c6e49c	2.3709894e-05
43	0x37b67a4c	2.175304e-05
44	0x3863909d	5.42557e-05
45	0x3859f9e9	5.196958e-05
46	0x384b8d40	4.853052e-05
47	0x37fcdf2f	3.0144669e-05
48	0x384d22a2	4.8908063e-05
49	0x37b637e6	2.172212e-05
50	0x378675cd	1.60289e-05
51	0x381e408e	3.7730257e-05
52	0x37f30c2b	2.8973524e-05
53	0x37c5f927	2.360025e-05
54	0x382a3aef	4.0586045e-05
55	0x37b11b99	2.1112895e-05
56	0x37c4d965	2.3466253e-05
57	0x38097a52	3.2777265e-05
58	0x380a6294	3.2993572e-05
59	0x37f91777	2.969404e-05
60	0x37aeb810	2.0828127e-05
61	0x37c22806	2.314524e-05
62	0x37bdab03	2.261019e-05
63	0x37a940d5	2.017656e-05

PPQ_Variable_54 i1 [64]
0	0x00	0
1	0x00	0
2	0x00	0
3	0x00	0
4	0x00	0
5	0x00	0
6	0x00	0
7	0x00	0
8	0x00	0
9	0x00	0
10	0x00	0
11	0x00	0
12	0x00	0
13	0x00	0
14	0x00	0
15	0x00	0
16	0x00	0
17	0x00	0
18	0x00	0
19	0x00	0
20	0x00	0
21	0x00	0
22	0x00	0
23	0x00	0
24	0x00	0
25	0x00	0
26	0x00	0
27	0x00	0
28	0x00	0
29	0x00	0
30	0x00	0
31	0x00	0
32	0x00	0
33	0x00	0
34	0x00	0
35	0x00	0
36	0x00	0
37	0x00	0
38	0x00	0
39	0x00	0
40	0x00	0
41	0x00	0
42	0x00	0
43	0x00	0
44	0x00	0
45	0x00	0
46	0x00	0
47	0x00	0
48	0x00	0
49	0x00	0
50	0x00	0
51	0x00	0
52	0x00	0
53	0x00	0
54	0x00	0
55	0x00	0
56	0x00	0
57	0x00	0
58	0x00	0
59	0x00	0
60	0x00	0
61	0x00	0
62	0x00	0
63	0x00	0

PPQ_Variable_56 f4 [64]
0	0x37bc582c	2.2452405e-05
1	0x384369a3	4.6590005e-05
2	0x381d123d	3.7448703e-05
3	0x38691e02	5.5579476e-05
4	0x383e94aa	4.5437984e-05
5	0x37484b06	1.1938397e-05
6	0x379fa983	1.9033212e-05
7	0x37670422	1.3769635e-05
8	0x383a7ed7	4.4463985e-05
9	0x37b0ac6a	2.1061122e-05
10	0x3847703e	4.754983e-05
11	0x37d884eb	2.5811101e-05
12	0x38624a1f	5.395163e-05
13	0x3797b04f	1.8082703e-05
14	0x383c9af1	4.4966993e-05
15	0x382a3ee5	4.0589734e-05
16	0x3811ecf6	3.479138e-05
17	0x381de1ce	3.7642014e-05
18	0x38227cf1	3.874017e-05
19	0x37e726e6	2.755546e-05
20	0x37ca2812	2.4098936e-05
21	0x3796b01c	1.79634e-05
22	0x3854f837	5.0775907e-05
23	0x37baeda9	2.2283597e-05
24	0x37a19ec1	1.9266621e-05
25	0x3807f5cc	3.2415424e-05
26	0x37848d3a	1.580139e-05
27	0x3819a5de	3.663252e-05
28	0x37dba442	2.6183323e-05
29	0x37cea085	2.4631861e-05
30	0x37a5c493	1.976107e-05
31	0x37ad6b14	2.067307e-05
32	0x38194e22	3.655081e-05
33	0x37c3e767	2.3353567e-05
34	0x383ced66	4.5043787e-05
35	0x37bd9532	2.260003e-05
36	0x37eb85e5	2.8076533e-05
37	0x3746c04a	1.184649e-05
38	0x3802d9c4	3.1197225e-05
39	0x385543e6	5.0846393e-05
40	0x38509133	4.972629e-05
41	0x3806ffad	3.2186206e-05
42	0x37c23b40	2.3154193e-05
43	0x37b2336e	2.1243202e-05
44	0x385e3b39	5.298408e-05
45	0x3854de0e	5.0751543e-05
46	0x3846c7f0	4.7393085e-05
47	0x37f6f1f4	2.9438153e-05
48	0x384853d2	4.776178e-05
49	0x37b1f297	2.1213009e-05
50	0x37834f0a	1.5653222e-05
51	0x381a8b0b	3.6845955e-05
52	0x37ed59e2	2.8294457e-05
53	0x37c15550	2.304712e-05
54	0x38263d8d	3.9634808e-05
55	0x37acf4f3	2.0618061e-05
56	0x37c03c4d	2.2916263e-05
57	0x38064174	3.2009048e-05
58	0x38072445	3.2220287e-05
59	0x37f340ea	2.8998085e-05
60	0x37aa9fc0	2.0339969e-05
61	0x37bd9b16	2.2602773e-05
62	0x37b93901	2.2080263e-05
63	0x37a54950	1.9703672e-05

PPQ_Variable_65 f4 [64]
0	0x3bbd1bfa	0.0057711573
1	0x3ba07a18	0.004897367
2	0x3bcf5c33	0.0063281297
3	0x3bb84b69	0.005624224
4	0x3bc242d2	0.0059283758
5	0x3bc59d9f	0.006030753
6	0x3bd8a1c2	0.00661108
7	0x3b83ef01	0.004026294
8	0x3ba4d54a	0.005030309
9	0x3b9ceec9	0.0047892076
10	0x3bc89820	0.0061216503
11	0x3baebc14	0.0053324793
12	0x3bcd8014	0.0062713716
13	0x3b9c20c4	0.004764648
14	0x3bbcfde9	0.005767573
15	0x3bc6327c	0.0060484987
16	0x3bb761ad	0.0055963607
17	0x3bc8eaf8	0.006131526
18	0x3bac5961	0.0052596782
19	0x3b943521	0.004522935
20	0x3b9c4233	0.0047686337
21	0x3bb80d11	0.005616792
22	0x3bcc6bb2	0.006238424
23	0x3ba1fe22	0.004943625
24	0x3bb56422	0.0055356184
25	0x3ba0cc92	0.004907199
26	0x3ba18181	0.004928768
27	0x3bd1a8f2	0.0063983137
28	0x3bbd3292	0.0057738507
29	0x3b93a23a	0.004505423
30	0x3bd79424	0.006578939
31	0x3bd3b7ef	0.0064611356
32	0x3bb76334	0.0055965427
33	0x3b876352	0.004131713
34	0x3bce68b3	0.006299102
35	0x3b95de67	0.0045736316
36	0x3bd1ecb6	0.006406392
37	0x3b808d9f	0.0039231325
38	0x3bad6706	0.0052918224
39	0x3baff207	0.005369428
40	0x3ba04d13	0.0048920005
41	0x3bb18605	0.0054175877
42	0x3bbe671f	0.005810633
43	0x3ba38c27	0.0049910727
44	0x3bca700d	0.0061779083
45	0x3bc3013d	0.0059510753
46	0x3bb6a25c	0.005573554
47	0x3bb44023	0.0055008098
48	0x3bc29cb9	0.005939093
49	0x3b9b9974	0.0047485176
50	0x3b843115	0.0040341713
51	0x3bc6f149	0.006071244
52	0x3ba6a15a	0.0050851526
53	0x3bcbbe5c	0.006217761
54	0x3bb91e20	0.005649343
55	0x3ba6faea	0.0050958293
56	0x3bad8c81	0.0052962904
57	0x3b8e50e2	0.004343138
58	0x3bc5b7bb	0.0060338653
59	0x3bb52f68	0.005529333
60	0x3bba5ef3	0.0056875884
61	0x3b9a005b	0.0046997494
62	0x3ba8f0d4	0.005155662
63	0x3ba32351	0.0049785753

PPQ_Variable_66 i1 [64]
0	0x00	0
1	0x00	0
2	0x00	0
3	0x00	0
4	0x00	0
5	0x00	0
6	0x00	0
7	0x00	0
8	0x00	0
9	0x00	0
10	0x00	0
11	0x00	0
12	0x00	0
13	0x00	0
14	0x00	0
15	0x00	0
16	0x00	0
17	0x00	0
18	0x00	0
19	0x00	0
20	0x00	0
21	0x00	0
22	0x00	0
23	0x00	0
24	0x00	0
25	0x00	0
26	0x00	0
27	0x00	0
28	0x00	0
29	0x00	0
30	0x00	0
31	0x00	0
32	0x00	0
33	0x00	0
34	0x00	0
35	0x00	0
36	0x00	0
37	0x00	0
38	0x00	0
39	0x00	0
40	0x00	0
41	0x00	0
42	0x00	0
43	0x00	0
44	0x00	0
45	0x00	0
46	0x00	0
47	0x00	0
48	0x00	0
49	0x00	0
50	0x00	0
51	0x00	0
52	0x00	0
53	0x00	0
54	0x00	0
55	0x00	0
56	0x00	0
57	0x00	0
58	0x00	0
59	0x00	0
60	0x00	0
61	0x00	0
62	0x00	0
63	0x00	0

PPQ_Variable_68 f4 [64]
0	0x3818172e	3.626121e-05
1	0x38011025	3.0771032e-05
2	0x3826c4cd	3.976077e-05
3	0x381437e4	3.5338002e-05
4	0x381c3bdb	3.7249043e-05
5	0x381eee8b	3.7892296e-05
6	0x382e39ba	4.1538595e-05
7	0x37d436e1	2.5297924e-05
8	0x38049109	3.1606327e-05
9	0x37fc6ce3	3.0091445e-05
10	0x382153c9	3.8463422e-05
11	0x380c87a2	3.350492e-05
12	0x382545e1	3.9404145e-05
13	0x37fb2182	2.9937135e-05
14	0x3817ff00	3.6238693e-05
15	0x381f6644	3.8003796e-05
16	0x38137be9	3.516293e-05
17	0x38219669	3.852547e-05
18	0x380a9c7b	3.3047498e-05
19	0x37ee6411	2.8418408e-05
20	0x37fb5749	2.9962177e-05
21	0x381405c0	3.5291305e-05
22	0x3824679a	3.9197133e-05
23	0x38024839	3.1061678e-05
24	0x3811e21d	3.478128e-05
25	0x3801527a	3.083281e-05
26	0x3801e3fe	3.096833e-05
27	0x38289e4c	4.0201747e-05
28	0x3818295a	3.6278136e-05
29	0x37ed77c6	2.8308375e-05
30	0x382d60e3	4.1336647e-05
31	0x382a4620	4.0596467e-05
32	0x38137d24	3.5164077e-05
33	0x37d9c54c	2.596029e-05
34	0x382600f7	3.9578383e-05
35	0x37f1101e	2.8736944e-05
36	0x3828d4cc	4.0252504e-05
37	0x37cec6eb	2.4649742e-05
38	0x380b7557	3.3249464e-05
39	0x380d80e9	3.3737077e-05
40	0x3800ebf0	3.0737312e-05
41	0x380ec5d1	3.403967e-05
42	0x38192180	3.6509242e-05
43	0x38038854	3.13598e-05
44	0x3822cf54	3.88169e-05
45	0x381cd500	3.739167e-05
46	0x3812e20c	3.5019635e-05
47	0x3810f747	3.456257e-05
48	0x381c8429	3.7316382e-05
49	0x37fa47dc	2.9835785e-05
50	0x37d4a12b	2.5347419e-05
51	0x381fffb7	3.8146707e-05
52	0x3806030a	3.195092e-05
53	0x3823dc32	3.90673e-05
54	0x3814e15c	3.5495832e-05
55	0x38064b12	3.2018004e-05
56	0x380b937c	3.3277538e-05
57	0x37e4ea10	2.7288712e-05
58	0x381f038b	3.7911854e-05
59	0x3811b7b5	3.4741784e-05
60	0x3815e361	3.573613e-05
61	0x37f7b5d4	2.9529365e-05
62	0x3807debc	3.2393946e-05
63	0x38033404	3.1281277e-05

PPQ_Variable_77 f4 [64]
0	0x3ba337d0	0.0049810186
1	0x3bc89854	0.0061216746
2	0x3bba9497	0.005693983
3	0x3b9d8615	0.0048072436
4	0x3bc8afa1	0.006124452
5	0x3b66e89f	0.0035233868
6	0x3b9d6eb4	0.0048044566
7	0x3ba95805	0.0051679634
8	0x3ba8f51e	0.0051561734
9	0x3bd9b520	0.0066439062
10	0x3baf928b	0.0053580455
11	0x3bd529e3	0.0065052374
12	0x3bdc9678	0.0067318045
13	0x3bb4eec5	0.0055216276
14	0x3c02692c	0.007959645
15	0x3c01fda7	0.007934011
16	0x3bbd254e	0.0057722693
17	0x3b3dcc97	0.0028961056
18	0x3bcd79cd	0.0062706233
19	0x3ba4b010	0.005025871
20	0x3ba1fbc0	0.004943341
21	0x3bc6f448	0.006071601
22	0x3bb1fbc4	0.005431624
23	0x3b373bac	0.0027959151
24	0x3bb3b1a5	0.0054838234
25	0x3bc02b62	0.0058645466
26	0x3bb8c62b	0.005638858
27	0x3b963868	0.004584361
28	0x3bcf541d	0.0063271658
29	0x3bc6a6ee	0.00606238
30	0x3bc9a453	0.006153622
31	0x3ba881ca	0.005142425
32	0x3bc61954	0.0060455
33	0x3bca5b65	0.006175446
34	0x3bb8c288	0.0056384243
35	0x3bd020f6	0.0063515855
36	0x3be7b800	0.007071495
37	0x3bab8985	0.0052348995
38	0x3b93f4e4	0.004515277
39	0x3bd341c1	0.0064470475
40	0x3bc6185f	0.0060453857
41	0x3bc4a98f	0.0060016583
42	0x3b67d637	0.0035375485
43	0x3bbae925	0.0057040625
44	0x3bf83239	0.0075743464
45	0x3bd251d6	0.006418447
46	0x3bc8a998	0.006123733
47	0x3bba8110	0.005691655
48	0x3bb7290b	0.0055896095
49	0x3ba52fd8	0.005041104
50	0x3baa9175	0.005205328
51	0x3bc7c89a	0.0060969116
52	0x3bab7776	0.0052327467
53	0x3bc8b63f	0.006125241
54	0x3bc15059	0.0058994708
55	0x3b859164	0.00407617
56	0x3bbf5192	0.0058385814
57	0x3bc2ae47	0.0059411856
58	0x3b986d3c	0.0046516936
59	0x3bad5d73	0.005290681
60	0x3ba1a92b	0.0049334965
61	0x3baa2cab	0.005193313
62	0x3b8b54b4	0.0042520408
63	0x3bca3542	0.0061708996

PPQ_Variable_78 i1 [64]
0	0x00	0
1	0x00	0
2	0x00	0
3	0x00	0
4	0x00	0
5	0x00	0
6	0x00	0
7	0x00	0
8	0x00	0
9	0x00	0
10	0x00	0
11	0x00	0
12	0x00	0
13	0x00	0
14	0x00	0
15	0x00	0
16	0x00	0
17	0x00	0
18	0x00	0
19	0x00	0
20	0x00	0
21	0x00	0
22	0x00	0
23	0x00	0
24	0x00	0
25	0x00	0
26	0x00	0
27	0x00	0
28	0x00	0
29	0x00	0
30	0x00	0
31	0x00	0
32	0x00	0
33	0x00	0
34	0x00	0
35	0x00	0
36	0x00	0
37	0x00	0
38	0x00	0
39	0x00	0
40	0x00	0
41	0x00	0
42	0x00	0
43	0x00	0
44	0x00	0
45	0x00	0
46	0x00	0
47	0x00	0
48	0x00	0
49	0x00	0
50	0x00	0
51	0x00	0
52	0x00	0
53	0x00	0
54	0x00	0
55	0x00	0
56	0x00	0
57	0x00	0
58	0x00	0
59	0x00	0
60	0x00	0
61	0x00	0
62	0x00	0
63	0x00	0

PPQ_Variable_80 f4 [64]
0	0x37f8a971	2.9642806e-05
1	0x3818cd84	3.6431025e-05
2	0x380e2091	3.3885768e-05
3	0x37effc99	2.8608645e-05
4	0x3818df44	3.6447556e-05
5	0x37afe4e7	2.0968217e-05
6	0x37efd8fb	2.859206e-05
7	0x3800ff4d	3.0755346e-05
8	0x3800b3f6	3.068518e-05
9	0x3825d694	3.9538907e-05
10	0x3805bded	3.1886553e-05
11	0x3822607c	3.8713668e-05
12	0x3828083f	4.0062e-05
13	0x3809d337	3.2860054e-05
14	0x3846ae27	4.736907e-05
15	0x38460a59	4.7216516e-05
16	0x381014d1	3.4351662e-05
17	0x3790943f	1.723517e-05
18	0x381c854c	3.731744e-05
19	0x37fae6a8	2.990973e-05
20	0x37f6c7ec	2.9418581e-05
21	0x38178d8c	3.613303e-05
22	0x38079417	3.2324428e-05
23	0x378b93cf	1.663892e-05
24	0x3808e1a5	3.2635075e-05
25	0x38126278	3.490082e-05
26	0x380cc051	3.355771e-05
27	0x37e4dc28	2.7282236e-05
28	0x381dee9b	3.7653936e-05
29	0x381752a0	3.6078156e-05
30	0x381999a9	3.662115e-05
31	0x38005c1c	3.060336e-05
32	0x3816e6c2	3.5977697e-05
33	0x381a251d	3.6751026e-05
34	0x380cbd8c	3.355513e-05
35	0x381e8aa6	3.7799262e-05
36	0x383082df	4.2083553e-05
37	0x3802ab05	3.115369e-05
38	0x37e16944	2.6871108e-05
39	0x3820eca6	3.836737e-05
40	0x3816e608	3.597702e-05
41	0x3815ce9d	3.5716792e-05
42	0x37b099e3	2.1052494e-05
43	0x380e60f9	3.394575e-05
44	0x383d1018	4.50761e-05
45	0x382035e4	3.8197162e-05
46	0x3818daab	3.6443274e-05
47	0x380e11b1	3.3871915e-05
48	0x380b859e	3.3264623e-05
49	0x37fba955	3.0000383e-05
50	0x3801ee0f	3.0977706e-05
51	0x38182f48	3.6283658e-05
52	0x38029d44	3.114088e-05
53	0x3818e44e	3.645225e-05
54	0x381341a2	3.5108656e-05
55	0x37cb7d78	2.4257912e-05
56	0x3811bc8d	3.4746296e-05
57	0x38144c31	3.535691e-05
58	0x37e838ab	2.7682943e-05
59	0x38040f77	3.1485655e-05
60	0x37f64a1c	2.9359995e-05
61	0x3801a149	3.0906205e-05
62	0x37d4451a	2.5304547e-05
63	0x381a0810	3.672397e-05

PPQ_Variable_89 f4 [64]
0	0x3bdcd0e8	0.0067387708
1	0x3bca2873	0.0061693727
2	0x3bb1e855	0.0054293075
3	0x3b9b5c8d	0.0047412575
4	0x3bc53d6c	0.006019285
5	0x3bd18d58	0.0063950233
6	0x3bb5aec6	0.0055445163
7	0x3baaeab0	0.005215965
8	0x3bae9654	0.005327979
9	0x3bdc18f8	0.0067168437
10	0x3bb1d6ab	0.0054272017
11	0x3bef25cd	0.0072982074
12	0x3bdb8016	0.0066986186
13	0x3bb5705b	0.0055370755
14	0x3c008635	0.007844497
15	0x3c002e7b	0.007823582
16	0x3bb8281b	0.0056200153
17	0x3ba482d6	0.0050204797
18	0x3bda2130	0.0066567883
19	0x3be4ade1	0.006978736
20	0x3bfb7fe1	0.0076751565
21	0x3bc65aee	0.00605332
22	0x3bd84e42	0.006601126
23	0x3b9c29c9	0.0047657234
24	0x3be3f7fa	0.0069570513
25	0x3be866b0	0.0070923194
26	0x3bb34e71	0.0054719974
27	0x3be674da	0.0070329728
28	0x3be48af2	0.0069745714
29	0x3bc79b91	0.006091543
30	0x3bc8b29e	0.0061248085
31	0x3bb031a7	0.005377013
32	0x3bc683f2	0.0060582096
33	0x3bd7f12a	0.0065900283
34	0x3be8946f	0.007097773
35	0x3bd3caa8	0.0064633675
36	0x3bec0339	0.0072025326
37	0x3baa38d8	0.0051947646
38	0x3bcd6f65	0.006269383
39	0x3bd9ed6e	0.0066506183
40	0x3bc489c2	0.0059978673
41	0x3bc48696	0.005997489
42	0x3bb0cbb2	0.005395376
43	0x3bd4dec7	0.0064962837
44	0x3c00e5ec	0.007867318
45	0x3bce7e6e	0.0063016927
46	0x3bd660db	0.006542308
47	0x3bc2638c	0.005932277
48	0x3be4616f	0.006969623
49	0x3bc90422	0.006134526
50	0x3bd43751	0.006476321
51	0x3bcd3ae9	0.006263126
52	0x3bc3edca	0.0059792744
53	0x3bc41898	0.005984377
54	0x3bc24de9	0.005929698
55	0x3bb6bdbb	0.005576817
56	0x3bc3f013	0.005979547
57	0x3bc005c4	0.0058600623
58	0x3bf00afa	0.0073255273
59	0x3bac783c	0.0052633565
60	0x3ba9db3e	0.0051836064
61	0x3bd4a704	0.0064896364
62	0x3c096236	0.008385232
63	0x3bc692d2	0.006059983

PPQ_Variable_90 i1 [64]
0	0x00	0
1	0x00	0
2	0x00	0
3	0x00	0
4	0x00	0
5	0x00	0
6	0x00	0
7	0x00	0
8	0x00	0
9	0x00	0
10	0x00	0
11	0x00	0
12	0x00	0
13	0x00	0
14	0x00	0
15	0x00	0
16	0x00	0
17	0x00	0
18	0x00	0
19	0x00	0
20	0x00	0
21	0x00	0
22	0x00	0
23	0x00	0
24	0x00	0
25	0x00	0
26	0x00	0
27	0x00	0
28	0x00	0
29	0x00	0
30	0x00	0
31	0x00	0
32	0x00	0
33	0x00	0
34	0x00	0
35	0x00	0
36	0x00	0
37	0x00	0
38	0x00	0
39	0x00	0
40	0x00	0
41	0x00	0
42	0x00	0
43	0x00	0
44	0x00	0
45	0x00	0
46	0x00	0
47	0x00	0
48	0x00	0
49	0x00	0
50	0x00	0
51	0x00	0
52	0x00	0
53	0x00	0
54	0x00	0
55	0x00	0
56	0x00	0
57	0x00	0
58	0x00	0
59	0x00	0
60	0x00	0
61	0x00	0
62	0x00	0
63	0x00	0

PPQ_Variable_92 f4 [64]
0	0x38210018	3.838548e-05
1	0x38136582	3.5142068e-05
2	0x3801b713	3.0926498e-05
3	0x37e28d8e	2.7007216e-05
4	0x380fcf88	3.4287135e-05
5	0x3818c9a5	3.642742e-05
6	0x380477b8	3.158275e-05
7	0x37f93c6e	2.9711253e-05
8	0x37fe96a5	3.0349309e-05
9	0x382079fc	3.826058e-05
10	0x3801aa31	3.09145e-05
11	0x382e5dc1	4.1572148e-05
12	0x38200a83	3.8156762e-05
13	0x38044a36	3.1540367e-05
14	0x383b6b02	4.4683933e-05
15	0x383aeb15	4.4564793e-05
16	0x3806457e	3.201281e-05
17	0x37efe526	2.8597726e-05
18	0x381f0aab	3.791849e-05
19	0x3826bbc9	3.9752373e-05
20	0x38375f47	4.3719334e-05
21	0x38109fb3	3.4481007e-05
22	0x381db639	3.7601425e-05
23	0x37e3b8d6	2.714658e-05
24	0x38263728	3.9628852e-05
25	0x3829727e	4.039937e-05
26	0x3802bc2d	3.1169668e-05
27	0x38280783	4.0061317e-05
28	0x3826a250	3.972865e-05
29	0x3811897b	3.4698733e-05
30	0x381254f0	3.4888217e-05
31	0x38007739	3.0628613e-05
32	0x3810bd9a	3.4508856e-05
33	0x381d7259	3.753821e-05
34	0x382993d8	4.043043e-05
35	0x381a6ba8	3.6816724e-05
36	0x382c1495	4.1027164e-05
37	0x37f83918	2.959049e-05
38	0x3815c932	3.5711746e-05
39	0x381ee4ee	3.7883343e-05
40	0x380f4c89	3.4165136e-05
41	0x380f4a39	3.4162982e-05
42	0x3800e78a	3.0733216e-05
43	0x381b34fb	3.700422e-05
44	0x383bf695	4.481392e-05
45	0x38168ecf	3.5895788e-05
46	0x381c4e7a	3.7266385e-05
47	0x380dbb5e	3.379152e-05
48	0x3826840c	3.9700462e-05
49	0x38129060	3.4943572e-05
50	0x381abae2	3.689051e-05
51	0x3815a2ed	3.5676105e-05
52	0x380edad1	3.4059227e-05
53	0x380efa06	3.408829e-05
54	0x380dab97	3.3776825e-05
55	0x38053d47	3.176674e-05
56	0x380edc7b	3.4060777e-05
57	0x380c01af	3.338017e-05
58	0x382f04da	4.172777e-05
59	0x37fb8025	2.9981204e-05
60	0x37f7b09a	2.9526931e-05
61	0x381b0c53	3.6966358e-05
62	0x38485648	4.776407e-05
63	0x3810c873	3.451896e-05

PPQ_Variable_101 f4 [64]
0	0x3bce3c4b	0.0062938086
1	0x3bb0e760	0.005398676
2	0x3be1cb79	0.006890711
3	0x3b8a9f14	0.0042303894
4	0x3c13b847	0.009016103
5	0x3ba8768e	0.005141086
6	0x3be02b41	0.006841094
7	0x3bd2557d	0.0064188824
8	0x3bc9a41e	0.0061535975
9	0x3bf76eb5	0.007551039
10	0x3bf91ea0	0.0076025277
11	0x3bd8da0f	0.0066177915
12	0x3bc378a1	0.005965308
13	0x3c06a09b	0.008217002
14	0x3bd6b9b0	0.0065528974
15	0x3bdd285a	0.006749195
16	0x3bd7cdac	0.0065857973
17	0x3bcb68e4	0.0062075723
18	0x3bf6b99c	0.0075294506
19	0x3bd5a809	0.0065202755
20	0x3bd5a450	0.0065198317
21	0x3bfca9d9	0.007710677
22	0x3c0859dd	0.008322206
23	0x3b8d8875	0.0043192455
24	0x3bb10ff7	0.0054035145
25	0x3ba3b4e1	0.0049959277
26	0x3bf931c0	0.0076048076
27	0x3bbdc258	0.00579099
28	0x3c01054e	0.0078748
29	0x3bbe5cb3	0.0058093905
30	0x3bdc761a	0.006727946
31	0x3be36c05	0.006940367
32	0x3bd4e219	0.0064966795
33	0x3b7c9da8	0.003854612
34	0x3bc3b706	0.005972746
35	0x3bfb3231	0.0076658954
36	0x3bb7f12a	0.005613466
37	0x3bd14fd2	0.006387689
38	0x3bde9410	0.006792553
39	0x3bd5eaa4	0.0065282155
40	0x3c036fe2	0.00802228
41	0x3bfc2589	0.007694904
42	0x3c0a3d01	0.008437396
43	0x3bddd03b	0.006769208
44	0x3b93bc83	0.0045085563
45	0x3bd92bd9	0.0066275415
46	0x3bd08a69	0.006364156
47	0x3c06798f	0.008207693
48	0x3b9ab993	0.004721829
49	0x3becd029	0.007226963
50	0x3bd498cc	0.0064879414
51	0x3bc128c2	0.0058947513
52	0x3bcc797c	0.006240068
53	0x3be9de70	0.0071371123
54	0x3be33dc9	0.0069348556
55	0x3be4ada5	0.006978708
56	0x3bcfd48c	0.0063424762
57	0x3be224c2	0.0069013545
58	0x3bff5c21	0.007792965
59	0x3ba96d54	0.0051705036
60	0x3bcb027e	0.0061953655
61	0x3baaf6bb	0.005217401
62	0x3bd18bd3	0.006394842
63	0x3becde2b	0.007228633

PPQ_Variable_102 i1 [64]
0	0x00	0
1	0x00	0
2	0x00	0
3	0x00	0
4	0x00	0
5	0x00	0
6	0x00	0
7	0x00	0
8	0x00	0
9	0x00	0
10	0x00	0
11	0x00	0
12	0x00	0
13	0x00	0
14	0x00	0
15	0x00	0
16	0x00	0
17	0x00	0
18	0x00	0
19	0x00	0
20	0x00	0
21	0x00	0
22	0x00	0
23	0x00	0
24	0x00	0
25	0x00	0
26	0x00	0
27	0x00	0
28	0x00	0
29	0x00	0
30	0x00	0
31	0x00	0
32	0x00	0
33	0x00	0
34	0x00	0
35	0x00	0
36	0x00	0
37	0x00	0
38	0x00	0
39	0x00	0
40	0x00	0
41	0x00	0
42	0x00	0
43	0x00	0
44	0x00	0
45	0x00	0
46	0x00	0
47	0x00	0
48	0x00	0
49	0x00	0
50	0x00	0
51	0x00	0
52	0x00	0
53	0x00	0
54	0x00	0
55	0x00	0
56	0x00	0
57	0x00	0
58	0x00	0
59	0x00	0
60	0x00	0
61	0x00	0
62	0x00	0
63	0x00	0
