closed/kai_jiang/code/vww/K1_BOARD_614.4MHz_V1.0/models/mobilenet_v1.onnx (onnx, 342108 bytes, 109 tensors)

model/batch_normalization_3/FusedBatchNormV3;model/depthwise_conv2d_1/depthwise;model/depthwise_conv2d_1/BiasAdd;model/depthwise_conv2d_1/BiasAdd/ReadVariableOp/resource i1 [16, 1, 3, 3]
00000000: f6e9 1332 3f06 687f 1313 0ac5 b794 d5be
00000010: 8009 01ff fdf2 80ba 13be cbe3 7f5d 0e43
00000020: 3b00 ade2 80c5 09b3 f412 1512 1580 2514
00000030: 5191 1e40 15cb ee30 265b 7116 7f62 15c1
00000040: a6c4 b080 c6fc d8f3 df91 74aa d35e 8a7f
00000050: 46e0 0d21 2c7f 6445 7214 d17f bf05 c247
00000060: 0ed0 0ee2 dff3 d080 dad9 becf 0c26 1c76
00000070: 7f3c 7a63 0317 1bfd 717f 1b55 5f15 d387
00000080: c6cc 809f dda9 ac84 acfb 80e9 1ad9 0735
-10 -23 19 50 63 6 104 127
19 19 10 -59 -73 -108 -43 -66
-128 9 1 -1 -3 -14 -128 -70
19 -66 -53 -29 127 93 14 67
59 0 -83 -30 -128 -59 9 -77
-12 18 21 18 21 -128 37 20
81 -111 30 64 21 -53 -18 48
38 91 113 22 127 98 21 -63
-90 -60 -80 -128 -58 -4 -40 -13
-33 -111 116 -86 -45 94 -118 127
70 -32 13 33 44 127 100 69
114 20 -47 127 -65 5 -62 71
14 -48 14 -30 -33 -13 -48 -128
-38 -39 -66 -49 12 38 28 118
127 60 122 99 3 23 27 -3
113 127 27 85 95 21 -45 -121
-58 -52 -128 -97 -35 -87 -84 -124
-84 -5 -128 -23 26 -39 7 53

model/batch_normalization_1/FusedBatchNormV3;model/depthwise_conv2d/depthwise;model/depthwise_conv2d/BiasAdd;model/depthwise_conv2d/BiasAdd/ReadVariableOp/resource i1 [8, 1, 3, 3]
00000000: b6fb b36c 7f28 2b2d a58e 06f9 4e2c e57f
00000010: 4298 b9e2 f510 4be7 7f47 ffe5 eefd 11ff
00000020: fdff 7fd2 d8d8 1934 21c2 327f b8c7 3931
00000030: 1880 1811 32ae 5201 3099 800d 22b7 4b29
00000040: 32e6 f281 26b7 c13c
-74 -5 -77 108 127 40 43 45
-91 -114 6 -7 78 44 -27 127
66 -104 -71 -30 -11 16 75 -25
127 71 -1 -27 -18 -3 17 -1
-3 -1 127 -46 -40 -40 25 52
33 -62 50 127 -72 -57 57 49
24 -128 24 17 50 -82 82 1
48 -103 -128 13 34 -73 75 41
50 -26 -14 -127 38 -73 -63 60

model/batch_normalization_15/FusedBatchNormV3;model/depthwise_conv2d_7/depthwise;model/depthwise_conv2d_7/BiasAdd;model/depthwise_conv2d_11/depthwise;model/depthwise_conv2d_7/BiasAdd/ReadVariableOp/resource i1 [128, 1, 3, 3]
00000000: f2f1 d6fd 1080 f6fc c2b9 95a1 456f 7fc1
00000010: e7eb f317 7f8a d655 16f9 6659 3e3f 1c10
00000020: ec8a be81 0519 67ab e437 0302 7fec 15f5
00000030: b5da 0680 bcfe 0031 16eb e7cd 557f 15d7
00000040: e6a1 7f40 5b38 3646 80c8 815e 2556 4e64
00000050: 7d7f e8b6 4335 ea0d d7f1 d7d1 80e5 09ec
00000060: 0c0b e57f 0df0 f2d4 dd0d 434a 8010 06bb
00000070: f2ea f6e0 008c ae80 c9f7 eef6 dd1d 090f
00000080: d2ea c9aa e3d2 805c f1e0 7f0a fee8 030a
00000090: a806 2a32 4c4c 475b 7ffb 0a80 f505 b8f3
000000a0: 06c4 c3d8 8008 15d6 def7 fa5d 7fea 1dd7
000000b0: deb5 1c2b 0cf0 840e bf80 01e0 e36c 2b3e
000000c0: 7f42 30f2 ebd2 db00 d80c 0c82 db05 80e4
000000d0: 80dd f60a f406 de0c 8095 d2f4 13ea 07eb
000000e0: 1209 4529 147f da4c 58b5 e0fe d2f5 b41e
000000f0: f4f1 81e9 cd80 fe11 ebfe f605 ed80 be09
-14 -15 -42 -3 16 -128 -10 -4
-62 -71 -107 -95 69 111 127 -63
-25 -21 -13 23 127 -118 -42 85
22 -7 102 89 62 63 28 16
-20 -118 -66 -127 5 25 103 -85
-28 55 3 2 127 -20 21 -11
-75 -38 6 -128 -68 -2 0 49
22 -21 -25 -51 85 127 21 -41
-26 -95 127 64 91 56 54 70
-128 -56 -127 94 37 86 78 100
125 127 -24 -74 67 53 -22 13
-41 -15 -41 -47 -128 -27 9 -20
12 11 -27 127 13 -16 -14 -44
-35 13 67 74 -128 16 6 -69
-14 -22 -10 -32 0 -116 -82 -128
-55 -9 -18 -10 -35 29 9 15
-46 -22 -55 -86 -29 -46 -128 92
-15 -32 127 10 -2 -24 3 10
-88 6 42 50 76 76 71 91
127 -5 10 -128 -11 5 -72 -13
6 -60 -61 -40 -128 8 21 -42
-34 -9 -6 93 127 -22 29 -41
-34 -75 28 43 12 -16 -124 14
-65 -128 1 -32 -29 108 43 62
127 66 48 -14 -21 -46 -37 0
-40 12 12 -126 -37 5 -128 -28
-128 -35 -10 10 -12 6 -34 12
-128 -107 -46 -12 19 -22 7 -21
18 9 69 41 20 127 -38 76
88 -75 -32 -2 -46 -11 -76 30
-12 -15 -127 -23 -51 -128 -2 17
-21 -2 -10 5 -19 -128 -66 9

model/batch_normalization_17/FusedBatchNormV3;model/depthwise_conv2d_8/depthwise;model/depthwise_conv2d_8/BiasAdd;model/depthwise_conv2d_11/depthwise;model/depthwise_conv2d_8/BiasAdd/ReadVariableOp/resource i1 [128, 1, 3, 3]
00000000: 81f0 fbf5 0103 fd00 ef80 8c95 0adb 19fe
00000010: 06a7 daeb c9fd 8981 1f98 80e9 fa07 0703
00000020: f4fb f380 b581 be02 060d ded9 e880 abf1
00000030: f7ef 1a0a d0e3 aa80 d80a 01fd f7f1 027f
00000040: 0e5a 090f f2c3 e9ff e0e6 09d6 f809 80ca
00000050: e3f0 04f0 b980 ee18 aff1 e0a1 3c80 b2ed
00000060: 8f9e d3cb 0404 a080 11a2 26a8 f3c1 80e3
00000070: 10da e604 0180 f306 d205 06b5 fff7 7f0a
00000080: 063e 0414 2f11 f315 0ffd 8180 a0db ef3d
00000090: 7f42 eb56 2324 24ff dc09 dbb1 0180 dc03
000000a0: f708 dc00 010a fc80 099d e09c 808b b700
000000b0: 1ba5 00fb 0101 d506 eff4 03e7 8102 fa0d
000000c0: 18fa a3fc c180 8081 aedd 19c6 f115 d6e8
000000d0: f7f3 81c5 08fb e2fe 8704 0280 c90d 1702
000000e0: e2e5 0000 0eef f2ed 8006 9ad3 d780 ba0d
000000f0: d414 09ea 7f76 0978 13d7 f8ff ac14 dfec
-127 -16 -5 -11 1 3 -3 0
-17 -128 -116 -107 10 -37 25 -2
6 -89 -38 -21 -55 -3 -119 -127
31 -104 -128 -23 -6 7 7 3
-12 -5 -13 -128 -75 -127 -66 2
6 13 -34 -39 -24 -128 -85 -15
-9 -17 26 10 -48 -29 -86 -128
-40 10 1 -3 -9 -15 2 127
14 90 9 15 -14 -61 -23 -1
-32 -26 9 -42 -8 9 -128 -54
-29 -16 4 -16 -71 -128 -18 24
-81 -15 -32 -95 60 -128 -78 -19
-113 -98 -45 -53 4 4 -96 -128
17 -94 38 -88 -13 -63 -128 -29
16 -38 -26 4 1 -128 -13 6
-46 5 6 -75 -1 -9 127 10
6 62 4 20 47 17 -13 21
15 -3 -127 -128 -96 -37 -17 61
127 66 -21 86 35 36 36 -1
-36 9 -37 -79 1 -128 -36 3
-9 8 -36 0 1 10 -4 -128
9 -99 -32 -100 -128 -117 -73 0
27 -91 0 -5 1 1 -43 6
-17 -12 3 -25 -127 2 -6 13
24 -6 -93 -4 -63 -128 -128 -127
-82 -35 25 -58 -15 21 -42 -24
-9 -13 -127 -59 8 -5 -30 -2
-121 4 2 -128 -55 13 23 2
-30 -27 0 0 14 -17 -14 -19
-128 6 -102 -45 -41 -128 -70 13
-44 20 9 -22 127 118 9 120
19 -41 -8 -1 -84 20 -33 -20

model/batch_normalization_25/FusedBatchNormV3;model/depthwise_conv2d_12/depthwise;model/depthwise_conv2d_12/BiasAdd;model/conv2d_13/Conv2D;model/depthwise_conv2d_12/BiasAdd/ReadVariableOp/resource i1 [256, 1, 3, 3]
00000000: 07be d980 fb0b 02e8 e810 7ffd f706 fdea
00000010: 0704 fed5 f7ed fd01 80fb f1fe 0480 eaee
00000020: f7f6 0c04 0ce7 bb96 0cf4 80fe f08f 80b1
00000030: ca06 0001 fbee 8580 9bf8 fcf9 fdfe fd80
00000040: bd0c f6ff 0a06 02eb 0ce4 1180 fa00 acff
00000050: 0e97 07f8 80fb f3db e501 020b 8000 edcf
00000060: ea06 02f4 ec05 0780 02f8 affb 80cc 198d
00000070: 0a04 e318 dec4 fd07 f606 ea04 a280 fd1d
00000080: acd6 80e1 bfa1 ecd8 80dd fe01 ff01 fc06
00000090: 80cd d6fc f50b ff06 f1af 0205 dde9 fe02
000000a0: 8015 80d5 d5b3 02f7 22f5 11fb fd04 81fd
000000b0: f7da 0ff6 ffff 01fe c980 f706 8b02 af27
000000c0: f580 2023 c4df 8002 07f5 def4 0901 02fc
000000d0: 07fb feed 0f09 0080 811c c182 0cf8 e0a1
000000e0: 1e81 dd0f 03fd ff04 fb00 07ee 07ea 05fd
000000f0: ebc7 80e8 ede4 8cff 2380 edef 80a5 d8fa
7 -66 -39 -128 -5 11 2 -24
-24 16 127 -3 -9 6 -3 -22
7 4 -2 -43 -9 -19 -3 1
-128 -5 -15 -2 4 -128 -22 -18
-9 -10 12 4 12 -25 -69 -106
12 -12 -128 -2 -16 -113 -128 -79
-54 6 0 1 -5 -18 -123 -128
-101 -8 -4 -7 -3 -2 -3 -128
-67 12 -10 -1 10 6 2 -21
12 -28 17 -128 -6 0 -84 -1
14 -105 7 -8 -128 -5 -13 -37
-27 1 2 11 -128 0 -19 -49
-22 6 2 -12 -20 5 7 -128
2 -8 -81 -5 -128 -52 25 -115
10 4 -29 24 -34 -60 -3 7
-10 6 -22 4 -94 -128 -3 29
-84 -42 -128 -31 -65 -95 -20 -40
-128 -35 -2 1 -1 1 -4 6
-128 -51 -42 -4 -11 11 -1 6
-15 -81 2 5 -35 -23 -2 2
-128 21 -128 -43 -43 -77 2 -9
34 -11 17 -5 -3 4 -127 -3
-9 -38 15 -10 -1 -1 1 -2
-55 -128 -9 6 -117 2 -81 39
-11 -128 32 35 -60 -33 -128 2
7 -11 -34 -12 9 1 2 -4
7 -5 -2 -19 15 9 0 -128
-127 28 -63 -126 12 -8 -32 -95
30 -127 -35 15 3 -3 -1 4
-5 0 7 -18 7 -22 5 -3
-21 -57 -128 -24 -19 -28 -116 -1
35 -128 -19 -17 -128 -91 -40 -6

model/batch_normalization_9/FusedBatchNormV3;model/depthwise_conv2d_4/depthwise;model/depthwise_conv2d_4/BiasAdd;model/depthwise_conv2d_5/depthwise;model/depthwise_conv2d_4/BiasAdd/ReadVariableOp/resource i1 [64, 1, 3, 3]
00000000: b25e cde6 7fbe f407 0197 f7e1 5f7e 0c7f
00000010: 698f 1285 ee55 eeaa 0513 8096 146c f76a
00000020: 6baa 457f 8c80 ad04 6b36 3571 0913 52d7
00000030: 8014 5fbc d24b dd5b 7fa9 1623 aed2 8255
00000040: f286 7f4a 5c49 26f5 b360 32d6 7f0a fb54
00000050: f10a a001 84e0 7f98 2b52 b3ce 302b 7fbf
00000060: 3ac1 0c11 dbcd 5a7f 1e52 fa06 f92d 102b
00000070: 7f09 2977 bd38 fed0 7ef8 8034 05b2 cba4
00000080: ba0f 7f2f faf6 d1f0 2de5 b87f 38f4 bd11
00000090: dbc4 db03 3330 137f 094a 43b6 6a5a ef7f
000000a0: 2c50 3f79 e03a f9b1 80a0 fa0f a630 0291
000000b0: 4a1a 800f a07f 4893 2b66 dcc3 f295 277f
000000c0: c765 193b f4ef 360e 48a0 8009 b4d6 573a
000000d0: afeb 2480 25df c0e9 6c9a cad5 7f8a c72c
000000e0: ce3b 8d0f f3ab 7f87 2269 5627 514a 7f40
000000f0: f6c8 cecb 81a7 157c a2d7 2d96 dbb8 afc4
-78 94 -51 -26 127 -66 -12 7
1 -105 -9 -31 95 126 12 127
105 -113 18 -123 -18 85 -18 -86
5 19 -128 -106 20 108 -9 106
107 -86 69 127 -116 -128 -83 4
107 54 53 113 9 19 82 -41
-128 20 95 -68 -46 75 -35 91
127 -87 22 35 -82 -46 -126 85
-14 -122 127 74 92 73 38 -11
-77 96 50 -42 127 10 -5 84
-15 10 -96 1 -124 -32 127 -104
43 82 -77 -50 48 43 127 -65
58 -63 12 17 -37 -51 90 127
30 82 -6 6 -7 45 16 43
127 9 41 119 -67 56 -2 -48
126 -8 -128 52 5 -78 -53 -92
-70 15 127 47 -6 -10 -47 -16
45 -27 -72 127 56 -12 -67 17
-37 -60 -37 3 51 48 19 127
9 74 67 -74 106 90 -17 127
44 80 63 121 -32 58 -7 -79
-128 -96 -6 15 -90 48 2 -111
74 26 -128 15 -96 127 72 -109
43 102 -36 -61 -14 -107 39 127
-57 101 25 59 -12 -17 54 14
72 -96 -128 9 -76 -42 87 58
-81 -21 36 -128 37 -33 -64 -23
108 -102 -54 -43 127 -118 -57 44
-50 59 -115 15 -13 -85 127 -121
34 105 86 39 81 74 127 64
-10 -56 -50 -53 -127 -89 21 124
-94 -41 45 -106 -37 -72 -81 -60

model/conv2d_2/Conv2D i1 [32, 16, 1, 1]
00000000: b9a3 5e4f 1d39 317f 0680 2eeb 2414 07d5
00000010: a810 2480 e6db 1352 5012 e529 d8a3 48f8
00000020: 8008 78ef 1518 39ed 17a0 2e05 12e7 033a
00000030: faef f5eb 327f f016 03e3 7b33 06fe 2a0f
00000040: 40db 80f7 f81f eedb 0f3a 0e42 1cec 0fc0
00000050: f703 8137 ebdf 2ec9 0215 045a c704 fc39
00000060: 1026 21d6 d2ff 1980 0ae2 0826 ec78 f537
00000070: 6892 edfa 7f2b 192b 2135 11f9 f64b cedd
00000080: dd11 b448 f3b2 8073 ebed cdeb 0d04 c10b
00000090: f49b 1d35 f110 7f99 01fe 2e14 08c0 eb0c
000000a0: 39d3 11c9 f333 2e13 f801 1133 c07f 29c8
000000b0: cda2 1438 e130 ebba 5780 2b10 3739 e7d2
000000c0: 9444 7f0b f517 10d1 0deb 0969 dee4 da3c
000000d0: 42bb c77f 3c5a f0b6 0f37 5bf9 3bfc 97df
000000e0: fa1c 6480 f40d 1132 1543 1223 d9f6 0340
000000f0: eac6 b6d3 5eab de80 096d d25c 0af3 ac2a
-71 -93 94 79 29 57 49 127
6 -128 46 -21 36 20 7 -43
-88 16 36 -128 -26 -37 19 82
80 18 -27 41 -40 -93 72 -8
-128 8 120 -17 21 24 57 -19
23 -96 46 5 18 -25 3 58
-6 -17 -11 -21 50 127 -16 22
3 -29 123 51 6 -2 42 15
64 -37 -128 -9 -8 31 -18 -37
15 58 14 66 28 -20 15 -64
-9 3 -127 55 -21 -33 46 -55
2 21 4 90 -57 4 -4 57
16 38 33 -42 -46 -1 25 -128
10 -30 8 38 -20 120 -11 55
104 -110 -19 -6 127 43 25 43
33 53 17 -7 -10 75 -50 -35
-35 17 -76 72 -13 -78 -128 115
-21 -19 -51 -21 13 4 -63 11
-12 -101 29 53 -15 16 127 -103
1 -2 46 20 8 -64 -21 12
57 -45 17 -55 -13 51 46 19
-8 1 17 51 -64 127 41 -56
-51 -94 20 56 -31 48 -21 -70
87 -128 43 16 55 57 -25 -46
-108 68 127 11 -11 23 16 -47
13 -21 9 105 -34 -28 -38 60
66 -69 -57 127 60 90 -16 -74
15 55 91 -7 59 -4 -105 -33
-6 28 100 -128 -12 13 17 50
21 67 18 35 -39 -10 3 64
-22 -58 -74 -45 94 -85 -34 -128
9 109 -46 92 10 -13 -84 42

model/batch_normalization_21/FusedBatchNormV3;model/depthwise_conv2d_10/depthwise;model/depthwise_conv2d_10/BiasAdd;model/depthwise_conv2d_11/depthwise;model/depthwise_conv2d_10/BiasAdd/ReadVariableOp/resource i1 [128, 1, 3, 3]
00000000: fd19 e009 e981 f216 d9dc 30c9 1dcd e3db
00000010: d080 9584 46ee 1e8b f6f2 8009 13db 0bca
00000020: 2180 d8fe 9dd4 80e0 00ba 2300 c7b0 e2fd
00000030: 0c27 3b36 7f27 804d 6fdb 5b36 ea01 1113
00000040: b780 0ae4 a0ef 0b1c b3c4 80fa 3bb3 5669
00000050: 0bd7 c50a faca 348c 80e7 3acd 802b ebcf
00000060: 01db cfd1 5480 f7a8 af0f c483 fe16 eaa5
00000070: dd2e f080 9be3 10fc ffdd c1f9 2980 0017
00000080: 0d15 7f08 010b faf7 d380 10f9 abf7 09b5
00000090: e915 f16a 7f2c 5e68 06fb f4fe 05aa 090b
000000a0: 80e5 e1e3 21b8 80ec f0f5 dff6 05a7 f519
000000b0: 800c c5a7 d916 fe01 ec0e cfad 8084 e552
000000c0: af32 7fa5 ebfe 10ff cbe7 bf80 0cef a500
000000d0: f4d1 0217 daf1 809f e981 03d1 d1fe 098c
000000e0: f18c a281 d306 d1de 5fe8 cfa0 a1c9 9580
000000f0: 004a d2f0 e0bf cfbb 98eb ff80 dce0 2e0c
-3 25 -32 9 -23 -127 -14 22
-39 -36 48 -55 29 -51 -29 -37
-48 -128 -107 -124 70 -18 30 -117
-10 -14 -128 9 19 -37 11 -54
33 -128 -40 -2 -99 -44 -128 -32
0 -70 35 0 -57 -80 -30 -3
12 39 59 54 127 39 -128 77
111 -37 91 54 -22 1 17 19
-73 -128 10 -28 -96 -17 11 28
-77 -60 -128 -6 59 -77 86 105
11 -41 -59 10 -6 -54 52 -116
-128 -25 58 -51 -128 43 -21 -49
1 -37 -49 -47 84 -128 -9 -88
-81 15 -60 -125 -2 22 -22 -91
-35 46 -16 -128 -101 -29 16 -4
-1 -35 -63 -7 41 -128 0 23
13 21 127 8 1 11 -6 -9
-45 -128 16 -7 -85 -9 9 -75
-23 21 -15 106 127 44 94 104
6 -5 -12 -2 5 -86 9 11
-128 -27 -31 -29 33 -72 -128 -20
-16 -11 -33 -10 5 -89 -11 25
-128 12 -59 -89 -39 22 -2 1
-20 14 -49 -83 -128 -124 -27 82
-81 50 127 -91 -21 -2 16 -1
-53 -25 -65 -128 12 -17 -91 0
-12 -47 2 23 -38 -15 -128 -97
-23 -127 3 -47 -47 -2 9 -116
-15 -116 -94 -127 -45 6 -47 -34
95 -24 -49 -96 -95 -55 -107 -128
0 74 -46 -16 -32 -65 -49 -69
-104 -21 -1 -128 -36 -32 46 12

model/batch_normalization_13/FusedBatchNormV3;model/depthwise_conv2d_6/depthwise;model/depthwise_conv2d_6/BiasAdd;model/depthwise_conv2d_11/depthwise;model/depthwise_conv2d_6/BiasAdd/ReadVariableOp/resource i1 [128, 1, 3, 3]
00000000: 88e5 81cd 03f8 a883 c494 7f41 be44 73e8
00000010: fe46 5a1c b547 fbd0 fd80 0607 a8a8 c581
00000020: e990 c0cc 0e11 7f09 ea50 ddeb 0ed1 9c92
00000030: 7f0d 172a 7616 0fdc cb7f fa9a 2fbc d21d
00000040: 3516 aced 1aaa 9880 646b c857 1eb8 bd80
00000050: bb81 c28f 25ec 9514 24ca 7ff9 09fd f208
00000060: 0a0b f3f0 3031 14de 037f dbcc f7c5 44bc
00000070: d831 b3ea 7fae d980 0e63 059a bbcd 80b8
00000080: ce2d bca9 28e1 ee7f 757f cfe7 09bf 90de
00000090: ecae 282a bfca 2a7f d6ff d511 f799 e111
000000a0: b581 0d0a 3f26 cd42 6bf3 7f03 f480 b8cd
000000b0: 921d ecf3 f3fc ef0c efe4 c581 8019 4f48
000000c0: f57f 0d29 774a c7f6 7ffe f401 1fce cfc6
000000d0: c905 f79f 00ee 800a 14ff 121e f40e 7f1d
000000e0: 4d00 ddf5 14e5 8009 a3aa d822 6df2 eb23
000000f0: cf81 b572 0671 37cb d17f 9fee 7a6e d7e9
-120 -27 -127 -51 3 -8 -88 -125
-60 -108 127 65 -66 68 115 -24
-2 70 90 28 -75 71 -5 -48
-3 -128 6 7 -88 -88 -59 -127
-23 -112 -64 -52 14 17 127 9
-22 80 -35 -21 14 -47 -100 -110
127 13 23 42 118 22 15 -36
-53 127 -6 -102 47 -68 -46 29
53 22 -84 -19 26 -86 -104 -128
100 107 -56 87 30 -72 -67 -128
-69 -127 -62 -113 37 -20 -107 20
36 -54 127 -7 9 -3 -14 8
10 11 -13 -16 48 49 20 -34
3 127 -37 -52 -9 -59 68 -68
-40 49 -77 -22 127 -82 -39 -128
14 99 5 -102 -69 -51 -128 -72
-50 45 -68 -87 40 -31 -18 127
117 127 -49 -25 9 -65 -112 -34
-20 -82 40 42 -65 -54 42 127
-42 -1 -43 17 -9 -103 -31 17
-75 -127 13 10 63 38 -51 66
107 -13 127 3 -12 -128 -72 -51
-110 29 -20 -13 -13 -4 -17 12
-17 -28 -59 -127 -128 25 79 72
-11 127 13 41 119 74 -57 -10
127 -2 -12 1 31 -50 -49 -58
-55 5 -9 -97 0 -18 -128 10
20 -1 18 30 -12 14 127 29
77 0 -35 -11 20 -27 -128 9
-93 -86 -40 34 109 -14 -21 35
-49 -127 -75 114 6 113 55 -53
-47 127 -97 -18 122 110 -41 -23

model/batch_normalization_23/FusedBatchNormV3;model/depthwise_conv2d_11/depthwise;model/depthwise_conv2d_11/BiasAdd;model/depthwise_conv2d_11/BiasAdd/ReadVariableOp/resource i1 [128, 1, 3, 3]
00000000: 0fdc d9f2 96f4 bb80 0a99 fcb3 b123 80b2
00000010: 52e0 f578 7f71 7360 3943 64f4 15f3 ecef
00000020: 1a80 a6c7 0fe7 f50d bf80 ded3 9afe ee11
00000030: 13e9 ec80 c6d9 3079 4e7f 4330 0321 da09
00000040: e680 e7e4 f09e 0ef2 e92d 13f7 7f25 ef1b
00000050: 1173 5dc9 777f acdf 1927 f77f fe54 51f5
00000060: 0614 0008 e203 800c ac8f cadc 08f9 b3e6
00000070: 150c ea0b 800b daf7 dd9b 0a18 80fb e304
00000080: eb1c 7f1f f737 0102 7ff5 1972 3315 5505
00000090: d221 e7cb c38a 80d1 0ff7 5e12 4e7f e71a
000000a0: 38d6 04f8 8002 e9b3 f21d e205 d3e1 dbbd
000000b0: 8017 f1fc 0dda 8af8 f880 040d ca00 07b8
000000c0: fbf7 80f1 0199 fac9 a9e5 b380 10f2 ce10
000000d0: e8f4 d3bb 0eba b880 96e8 0e87 1699 8055
000000e0: 9d24 e493 9def 9580 c695 fc80 1bf3 e334
000000f0: 8613 f8fa 00db 2c46 7fc4 5061 bd7f ac08
15 -36 -39 -14 -106 -12 -69 -128
10 -103 -4 -77 -79 35 -128 -78
82 -32 -11 120 127 113 115 96
57 67 100 -12 21 -13 -20 -17
26 -128 -90 -57 15 -25 -11 13
-65 -128 -34 -45 -102 -2 -18 17
19 -23 -20 -128 -58 -39 48 121
78 127 67 48 3 33 -38 9
-26 -128 -25 -28 -16 -98 14 -14
-23 45 19 -9 127 37 -17 27
17 115 93 -55 119 127 -84 -33
25 39 -9 127 -2 84 81 -11
6 20 0 8 -30 3 -128 12
-84 -113 -54 -36 8 -7 -77 -26
21 12 -22 11 -128 11 -38 -9
-35 -101 10 24 -128 -5 -29 4
-21 28 127 31 -9 55 1 2
127 -11 25 114 51 21 85 5
-46 33 -25 -53 -61 -118 -128 -47
15 -9 94 18 78 127 -25 26
56 -42 4 -8 -128 2 -23 -77
-14 29 -30 5 -45 -31 -37 -67
-128 23 -15 -4 13 -38 -118 -8
-8 -128 4 13 -54 0 7 -72
-5 -9 -128 -15 1 -103 -6 -55
-87 -27 -77 -128 16 -14 -50 16
-24 -12 -45 -69 14 -70 -72 -128
-106 -24 14 -121 22 -103 -128 85
-99 36 -28 -109 -99 -17 -107 -128
-58 -107 -4 -128 27 -13 -29 52
-122 19 -8 -6 0 -37 44 70
127 -60 80 97 -67 127 -84 8

model/conv2d_5/Conv2D i1 [64, 64, 1, 1]
00000000: 0a42 043a 07f7 e5ab 142b 42e6 1613 1799
00000010: 30fc da04 a2f4 d81a 02f9 0fde fee3 f21d
00000020: e0f5 d42a 30d1 1ae1 0404 1aef dc13 3d2f
00000030: cbdf e206 f638 ea13 7f05 1cee 04e9 1ced
00000040: 1fdb 68fe 060b 264e d30d e3dd f305 1452
00000050: d713 4518 0931 14f0 2404 3f38 d82d d938
00000060: 384f d6d1 1931 197e 3f18 410b 74a2 f6fd
00000070: 2342 fbff ec5a ed7a e085 1303 7f46 ea25
00000080: 5ee8 0a63 e6e6 3e55 d9c7 1e50 e0e5 5972
00000090: cfba b5f4 0bc2 c5c1 c4f2 f0c4 cc06 28f3
000000a0: f948 b610 1cc0 0de9 47fd d911 dc21 d8ef
000000b0: 0408 c408 0e7f 1153 e372 5903 b940 bfcb
000000c0: 0000 0000 0000 0000 0000 0000 0000 0000
000000d0: 0000 0000 0000 0000 0000 0000 0000 0000
000000e0: 0000 0000 0000 0000 0000 0000 0000 0000
000000f0: 0000 0000 0000 0000 0000 0000 0000 0000
10 66 4 58 7 -9 -27 -85
20 43 66 -26 22 19 23 -103
48 -4 -38 4 -94 -12 -40 26
2 -7 15 -34 -2 -29 -14 29
-32 -11 -44 42 48 -47 26 -31
4 4 26 -17 -36 19 61 47
-53 -33 -30 6 -10 56 -22 19
127 5 28 -18 4 -23 28 -19
31 -37 104 -2 6 11 38 78
-45 13 -29 -35 -13 5 20 82
-41 19 69 24 9 49 20 -16
36 4 63 56 -40 45 -39 56
56 79 -42 -47 25 49 25 126
63 24 65 11 116 -94 -10 -3
35 66 -5 -1 -20 90 -19 122
-32 -123 19 3 127 70 -22 37
94 -24 10 99 -26 -26 62 85
-39 -57 30 80 -32 -27 89 114
-49 -70 -75 -12 11 -62 -59 -63
-60 -14 -16 -60 -52 6 40 -13
-7 72 -74 16 28 -64 13 -23
71 -3 -39 17 -36 33 -40 -17
4 8 -60 8 14 127 17 83
-29 114 89 3 -71 64 -65 -53
0 0 0 0 0 0 0 0
0 0 0 0 0 0 0 0
0 0 0 0 0 0 0 0
0 0 0 0 0 0 0 0
0 0 0 0 0 0 0 0
0 0 0 0 0 0 0 0
0 0 0 0 0 0 0 0
0 0 0 0 0 0 0 0

model/conv2d_10/Conv2D i1 [128, 128, 1, 1]
00000000: 0000 0000 0000 0000 0000 0000 0000 0000
00000010: 0000 0000 0000 0000 0000 0000 0000 0000
00000020: 0000 0000 0000 0000 0000 0000 0000 0000
00000030: 0000 0000 0000 0000 0000 0000 0000 0000
00000040: 0000 0000 0000 0000 0000 0000 0000 0000
00000050: 0000 0000 0000 0000 0000 0000 0000 0000
00000060: 0000 0000 0000 0000 0000 0000 0000 0000
00000070: 0000 0000 0000 0000 0000 0000 0000 0000
00000080: 0000 0000 0000 0000 0000 0000 0000 0000
00000090: 0000 0000 0000 0000 0000 0000 0000 0000
000000a0: 0000 0000 0000 0000 0000 0000 0000 0000
000000b0: 0000 0000 0000 0000 0000 0000 0000 0000
000000c0: 0000 0000 0000 0000 0000 0000 0000 0000
000000d0: 0000 0000 0000 0000 0000 0000 0000 0000
000000e0: 0000 0000 0000 0000 0000 0000 0000 0000
000000f0: 0000 0000 0000 0000 0000 0000 0000 0000
0 0 0 0 0 0 0 0
0 0 0 0 0 0 0 0
0 0 0 0 0 0 0 0
0 0 0 0 0 0 0 0
0 0 0 0 0 0 0 0
0 0 0 0 0 0 0 0
0 0 0 0 0 0 0 0
0 0 0 0 0 0 0 0
0 0 0 0 0 0 0 0
0 0 0 0 0 0 0 0
0 0 0 0 0 0 0 0
0 0 0 0 0 0 0 0
0 0 0 0 0 0 0 0
0 0 0 0 0 0 0 0
0 0 0 0 0 0 0 0
0 0 0 0 0 0 0 0
0 0 0 0 0 0 0 0
0 0 0 0 0 0 0 0
0 0 0 0 0 0 0 0
0 0 0 0 0 0 0 0
0 0 0 0 0 0 0 0
0 0 0 0 0 0 0 0
0 0 0 0 0 0 0 0
0 0 0 0 0 0 0 0
0 0 0 0 0 0 0 0
0 0 0 0 0 0 0 0
0 0 0 0 0 0 0 0
0 0 0 0 0 0 0 0
0 0 0 0 0 0 0 0
0 0 0 0 0 0 0 0
0 0 0 0 0 0 0 0
0 0 0 0 0 0 0 0

model/batch_normalization_19/FusedBatchNormV3;model/depthwise_conv2d_9/depthwise;model/depthwise_conv2d_9/BiasAdd;model/depthwise_conv2d_11/depthwise;model/depthwise_conv2d_9/BiasAdd/ReadVariableOp/resource i1 [128, 1, 3, 3]
00000000: 20d1 81cf e5d0 e30e e71a a480 cf0d ef07
00000010: f4fc 7ff2 fa25 d4d7 15f6 2acc 0880 1408
00000020: b1fb e8db 9280 a1db f00e 11de 08e0 8d80
00000030: eff5 1af2 fe00 5dc3 ea2b 80fa 11d0 370f
00000040: e9f3 fdf6 07f8 d980 a082 80fe f408 0713
00000050: ebf3 1fd3 f9c5 ed81 b213 8d80 8bed d7c6
00000060: 030b fd1e 809e b78f 52bd a0e8 2fa6 0522
00000070: 9723 e380 460f c5a7 f618 80d7 fb0d f0eb
00000080: 14d6 ebf9 81aa 08f3 09a0 0dd4 910a c080
00000090: be7f acd9 3ad9 1730 e903 2ae1 efba 80dd
000000a0: b8a1 b98f 8013 f5d5 fc04 0480 11dd fe00
000000b0: fe09 ee02 09ce 8003 04dd fa03 0cc4 fff7
000000c0: bb06 0080 c008 8111 f417 fbeb badf 1280
000000d0: c798 1b4d 3fac da11 d6a9 88fd 33de 8cf1
000000e0: 800a daeb fb16 dce9 eb80 07cb 0e0e a4e9
000000f0: 809c dad3 80d5 f0db fff4 f60e 0bbf 8110
32 -47 -127 -49 -27 -48 -29 14
-25 26 -92 -128 -49 13 -17 7
-12 -4 127 -14 -6 37 -44 -41
21 -10 42 -52 8 -128 20 8
-79 -5 -24 -37 -110 -128 -95 -37
-16 14 17 -34 8 -32 -115 -128
-17 -11 26 -14 -2 0 93 -61
-22 43 -128 -6 17 -48 55 15
-23 -13 -3 -10 7 -8 -39 -128
-96 -126 -128 -2 -12 8 7 19
-21 -13 31 -45 -7 -59 -19 -127
-78 19 -115 -128 -117 -19 -41 -58
3 11 -3 30 -128 -98 -73 -113
82 -67 -96 -24 47 -90 5 34
-105 35 -29 -128 70 15 -59 -89
-10 24 -128 -41 -5 13 -16 -21
20 -42 -21 -7 -127 -86 8 -13
9 -96 13 -44 -111 10 -64 -128
-66 127 -84 -39 58 -39 23 48
-23 3 42 -31 -17 -70 -128 -35
-72 -95 -71 -113 -128 19 -11 -43
-4 4 4 -128 17 -35 -2 0
-2 9 -18 2 9 -50 -128 3
4 -35 -6 3 12 -60 -1 -9
-69 6 0 -128 -64 8 -127 17
-12 23 -5 -21 -70 -33 18 -128
-57 -104 27 77 63 -84 -38 17
-42 -87 -120 -3 51 -34 -116 -15
-128 10 -38 -21 -5 22 -36 -23
-21 -128 7 -53 14 14 -92 -23
-128 -100 -38 -45 -128 -43 -16 -37
-1 -12 -10 14 11 -65 -127 16

model/conv2d_4/Conv2D i1 [64, 32, 1, 1]
00000000: 0813 e9ec 660d 7f08 bc25 dc06 1d13 cab5
00000010: d1d1 0103 02f7 eb01 be1b f20e deb8 1823
00000020: 1212 ebf7 ffef e57f 0e21 09e8 0949 e5eb
00000030: f405 fef8 c936 f625 fd03 dbd4 d017 0e46
00000040: 2d49 dc20 dcf1 4a20 0544 c10b ef7f d6e4
00000050: dad9 11cb b3e8 2fe3 133f baf8 8315 ed16
00000060: dce2 a728 5535 0c7f 1d42 04b1 ac05 1b12
00000070: 0f1f f1ec eb15 b3d7 cf58 ecef 2b92 08be
00000080: 1223 ec8c 20ae e213 bef3 0b80 8305 4f70
00000090: fa33 1e54 b657 3eec 2915 49f6 f2c5 0422
000000a0: f0fc 68ea e0bb c143 4026 f8be f7e7 231b
000000b0: 0d6b 22dc cd3a d7c9 1b1e 1d80 d8fb d658
000000c0: 0c0e f70c e3c4 1101 381c 17cf 1580 18c2
000000d0: 09ec c725 0b69 0bed 07ba 2aa2 1aea 1de3
000000e0: d880 07fd 100d 72f2 2cf1 edfc cd1d 1fce
000000f0: 05fa f31d 2cf1 02f3 fd0b 1d08 0de4 1938
8 19 -23 -20 102 13 127 8
-68 37 -36 6 29 19 -54 -75
-47 -47 1 3 2 -9 -21 1
-66 27 -14 14 -34 -72 24 35
18 18 -21 -9 -1 -17 -27 127
14 33 9 -24 9 73 -27 -21
-12 5 -2 -8 -55 54 -10 37
-3 3 -37 -44 -48 23 14 70
45 73 -36 32 -36 -15 74 32
5 68 -63 11 -17 127 -42 -28
-38 -39 17 -53 -77 -24 47 -29
19 63 -70 -8 -125 21 -19 22
-36 -30 -89 40 85 53 12 127
29 66 4 -79 -84 5 27 18
15 31 -15 -20 -21 21 -77 -41
-49 88 -20 -17 43 -110 8 -66
18 35 -20 -116 32 -82 -30 19
-66 -13 11 -128 -125 5 79 112
-6 51 30 84 -74 87 62 -20
41 21 73 -10 -14 -59 4 34
-16 -4 104 -22 -32 -69 -63 67
64 38 -8 -66 -9 -25 35 27
13 107 34 -36 -51 58 -41 -55
27 30 29 -128 -40 -5 -42 88
12 14 -9 12 -29 -60 17 1
56 28 23 -49 21 -128 24 -62
9 -20 -57 37 11 105 11 -19
7 -70 42 -94 26 -22 29 -29
-40 -128 7 -3 16 13 114 -14
44 -15 -19 -4 -51 29 31 -50
5 -6 -13 29 44 -15 2 -13
-3 11 29 8 13 -28 25 56

model/batch_normalization_11/FusedBatchNormV3;model/depthwise_conv2d_5/depthwise;model/depthwise_conv2d_5/BiasAdd;model/depthwise_conv2d_5/BiasAdd/ReadVariableOp/resource i1 [64, 1, 3, 3]
00000000: e87f 79b4 3964 b2df 05bb 89d3 80dd 178b
00000010: df45 7305 c079 6e12 207f 4f80 9f9d ae86
00000020: 32e2 f809 f539 3e58 7f5c 515a 1bf0 8015
00000030: 903a 5392 5e07 eeeb 0403 3855 80ca 09f6
00000040: 1f80 4824 b830 eec5 00b8 80ef b4cf eb92
00000050: bb65 7f43 4c72 220e 2425 3423 305f 7f3b
00000060: 557a 26e7 ddd7 87b6 b4c4 8181 9600 3080
00000070: bc04 d837 b405 dda1 e02a dd14 81c7 5367
00000080: 4248 7f35 091a 06a3 3a7f aee7 5f01 9b12
00000090: a680 9db6 8ed6 9e84 e327 7b7f 275b 56f5
000000a0: f91e 543a 0272 7f57 3e6d 7b21 f3c5 b493
000000b0: 8097 8dac 2e5d 3653 7f44 2949 3038 7c37
000000c0: 5f7f 202b 1304 f12c 3850 7f47 607f 4349
000000d0: 6940 667f 3a14 14f6 2b4e 3245 7f40 2940
000000e0: 2f8e de32 b84a 7fef 676d 421c ed7f 6ff5
000000f0: 203f 16fa 1813 1568 7f18 3f4b c180 acb1
-24 127 121 -76 57 100 -78 -33
5 -69 -119 -45 -128 -35 23 -117
-33 69 115 5 -64 121 110 18
32 127 79 -128 -97 -99 -82 -122
50 -30 -8 9 -11 57 62 88
127 92 81 90 27 -16 -128 21
-112 58 83 -110 94 7 -18 -21
4 3 56 85 -128 -54 9 -10
31 -128 72 36 -72 48 -18 -59
0 -72 -128 -17 -76 -49 -21 -110
-69 101 127 67 76 114 34 14
36 37 52 35 48 95 127 59
85 122 38 -25 -35 -41 -121 -74
-76 -60 -127 -127 -106 0 48 -128
-68 4 -40 55 -76 5 -35 -95
-32 42 -35 20 -127 -57 83 103
66 72 127 53 9 26 6 -93
58 127 -82 -25 95 1 -101 18
-90 -128 -99 -74 -114 -42 -98 -124
-29 39 123 127 39 91 86 -11
-7 30 84 58 2 114 127 87
62 109 123 33 -13 -59 -76 -109
-128 -105 -115 -84 46 93 54 83
127 68 41 73 48 56 124 55
95 127 32 43 19 4 -15 44
56 80 127 71 96 127 67 73
105 64 102 127 58 20 20 -10
43 78 50 69 127 64 41 64
47 -114 -34 50 -72 74 127 -17
103 109 66 28 -19 127 111 -11
32 63 22 -6 24 19 21 104
127 24 63 75 -63 -128 -84 -79

model/conv2d_9/Conv2D i1 [128, 128, 1, 1]
00000000: 0000 0000 0000 0000 0000 0000 0000 0000
00000010: 0000 0000 0000 0000 0000 0000 0000 0000
00000020: 0000 0000 0000 0000 0000 0000 0000 0000
00000030: 0000 0000 0000 0000 0000 0000 0000 0000
00000040: 0000 0000 0000 0000 0000 0000 0000 0000
00000050: 0000 0000 0000 0000 0000 0000 0000 0000
00000060: 0000 0000 0000 0000 0000 0000 0000 0000
00000070: 0000 0000 0000 0000 0000 0000 0000 0000
00000080: 0000 0000 0000 0000 0000 0000 0000 0000
00000090: 0000 0000 0000 0000 0000 0000 0000 0000
000000a0: 0000 0000 0000 0000 0000 0000 0000 0000
000000b0: 0000 0000 0000 0000 0000 0000 0000 0000
000000c0: 0000 0000 0000 0000 0000 0000 0000 0000
000000d0: 0000 0000 0000 0000 0000 0000 0000 0000
000000e0: 0000 0000 0000 0000 0000 0000 0000 0000
000000f0: 0000 0000 0000 0000 0000 0000 0000 0000
0 0 0 0 0 0 0 0
0 0 0 0 0 0 0 0
0 0 0 0 0 0 0 0
0 0 0 0 0 0 0 0
0 0 0 0 0 0 0 0
0 0 0 0 0 0 0 0
0 0 0 0 0 0 0 0
0 0 0 0 0 0 0 0
0 0 0 0 0 0 0 0
0 0 0 0 0 0 0 0
0 0 0 0 0 0 0 0
0 0 0 0 0 0 0 0
0 0 0 0 0 0 0 0
0 0 0 0 0 0 0 0
0 0 0 0 0 0 0 0
0 0 0 0 0 0 0 0
0 0 0 0 0 0 0 0
0 0 0 0 0 0 0 0
0 0 0 0 0 0 0 0
0 0 0 0 0 0 0 0
0 0 0 0 0 0 0 0
0 0 0 0 0 0 0 0
0 0 0 0 0 0 0 0
0 0 0 0 0 0 0 0
0 0 0 0 0 0 0 0
0 0 0 0 0 0 0 0
0 0 0 0 0 0 0 0
0 0 0 0 0 0 0 0
0 0 0 0 0 0 0 0
0 0 0 0 0 0 0 0
0 0 0 0 0 0 0 0
0 0 0 0 0 0 0 0

model/conv2d_3/Conv2D i1 [32, 32, 1, 1]
00000000: ce01 1af5 04f0 27a3 17e9 d902 7f21 0f09
00000010: 0217 5b10 f9e8 4902 d2f9 b0eb 01ff d5d8
00000020: 10f2 fa15 e2d8 ffc9 7fe8 1bfb fac4 18e8
00000030: 0e09 7f03 090c 1d1f baf9 15c8 f9a0 d609
00000040: 1e2a f903 ed10 22e5 0a22 120e 0ded 23ee
00000050: 3608 26fe 1af8 0011 e916 04f4 f655 8010
00000060: fdea 8df9 37ce f65b 748d 03d1 1a2e 1efc
00000070: 067f bd15 0289 dfd5 d430 f8e6 d179 f7e4
00000080: dbe2 465a aa0b d8db 05d1 d9f2 1508 f268
00000090: ede3 f909 fe7f 0832 6412 1003 1de3 f4d6
000000a0: 5a29 d61b 1dfd e104 fb9b 0604 ef7f f112
000000b0: 2fc1 2805 0442 3529 5aff bfd9 ac3e 4b1d
000000c0: eb1f cf2a c724 1ba0 da49 00ee 33f6 0ef4
000000d0: 320c 1a27 22ee 020f 8036 29f7 be06 8613
000000e0: 2615 fcee 0ffb 28db 30f6 f031 0520 e5ff
000000f0: fff8 097f fe33 092c c811 24e7 1130 f2f6
-50 1 26 -11 4 -16 39 -93
23 -23 -39 2 127 33 15 9
2 23 91 16 -7 -24 73 2
-46 -7 -80 -21 1 -1 -43 -40
16 -14 -6 21 -30 -40 -1 -55
127 -24 27 -5 -6 -60 24 -24
14 9 127 3 9 12 29 31
-70 -7 21 -56 -7 -96 -42 9
30 42 -7 3 -19 16 34 -27
10 34 18 14 13 -19 35 -18
54 8 38 -2 26 -8 0 17
-23 22 4 -12 -10 85 -128 16
-3 -22 -115 -7 55 -50 -10 91
116 -115 3 -47 26 46 30 -4
6 127 -67 21 2 -119 -33 -43
-44 48 -8 -26 -47 121 -9 -28
-37 -30 70 90 -86 11 -40 -37
5 -47 -39 -14 21 8 -14 104
-19 -29 -7 9 -2 127 8 50
100 18 16 3 29 -29 -12 -42
90 41 -42 27 29 -3 -31 4
-5 -101 6 4 -17 127 -15 18
47 -63 40 5 4 66 53 41
90 -1 -65 -39 -84 62 75 29
-21 31 -49 42 -57 36 27 -96
-38 73 0 -18 51 -10 14 -12
50 12 26 39 34 -18 2 15
-128 54 41 -9 -66 6 -122 19
38 21 -4 -18 15 -5 40 -37
48 -10 -16 49 5 32 -27 -1
-1 -8 9 127 -2 51 9 44
-56 17 36 -25 17 48 -14 -10

model/conv2d_13/Conv2D i1 [256, 256, 1, 1]
00000000: 0000 0000 0000 0000 0000 0000 0000 0000
00000010: 0000 0000 0000 0000 0000 0000 0000 0000
00000020: 0000 0000 0000 0000 0000 0000 0000 0000
00000030: 0000 0000 0000 0000 0000 0000 0000 0000
00000040: 0000 0000 0000 0000 0000 0000 0000 0000
00000050: 0000 0000 0000 0000 0000 0000 0000 0000
00000060: 0000 0000 0000 0000 0000 0000 0000 0000
00000070: 0000 0000 0000 0000 0000 0000 0000 0000
00000080: 0000 0000 0000 0000 0000 0000 0000 0000
00000090: 0000 0000 0000 0000 0000 0000 0000 0000
000000a0: 0000 0000 0000 0000 0000 0000 0000 0000
000000b0: 0000 0000 0000 0000 0000 0000 0000 0000
000000c0: 0000 0000 0000 0000 0000 0000 0000 0000
000000d0: 0000 0000 0000 0000 0000 0000 0000 0000
000000e0: 0000 0000 0000 0000 0000 0000 0000 0000
000000f0: 0000 0000 0000 0000 0000 0000 0000 0000
0 0 0 0 0 0 0 0
0 0 0 0 0 0 0 0
0 0 0 0 0 0 0 0
0 0 0 0 0 0 0 0
0 0 0 0 0 0 0 0
0 0 0 0 0 0 0 0
0 0 0 0 0 0 0 0
0 0 0 0 0 0 0 0
0 0 0 0 0 0 0 0
0 0 0 0 0 0 0 0
0 0 0 0 0 0 0 0
0 0 0 0 0 0 0 0
0 0 0 0 0 0 0 0
0 0 0 0 0 0 0 0
0 0 0 0 0 0 0 0
0 0 0 0 0 0 0 0
0 0 0 0 0 0 0 0
0 0 0 0 0 0 0 0
0 0 0 0 0 0 0 0
0 0 0 0 0 0 0 0
0 0 0 0 0 0 0 0
0 0 0 0 0 0 0 0
0 0 0 0 0 0 0 0
0 0 0 0 0 0 0 0
0 0 0 0 0 0 0 0
0 0 0 0 0 0 0 0
0 0 0 0 0 0 0 0
0 0 0 0 0 0 0 0
0 0 0 0 0 0 0 0
0 0 0 0 0 0 0 0
0 0 0 0 0 0 0 0
0 0 0 0 0 0 0 0

model/batch_normalization_5/FusedBatchNormV3;model/depthwise_conv2d_2/depthwise;model/depthwise_conv2d_2/BiasAdd;model/depthwise_conv2d_3/depthwise;model/depthwise_conv2d_2/BiasAdd/ReadVariableOp/resource i1 [32, 1, 3, 3]
00000000: 0048 ec08 7f56 9800 1b81 7c17 350e e154
00000010: b4ea 0780 2327 a1e2 4bfe c0f4 30e3 d07f
00000020: 54d7 175a 07a6 1b10 9ef6 4980 cf73 c3fa
00000030: 7fa4 b417 e4d2 0636 caf2 7fb0 0025 ed44
00000040: 0718 13b1 daeb 81da 9190 ab30 7f34 1637
00000050: e8f9 3ef9 087f fdeb 7408 0837 c69e 7f5e
00000060: f3a6 d4e2 912b 0b81 6e08 a938 da37 20d1
00000070: 7f1e e2e5 fcd6 5646 80d2 45db cdf6 1cd6
00000080: 03b5 7ff9 31d7 0ad1 2d1c fc7f 54e2 27f2
00000090: ba9b df7f 56b2 ca62 ffb7 747f c422 24f0
000000a0: bab6 e880 cff2 6f55 0ffc 157f d9dd 5eb8
000000b0: d2fc 0cfb 51af e78b 7f1e 18bb f7e4 4a16
000000c0: 287f 0b0d 19dd efea ccda b77f dd98 265b
000000d0: 9dcd c885 7fb8 ce6b fd90 17e8 80ed 31e9
000000e0: 0adb b27f eeb1 60fa ef04 de15 0cd1 467f
000000f0: f026 f4f8 7f1b ce35 6b03 b1e4 f863 f8ba
0 72 -20 8 127 86 -104 0
27 -127 124 23 53 14 -31 84
-76 -22 7 -128 35 39 -95 -30
75 -2 -64 -12 48 -29 -48 127
84 -41 23 90 7 -90 27 16
-98 -10 73 -128 -49 115 -61 -6
127 -92 -76 23 -28 -46 6 54
-54 -14 127 -80 0 37 -19 68
7 24 19 -79 -38 -21 -127 -38
-111 -112 -85 48 127 52 22 55
-24 -7 62 -7 8 127 -3 -21
116 8 8 55 -58 -98 127 94
-13 -90 -44 -30 -111 43 11 -127
110 8 -87 56 -38 55 32 -47
127 30 -30 -27 -4 -42 86 70
-128 -46 69 -37 -51 -10 28 -42
3 -75 127 -7 49 -41 10 -47
45 28 -4 127 84 -30 39 -14
-70 -101 -33 127 86 -78 -54 98
-1 -73 116 127 -60 34 36 -16
-70 -74 -24 -128 -49 -14 111 85
15 -4 21 127 -39 -35 94 -72
-46 -4 12 -5 81 -81 -25 -117
127 30 24 -69 -9 -28 74 22
40 127 11 13 25 -35 -17 -22
-52 -38 -73 127 -35 -104 38 91
-99 -51 -56 -123 127 -72 -50 107
-3 -112 23 -24 -128 -19 49 -23
10 -37 -78 127 -18 -79 96 -6
-17 4 -34 21 12 -47 70 127
-16 38 -12 -8 127 27 -50 53
107 3 -79 -28 -8 99 -8 -70

model/conv2d_12/Conv2D i1 [256, 128, 1, 1]
00000000: 0000 0000 0000 0000 0000 0000 0000 0000
00000010: 0000 0000 0000 0000 0000 0000 0000 0000
00000020: 0000 0000 0000 0000 0000 0000 0000 0000
00000030: 0000 0000 0000 0000 0000 0000 0000 0000
00000040: 0000 0000 0000 0000 0000 0000 0000 0000
00000050: 0000 0000 0000 0000 0000 0000 0000 0000
00000060: 0000 0000 0000 0000 0000 0000 0000 0000
00000070: 0000 0000 0000 0000 0000 0000 0000 0000
00000080: 00d6 0000 0000 0000 0000 0000 0000 0000
00000090: 0000 0000 0000 0000 0000 0000 0000 0000
000000a0: 0000 004d 0800 0000 0000 0017 0000 0000
000000b0: 00ff 0000 0d00 0000 0000 0000 00f3 0000
000000c0: 0000 0000 0005 0000 0000 0000 0e7f 0000
000000d0: 0000 0000 0000 0037 0000 000b 2900 0000
000000e0: 0000 0000 004d 0000 0000 0800 0000 0001
000000f0: 2900 0000 0000 1f00 0037 0001 0000 00f7
0 0 0 0 0 0 0 0
0 0 0 0 0 0 0 0
0 0 0 0 0 0 0 0
0 0 0 0 0 0 0 0
0 0 0 0 0 0 0 0
0 0 0 0 0 0 0 0
0 0 0 0 0 0 0 0
0 0 0 0 0 0 0 0
0 0 0 0 0 0 0 0
0 0 0 0 0 0 0 0
0 0 0 0 0 0 0 0
0 0 0 0 0 0 0 0
0 0 0 0 0 0 0 0
0 0 0 0 0 0 0 0
0 0 0 0 0 0 0 0
0 0 0 0 0 0 0 0
0 -42 0 0 0 0 0 0
0 0 0 0 0 0 0 0
0 0 0 0 0 0 0 0
0 0 0 0 0 0 0 0
0 0 0 77 8 0 0 0
0 0 0 23 0 0 0 0
0 -1 0 0 13 0 0 0
0 0 0 0 0 -13 0 0
0 0 0 0 0 5 0 0
0 0 0 0 14 127 0 0
0 0 0 0 0 0 0 55
0 0 0 11 41 0 0 0
0 0 0 0 0 77 0 0
0 0 8 0 0 0 0 1
41 0 0 0 0 0 31 0
0 55 0 1 0 0 0 -9

model/conv2d_6/Conv2D i1 [128, 64, 1, 1]
00000000: ce2b 2c00 0de3 fd2e 32f9 f216 0000 5425
00000010: f41b b9ac 2add e7dd e78a fda4 2d0e 06a6
00000020: ff0e e094 f994 b403 df18 d2d5 2e22 6700
00000030: fc7f e1fc 4c08 0d04 1c04 d2d1 0b06 b538
00000040: f700 5b00 b3d1 1910 4003 6a72 0000 ca21
00000050: 1d37 354c 7ff5 1fa9 bfef fad9 2510 f932
00000060: 5d64 232c 14e2 2004 e6a5 02f4 23d6 dc00
00000070: 3c57 03e6 3b07 0c3e c9f6 063c d5d6 1fe0
00000080: f689 3500 09ff 062e f3e9 7b16 0000 7fd3
00000090: d2ec 03e7 a4c2 dd32 e30f 25dc 2e00 2442
000000a0: 1f22 2b1f 08a3 1602 0532 f9e4 0d9f 3300
000000b0: bfe9 18f8 fbf2 d8c3 2108 19d3 e1ff 07fd
000000c0: caef dd00 e632 f509 ff4e d9e2 0000 20a4
000000d0: c6ec 1cdf 360e c0c2 fbe4 b521 d42a 7f3c
000000e0: f3e4 dd0a edbe ebfb 19f0 04f2 fd2d ad00
000000f0: 28d2 af26 30f9 0be2 eb1a 09e6 0108 49bc
-50 43 44 0 13 -29 -3 46
50 -7 -14 22 0 0 84 37
-12 27 -71 -84 42 -35 -25 -35
-25 -118 -3 -92 45 14 6 -90
-1 14 -32 -108 -7 -108 -76 3
-33 24 -46 -43 46 34 103 0
-4 127 -31 -4 76 8 13 4
28 4 -46 -47 11 6 -75 56
-9 0 91 0 -77 -47 25 16
64 3 106 114 0 0 -54 33
29 55 53 76 127 -11 31 -87
-65 -17 -6 -39 37 16 -7 50
93 100 35 44 20 -30 32 4
-26 -91 2 -12 35 -42 -36 0
60 87 3 -26 59 7 12 62
-55 -10 6 60 -43 -42 31 -32
-10 -119 53 0 9 -1 6 46
-13 -23 123 22 0 0 127 -45
-46 -20 3 -25 -92 -62 -35 50
-29 15 37 -36 46 0 36 66
31 34 43 31 8 -93 22 2
5 50 -7 -28 13 -97 51 0
-65 -23 24 -8 -5 -14 -40 -61
33 8 25 -45 -31 -1 7 -3
-54 -17 -35 0 -26 50 -11 9
-1 78 -39 -30 0 0 32 -92
-58 -20 28 -33 54 14 -64 -62
-5 -28 -75 33 -44 42 127 60
-13 -28 -35 10 -19 -66 -21 -5
25 -16 4 -14 -3 45 -83 0
40 -46 -81 38 48 -7 11 -30
-21 26 9 -26 1 8 73 -68

model/conv2d_7/Conv2D i1 [128, 128, 1, 1]
00000000: 0000 0000 0000 0000 0000 0000 0000 0000
00000010: 0000 0000 0000 0000 0000 0000 0000 0000
00000020: 0000 0000 0000 0000 0000 0000 0000 0000
00000030: 0000 0000 0000 0000 0000 0000 0000 0000
00000040: 0000 0000 0000 0000 0000 0000 0000 0000
00000050: 0000 0000 0000 0000 0000 0000 0000 0000
00000060: 0000 0000 0000 0000 0000 0000 0000 0000
00000070: 0000 0000 0000 0000 0000 0000 0000 0000
00000080: fdf6 32f0 ccab 0b2c 16ea 80f4 be1f 1f1c
00000090: f100 1d00 00e9 d800 fb00 3d3f 1f2d 00c7
000000a0: d9e9 1c09 1100 ddf1 5311 f81b 0000 fc1e
000000b0: 46e8 97e4 4500 0809 1f00 d200 100e c4ec
000000c0: 0eff 0200 0035 1844 0037 042f dcc0 002f
000000d0: f2fb 0c56 eacd 2a00 1f0f 0819 0edf 00f4
000000e0: d100 00cb 1602 df00 0007 32cf 0614 0007
000000f0: 0ed6 412c fb05 22fe c702 78cf 52da 03fd
0 0 0 0 0 0 0 0
0 0 0 0 0 0 0 0
0 0 0 0 0 0 0 0
0 0 0 0 0 0 0 0
0 0 0 0 0 0 0 0
0 0 0 0 0 0 0 0
0 0 0 0 0 0 0 0
0 0 0 0 0 0 0 0
0 0 0 0 0 0 0 0
0 0 0 0 0 0 0 0
0 0 0 0 0 0 0 0
0 0 0 0 0 0 0 0
0 0 0 0 0 0 0 0
0 0 0 0 0 0 0 0
0 0 0 0 0 0 0 0
0 0 0 0 0 0 0 0
-3 -10 50 -16 -52 -85 11 44
22 -22 -128 -12 -66 31 31 28
-15 0 29 0 0 -23 -40 0
-5 0 61 63 31 45 0 -57
-39 -23 28 9 17 0 -35 -15
83 17 -8 27 0 0 -4 30
70 -24 -105 -28 69 0 8 9
31 0 -46 0 16 14 -60 -20
14 -1 2 0 0 53 24 68
0 55 4 47 -36 -64 0 47
-14 -5 12 86 -22 -51 42 0
31 15 8 25 14 -33 0 -12
-47 0 0 -53 22 2 -33 0
0 7 50 -49 6 20 0 7
14 -42 65 44 -5 5 34 -2
-57 2 120 -49 82 -38 3 -3

model/batch_normalization_7/FusedBatchNormV3;model/depthwise_conv2d_3/depthwise;model/depthwise_conv2d_3/BiasAdd;model/depthwise_conv2d_3/BiasAdd/ReadVariableOp/resource i1 [32, 1, 3, 3]
00000000: 2c5c 4359 7f43 3e4d 1dfa b5e6 b780 cab4
00000010: bee9 4aaf b77f d3af 38ee c0ad b31e b21d
00000020: 61f7 5d7f 526e 3bec ed01 a880 c0d7 c5e4
00000030: b380 cbd9 c3f4 527f 2f66 742a 150d 11de
00000040: bfd0 b181 c5fc a9e4 00a7 aab3 80d0 d8c5
00000050: fd83 80d2 0a15 2553 5f2d 3573 4165 7f51
00000060: 5753 19be 3841 8033 42d8 fa0c 4c28 eb7f
00000070: 65f4 444f 22b5 80cb 928a d1d3 ef0c ebb3
00000080: a9c3 80e0 e5e7 f6e8 bcb3 d884 80d4 afb9
00000090: b2c7 f9be 8097 f9c7 c8e0 c2e0 b080 ccc5
000000a0: b8ec c1b4 ecb5 80c4 bdc0 dfb9 c309 d380
000000b0: adef d7b9 c3fa 4dff 6d7f 4a77 2e07 d199
000000c0: a490 80d8 b4b7 b40f 2981 3a65 e63c 3e2a
000000d0: 4120 2d7d 7ffd 6154 361e e454 7a35 457f
000000e0: 6756 7f27 7c5e 0412 ead3 d896 b281 80e3
000000f0: b7d0 1f4b 631a 777f 1835 3911 ecca bcbe
44 92 67 89 127 67 62 77
29 -6 -75 -26 -73 -128 -54 -76
-66 -23 74 -81 -73 127 -45 -81
56 -18 -64 -83 -77 30 -78 29
97 -9 93 127 82 110 59 -20
-19 1 -88 -128 -64 -41 -59 -28
-77 -128 -53 -39 -61 -12 82 127
47 102 116 42 21 13 17 -34
-65 -48 -79 -127 -59 -4 -87 -28
0 -89 -86 -77 -128 -48 -40 -59
-3 -125 -128 -46 10 21 37 83
95 45 53 115 65 101 127 81
87 83 25 -66 56 65 -128 51
66 -40 -6 12 76 40 -21 127
101 -12 68 79 34 -75 -128 -53
-110 -118 -47 -45 -17 12 -21 -77
-87 -61 -128 -32 -27 -25 -10 -24
-68 -77 -40 -124 -128 -44 -81 -71
-78 -57 -7 -66 -128 -105 -7 -57
-56 -32 -62 -32 -80 -128 -52 -59
-72 -20 -63 -76 -20 -75 -128 -60
-67 -64 -33 -71 -61 9 -45 -128
-83 -17 -41 -71 -61 -6 77 -1
109 127 74 119 46 7 -47 -103
-92 -112 -128 -40 -76 -73 -76 15
41 -127 58 101 -26 60 62 42
65 32 45 125 127 -3 97 84
54 30 -28 84 122 53 69 127
103 86 127 39 124 94 4 18
-22 -45 -40 -106 -78 -127 -128 -29
-73 -48 31 75 99 26 119 127
24 53 57 17 -20 -54 -68 -66

model/dense/MatMul i1 [2, 256]
00000000: 09ff fe07 fa08 faf0 0411 fd0e fd27 0805
00000010: 080e 03f6 0703 0e08 0702 0104 0600 f3f1
00000020: f4f8 2ef8 fb28 f300 01ff 0429 0907 f0f2
00000030: 0c06 27fd fe06 fa01 b5f8 fe04 0c05 01f0
00000040: f702 0811 fa0f ff09 f3bd 0606 fefc 02f0
00000050: f401 f7fb f8fb 0521 0f08 ffed 0df6 05c6
00000060: fefa 071a 01f3 fdfd fafe fd01 fc05 fb04
00000070: fefd 0ef6 eef5 f306 0304 f7fb 0900 0e06
00000080: 08ff f401 f6f3 0300 ff09 faf8 f205 f9d2
00000090: fbfe fdfe 0621 0803 12f3 0a00 0c02 0603
000000a0: 08ff 0c00 02fc 0505 03fd 0609 02fe f5ff
000000b0: fbe0 f505 0302 f6fb 0405 07fa f426 f601
000000c0: f705 070a f0f9 0705 d4d3 0301 0407 03e4
000000d0: ff02 fa0b 0604 210e 0bf9 1003 080d 36f8
000000e0: 090e f9ff fa0b f4fa 03fa 0101 0002 f9cc
000000f0: 0203 f011 fe0b fb07 f4eb fe07 f11b 11f9
9 -1 -2 7 -6 8 -6 -16
4 17 -3 14 -3 39 8 5
8 14 3 -10 7 3 14 8
7 2 1 4 6 0 -13 -15
-12 -8 46 -8 -5 40 -13 0
1 -1 4 41 9 7 -16 -14
12 6 39 -3 -2 6 -6 1
-75 -8 -2 4 12 5 1 -16
-9 2 8 17 -6 15 -1 9
-13 -67 6 6 -2 -4 2 -16
-12 1 -9 -5 -8 -5 5 33
15 8 -1 -19 13 -10 5 -58
-2 -6 7 26 1 -13 -3 -3
-6 -2 -3 1 -4 5 -5 4
-2 -3 14 -10 -18 -11 -13 6
3 4 -9 -5 9 0 14 6
8 -1 -12 1 -10 -13 3 0
-1 9 -6 -8 -14 5 -7 -46
-5 -2 -3 -2 6 33 8 3
18 -13 10 0 12 2 6 3
8 -1 12 0 2 -4 5 5
3 -3 6 9 2 -2 -11 -1
-5 -32 -11 5 3 2 -10 -5
4 5 7 -6 -12 38 -10 1
-9 5 7 10 -16 -7 7 5
-44 -45 3 1 4 7 3 -28
-1 2 -6 11 6 4 33 14
11 -7 16 3 8 13 54 -8
9 14 -7 -1 -6 11 -12 -6
3 -6 1 1 0 2 -7 -52
2 3 -16 17 -2 11 -5 7
-12 -21 -2 7 -15 27 17 -7

model/conv2d_1/Conv2D i1 [16, 8, 1, 1]
00000000: 7feb 22e7 3d02 0eff f826 cd96 43bb 7fec
00000010: 617f fcf2 daff 2e00 17b7 4e2f 7f10 e1cf
00000020: d42d 4dfa 47fc 7fc1 f110 0b22 1e7f f806
00000030: f909 f17f 30f8 2603 f5f5 1d80 ec13 e90d
00000040: 0082 8228 54f0 cc80 e27f 0811 3016 53fa
00000050: 1ee5 ecdc f280 f6f3 80e2 fafb f8f4 4bf3
00000060: 2ed9 1d7f e2c2 3e2a c83b 7f13 155c 301b
00000070: 80bf 381a aedf 90e4 f31a f7e4 d6f2 7ffb
127 -21 34 -25 61 2 14 -1
-8 38 -51 -106 67 -69 127 -20
97 127 -4 -14 -38 -1 46 0
23 -73 78 47 127 16 -31 -49
-44 45 77 -6 71 -4 127 -63
-15 16 11 34 30 127 -8 6
-7 9 -15 127 48 -8 38 3
-11 -11 29 -128 -20 19 -23 13
0 -126 -126 40 84 -16 -52 -128
-30 127 8 17 48 22 83 -6
30 -27 -20 -36 -14 -128 -10 -13
-128 -30 -6 -5 -8 -12 75 -13
46 -39 29 127 -30 -62 62 42
-56 59 127 19 21 92 48 27
-128 -65 56 26 -82 -33 -112 -28
-13 26 -9 -28 -42 -14 127 -5

model/conv2d_11/Conv2D i1 [128, 128, 1, 1]
00000000: 0000 0000 0000 0000 0000 0000 0000 0000
00000010: 0000 0000 0000 0000 0000 0000 0000 0000
00000020: 0000 0000 0000 0000 0000 0000 0000 0000
00000030: 0000 0000 0000 0000 0000 0000 0000 0000
00000040: 0000 0000 0000 0000 0000 0000 0000 0000
00000050: 0000 0000 0000 0000 0000 0000 0000 0000
00000060: 0000 0000 0000 0000 0000 0000 0000 0000
00000070: 0000 0000 0000 0000 0000 0000 0000 0000
00000080: 0000 0000 007f ff00 0000 0000 0000 2500
00000090: 0000 0000 0000 0000 0000 0000 0000 0000
000000a0: 0000 0000 0000 0000 0000 0000 0000 0000
000000b0: 0000 0000 00d4 0000 0000 0000 9000 1400
000000c0: 0000 0000 00f7 f500 0000 0000 0000 c100
000000d0: 0076 0000 0000 00fb 0000 c400 0000 0000
000000e0: 0000 0000 0000 0000 0000 3900 f600 0000
000000f0: 0000 0000 0000 0300 0000 0000 0000 0000
0 0 0 0 0 0 0 0
0 0 0 0 0 0 0 0
0 0 0 0 0 0 0 0
0 0 0 0 0 0 0 0
0 0 0 0 0 0 0 0
0 0 0 0 0 0 0 0
0 0 0 0 0 0 0 0
0 0 0 0 0 0 0 0
0 0 0 0 0 0 0 0
0 0 0 0 0 0 0 0
0 0 0 0 0 0 0 0
0 0 0 0 0 0 0 0
0 0 0 0 0 0 0 0
0 0 0 0 0 0 0 0
0 0 0 0 0 0 0 0
0 0 0 0 0 0 0 0
0 0 0 0 0 127 -1 0
0 0 0 0 0 0 37 0
0 0 0 0 0 0 0 0
0 0 0 0 0 0 0 0
0 0 0 0 0 0 0 0
0 0 0 0 0 0 0 0
0 0 0 0 0 -44 0 0
0 0 0 0 -112 0 20 0
0 0 0 0 0 -9 -11 0
0 0 0 0 0 0 -63 0
0 118 0 0 0 0 0 -5
0 0 -60 0 0 0 0 0
0 0 0 0 0 0 0 0
0 0 57 0 -10 0 0 0
0 0 0 0 0 0 3 0
0 0 0 0 0 0 0 0

model/conv2d/Conv2D i1 [8, 3, 3, 3]
00000000: 2622 ff03 f215 1d46 2fa3 8580 a2d6 01ec
00000010: 9fa8 4866 5758 0d29 fb1b 01c7 9fa3 089a
00000020: cd2f 3a1b e1fe ebd5 052d f1d6 f17f 2b79
00000030: 1146 10e0 1df5 b0dd 0c0a f518 f42d 7f9f
00000040: af01 afca 1609 0c17 b4bb dcf2 170b 190b
00000050: 2555 db5c 33a2 3035 a1fa 2799 1c1b b8fd
00000060: defb 2dec b3f8 2480 041c 261b deb9 a61d
00000070: ce80 0f0f c12f 19e4 47cb d71f 4da7 1124
00000080: 19bc dbcb 21ba b7e4 a5c5 4d15 c53a 7ffd
00000090: 49b2 f86a dba7 573b edd4 b609 2f3b 8dea
000000a0: 0b0e 4554 1b31 fb29 1c5c 4fd9 ceca c7bf
000000b0: c3b8 8087 eece 21fb 3621 2547 f11a b880
000000c0: 1211 a012 e3cc fd28 fe1f eedf ef3a 2cda
000000d0: 49f3 0bdc b82f d3bb
38 34 -1 3 -14 21 29 70
47 -93 -123 -128 -94 -42 1 -20
-97 -88 72 102 87 88 13 41
-5 27 1 -57 -97 -93 8 -102
-51 47 58 27 -31 -2 -21 -43
5 45 -15 -42 -15 127 43 121
17 70 16 -32 29 -11 -80 -35
12 10 -11 24 -12 45 127 -97
-81 1 -81 -54 22 9 12 23
-76 -69 -36 -14 23 11 25 11
37 85 -37 92 51 -94 48 53
-95 -6 39 -103 28 27 -72 -3
-34 -5 45 -20 -77 -8 36 -128
4 28 38 27 -34 -71 -90 29
-50 -128 15 15 -63 47 25 -28
71 -53 -41 31 77 -89 17 36
25 -68 -37 -53 33 -70 -73 -28
-91 -59 77 21 -59 58 127 -3
73 -78 -8 106 -37 -89 87 59
-19 -44 -74 9 47 59 -115 -22
11 14 69 84 27 49 -5 41
28 92 79 -39 -50 -54 -57 -65
-61 -72 -128 -121 -18 -50 33 -5
54 33 37 71 -15 26 -72 -128
18 17 -96 18 -29 -52 -3 40
-2 31 -18 -33 -17 58 44 -38
73 -13 11 -36 -72 47 -45 -69

model/conv2d_8/Conv2D i1 [128, 128, 1, 1]
00000000: 0000 0000 0000 0000 0000 0000 0000 0000
00000010: 0000 0000 0000 0000 0000 0000 0000 0000
00000020: 0000 0000 0000 0000 0000 0000 0000 0000
00000030: 0000 0000 0000 0000 0000 0000 0000 0000
00000040: 0000 0000 0000 0000 0000 0000 0000 0000
00000050: 0000 0000 0000 0000 0000 0000 0000 0000
00000060: 0000 0000 0000 0000 0000 0000 0000 0000
00000070: 0000 0000 0000 0000 0000 0000 0000 0000
00000080: 0000 0000 0000 0000 0000 0000 0000 0000
00000090: 0000 0000 0000 0000 0000 0000 0000 0000
000000a0: 0000 0000 0000 0000 0000 0000 0000 0000
000000b0: 0000 0000 0000 0000 0000 0000 0000 0000
000000c0: 0000 0000 0000 0000 0000 0000 0000 0000
000000d0: 0000 0000 0000 0000 0000 0000 0000 0000
000000e0: 0000 0000 0000 0000 0000 0000 0000 0000
000000f0: 0000 0000 0000 0000 0000 0000 0000 0000
0 0 0 0 0 0 0 0
0 0 0 0 0 0 0 0
0 0 0 0 0 0 0 0
0 0 0 0 0 0 0 0
0 0 0 0 0 0 0 0
0 0 0 0 0 0 0 0
0 0 0 0 0 0 0 0
0 0 0 0 0 0 0 0
0 0 0 0 0 0 0 0
0 0 0 0 0 0 0 0
0 0 0 0 0 0 0 0
0 0 0 0 0 0 0 0
0 0 0 0 0 0 0 0
0 0 0 0 0 0 0 0
0 0 0 0 0 0 0 0
0 0 0 0 0 0 0 0
0 0 0 0 0 0 0 0
0 0 0 0 0 0 0 0
0 0 0 0 0 0 0 0
0 0 0 0 0 0 0 0
0 0 0 0 0 0 0 0
0 0 0 0 0 0 0 0
0 0 0 0 0 0 0 0
0 0 0 0 0 0 0 0
0 0 0 0 0 0 0 0
0 0 0 0 0 0 0 0
0 0 0 0 0 0 0 0
0 0 0 0 0 0 0 0
0 0 0 0 0 0 0 0
0 0 0 0 0 0 0 0
0 0 0 0 0 0 0 0
0 0 0 0 0 0 0 0

PPQ_Variable_124 f4 [8]
00000000: e034 833a e978 9b3a 8709 8b3a 5bbc 113b
00000010: db68 8c3a 5865 883a bee0 aa3a 1c7e b23a
0.0010010265 0.0011861596 0.0010607698 0.0022237513 0.0010712402 0.0010406179 0.0013036949 0.0013617906

PPQ_Variable_125 i1 [8]
00000000: 0000 0000 0000 0000
0 0 0 0 0 0 0 0

PPQ_Variable_127 f4 [8]
00000000: 038d 8637 636f 9f37 c394 8e37 4c73 1538
00000010: 0bfd 8f37 58df 8b37 be3b af37 cb0a b737
1.6039708e-05 1.9006146e-05 1.6996992e-05 3.5631747e-05 1.716476e-05 1.6674094e-05 2.0889445e-05 2.1820326e-05

PPQ_Variable_136 f4 [8]
00000000: e38f d83b faff be3b 8ebf ae3b 28de ee3b
00000010: f179 aa3b 963d f53b 7598 eb3b 9b0f b63b
0.0066089495 0.0058288546 0.0053328937 0.0072896667 0.005202525 0.0074841483 0.007189805 0.0055560595

PPQ_Variable_137 i1 [8]
00000000: 0000 0000 0000 0000
0 0 0 0 0 0 0 0

PPQ_Variable_139 f4 [8]
00000000: 8e56 2e38 8ac2 1938 4aad 0c38 794b 4038
00000010: e73c 0938 d16c 4538 1aa9 3d38 5790 1238
4.1565443e-05 3.665922e-05 3.353999e-05 4.5846657e-05 3.2720065e-05 4.7069803e-05 4.52186e-05 3.494354e-05

PPQ_Variable_148 f4 [16]
00000000: b161 ab3b 0b37 aa3b b743 b23b 5188 b13b
00000010: c620 c73b 88c0 d23b d3f6 b53b 1451 e43b
00000020: d4b2 be3b f48c ba3b b802 fe3b f23b f93b
00000030: d283 ab3b ab81 9b3b 1ad3 b33b 7bed d63b
0.0052301516 0.00519455 0.005440201 0.0054178615 0.006076905 0.006431643 0.0055531054 0.006967673
0.005819658 0.0056930725 0.007751789 0.007606023 0.00523422 0.0047456822 0.0054878118 0.0065590716

PPQ_Variable_149 i1 [16]
00000000: 0000 0000 0000 0000 0000 0000 0000 0000
0 0 0 0 0 0 0 0
0 0 0 0 0 0 0 0

PPQ_Variable_151 f4 [16]
00000000: 0d36 2f38 bb04 2e38 733f 3638 dd7f 3538
00000010: da93 4b38 1b76 5738 b807 3a38 206b 6938
00000020: b0f5 4238 16b8 3e38 dfd7 8138 a6cd 7e38
00000030: f258 2f38 38fb 1e38 c2d7 3738 f0ba 5b38
4.177359e-05 4.148924e-05 4.3451273e-05 4.3272845e-05 4.853667e-05 5.136999e-05 4.4353044e-05 5.5651297e-05
4.648202e-05 4.5470973e-05 6.1914085e-05 6.0749844e-05 4.1806088e-05 3.79041e-05 4.383154e-05 5.2387768e-05

PPQ_Variable_160 f4 [16]
00000000: 1b9e af3b 316e 9e3b c0c5 c73b a9b9 b63b
00000010: 5494 b63b 247a c43b a5d9 b63b 4e71 d83b
00000020: 2809 b13b 9f60 bb3b 4144 f53b 990e f33b
00000030: 2ce6 b23b b4f6 a13b f8df b53b d111 c23b
0.005359424 0.004834913 0.0060965717 0.0055763316 0.0055718813 0.0059960056 0.0055801445 0.006605304
0.005402703 0.0057183052 0.007484943 0.0074175117 0.0054595675 0.0049427394 0.005550381 0.005922534

PPQ_Variable_161 i1 [16]
00000000: 0000 0000 0000 0000 0000 0000 0000 0000
0 0 0 0 0 0 0 0
0 0 0 0 0 0 0 0

PPQ_Variable_163 f4 [16]
00000000: 8a22 1538 1f8a 0638 b5a5 2938 b62b 1b38
00000010: 020c 1b38 4fd9 2638 df46 1b38 b9cd 3738
00000020: d856 1638 141f 1f38 f247 5038 9767 4e38
00000030: edeb 1738 3c8a 0938 d872 1a38 edcd 2438
3.5556535e-05 3.2076725e-05 4.0447067e-05 3.699559e-05 3.6966063e-05 3.977987e-05 3.7020884e-05 4.3822194e-05
3.5843666e-05 3.7937498e-05 4.965807e-05 4.9210703e-05 3.622093e-05 3.2792086e-05 3.6823418e-05 3.929243e-05

PPQ_Variable_172 f4 [32]
00000000: 6297 a43b 03bd 8e3b 7859 913b 735a ae3b
00000010: e482 b23b a038 a63b d42f d03b 77ba b73b
00000020: 74c0 b73b 53d6 a13b 83cb af3b d137 9d3b
00000030: aa6a 113c 8bc5 b33b c678 d93b 5a0f a43b
00000040: edc2 ff3b d097 9c3b ccc6 c13b 7e15 b33b
00000050: 63c3 cf3b a575 b43b 58b2 ae3b 68da c83b
00000060: 487c ac3b 20a8 9d3b fed4 993b 237a 743b
00000070: a422 b23b 5249 ac3b 311a ec3b b3a2 943b
0.005022929 0.004356028 0.0044357143 0.005320841 0.0054477323 0.005072668 0.006353358 0.005606945
0.005607659 0.0049388795 0.0053648367 0.0047979136 0.008875528 0.0054861954 0.006636712 0.005006713
0.0078052194 0.0047788396 0.005913591 0.0054652086 0.0063404306 0.0055071884 0.005331319 0.0061295517
0.005263839 0.004811302 0.00469458 0.0037304244 0.0054362584 0.005257764 0.0072052707 0.004535997

PPQ_Variable_173 i1 [32]
00000000: 0000 0000 0000 0000 0000 0000 0000 0000
00000010: 0000 0000 0000 0000 0000 0000 0000 0000
0 0 0 0 0 0 0 0
0 0 0 0 0 0 0 0
0 0 0 0 0 0 0 0
0 0 0 0 0 0 0 0

PPQ_Variable_175 f4 [32]
00000000: 8de6 1b38 9333 0738 bcac 0938 aa25 2538
00000010: e615 2938 c371 1d38 b431 4538 f406 2e38
00000020: a00c 2e38 b94a 1938 3d83 2638 a7ea 1438
00000030: 06bd 8938 8447 2a38 24fd 4d38 b465 1b38
00000040: b941 7238 1953 1438 768b 3738 c3a0 2938
00000050: fdca 4438 51ee 2a38 eb78 2538 6a3f 3e38
00000060: be60 2338 0855 1538 99b5 1138 7791 e737
00000070: bbba 2838 7930 2338 baa2 5f38 8cc9 0c38
3.7169597e-05 3.223454e-05 3.2824217e-05 3.9374143e-05 4.0313134e-05 3.7537666e-05 4.701475e-05 4.149131e-05
4.149659e-05 3.6547633e-05 3.969971e-05 3.5504487e-05 6.5678774e-05 4.0597763e-05 4.9111564e-05 3.7049598e-05
5.7758505e-05 3.536334e-05 4.3760483e-05 4.044246e-05 4.691909e-05 4.0753108e-05 3.945168e-05 4.535859e-05
3.8952327e-05 3.560356e-05 3.473982e-05 2.7605083e-05 4.0228228e-05 3.8907372e-05 5.3318894e-05 3.3566306e-05

PPQ_Variable_184 f4 [32]
00000000: 114b a43b 82cd 9f3b c98d b43b 96a0 a73b
00000010: ce6f b23b 43aa 9f3b 6385 ca3b 96fb bd3b
00000020: 5172 b13b 3b2b a03b 0022 ae3b 9559 983b
00000030: 5bef 083c 3efe b53b e7c6 cd3b bf06 9e3b
00000040: e717 ef3b c235 9c3b fec5 c23b 3d0a b93b
00000050: 1d8a c63b fd2f a53b 7ad4 9c3b c749 c73b
00000060: b3d2 b13b 5c22 973b 94bc b63b eae7 9a3b
00000070: 511e bf3b b423 a73b 9961 d93b 7724 9f3b
0.0050138314 0.0048767934 0.005510066 0.005115579 0.005445457 0.0048725917 0.0061804517 0.0057978136
0.005415239 0.004887966 0.0053141117 0.004649351 0.008357848 0.0055539897 0.0062798145 0.0048225815
0.0072965506 0.0047671506 0.0059440127 0.0056469725 0.006058945 0.005041121 0.0047860714 0.006081793
0.0054267286 0.0046122503 0.0055766795 0.0047273533 0.0058324714 0.0051006917 0.006633949 0.004856642

PPQ_Variable_185 i1 [32]
00000000: 0000 0000 0000 0000 0000 0000 0000 0000
00000010: 0000 0000 0000 0000 0000 0000 0000 0000
0 0 0 0 0 0 0 0
0 0 0 0 0 0 0 0
0 0 0 0 0 0 0 0
0 0 0 0 0 0 0 0

PPQ_Variable_187 f4 [32]
00000000: 0ee7 0238 42a6 fe37 bfdb 0f38 1b8f 0538
00000010: eb2b 0e38 186e fe37 6b5c 2138 f95e 1738
00000020: f361 0d38 9b3b ff37 0bbe 0a38 efc5 f237
00000030: 8735 5a38 5201 1138 88f4 2338 95d1 fb37
00000040: 1d80 3e38 9dec f837 2030 1b38 cb6e 1338
00000050: 4d30 1e38 739d 0338 89e9 f937 03c9 1e38
00000060: beae 0d38 fed5 f037 f998 1138 a0d8 f637
00000070: 9d46 1838 9a2b 0538 7833 2d38 e298 fd37
3.12096e-05 3.035658e-05 3.429851e-05 3.184295e-05 3.389634e-05 3.0330426e-05 3.8471462e-05 3.6089656e-05
3.3708242e-05 3.0426125e-05 3.3078755e-05 2.8940818e-05 5.20251e-05 3.4571924e-05 3.9089966e-05 3.0019126e-05
4.5418845e-05 2.9674085e-05 3.69997e-05 3.5150715e-05 3.771512e-05 3.137947e-05 2.9791861e-05 3.7857342e-05
3.377976e-05 2.8709877e-05 3.471316e-05 2.942636e-05 3.6305388e-05 3.1750278e-05 4.129435e-05 3.0231142e-05

PPQ_Variable_196 f4 [32]
00000000: 3de3 fa3b 380a ad3b 23a0 be3b 282f 9a3b
00000010: dc8a b53b 655d c13b df67 a83b 9cf7 a93b
00000020: 84ec b13b 4122 b63b f9ac 963b face bf3b
00000030: 5521 933b a65f 9e3b 9ef5 c53b 5ddf de3b
00000040: 07ec b43b 632e c13b 63b7 b13b 5aeb b63b
00000050: 30b1 9f3b 08bd a03b 7a0f 8a3b ce59 6d3b
00000060: 12d0 913b 2dd8 ac3b 0166 a63b ff11 b33b
00000070: 4d6a b93b cda0 bf3b 4541 c83b 2846 d53b
0.0076564834 0.005280759 0.0058174296 0.0047053285 0.005540235 0.005901026 0.0051393355 0.005186988
0.005429806 0.0055582826 0.0045982567 0.005853531 0.0044900575 0.0048331795 0.0060412427 0.0068015293
0.0055213007 0.0058954223 0.0054234727 0.0055822553 0.0048734173 0.004905347 0.0042132707 0.0036216858
0.0044498527 0.0052747936 0.005078078 0.005464792 0.005658424 0.0058480264 0.0061112964 0.0065086074

PPQ_Variable_197 i1 [32]
00000000: 0000 0000 0000 0000 0000 0000 0000 0000
00000010: 0000 0000 0000 0000 0000 0000 0000 0000
0 0 0 0 0 0 0 0
0 0 0 0 0 0 0 0
0 0 0 0 0 0 0 0
0 0 0 0 0 0 0 0

PPQ_Variable_199 f4 [32]
00000000: 813a 4038 0495 0438 5b0e 1238 1a45 ec37
00000010: be18 0b38 a827 1438 0b08 0138 523a 0238
00000020: fc52 0838 be8c 0b38 bde4 e637 64f6 1238
00000030: e175 e137 93b0 f237 dfac 1738 76c3 2a38
00000040: 0c9f 0a38 a403 1438 472a 0838 d226 0c38
00000050: d1b5 f437 4250 f637 e68f d337 50db b537
00000060: 1071 df37 ac6e 0438 a5fc fe37 d933 0938
00000070: 6110 0e38 03d3 1238 206f 1938 c368 2338
4.5830853e-05 3.1610034e-05 3.4822482e-05 2.816557e-05 3.3163225e-05 3.5322882e-05 3.0763487e-05 3.104873e-05
3.2502212e-05 3.327126e-05 2.7524651e-05 3.503858e-05 2.6876982e-05 2.8930872e-05 3.6162204e-05 4.0713196e-05
3.3049888e-05 3.528934e-05 3.24643e-05 3.3414755e-05 2.9171732e-05 2.9362858e-05 2.5220168e-05 2.1679007e-05
2.663632e-05 3.1574324e-05 3.0396806e-05 3.2711632e-05 3.3870692e-05 3.5005633e-05 3.6581536e-05 3.8959795e-05
