closed/Qualcomm/models/vww_keras_model.tflite (tflite, 853808 bytes, 56 tensors)

conv2d/Conv2D_bias f4 [8]
0.7962068 0.56675136 1.5040845 1.0148499 1.3683343 0.7852963 0.5565313 1.3207343
00000000: 35d4 4b3f 9e16 113f d785 c03f 9ae6 813f
00000010: 9425 af3f 2e09 493f d678 0e3f d20d a93f

conv2d/kernel f4 [8, 3, 3, 3]
0.6209057 -1.5228945 1.1697695 0.55579996 -2.012031 1.6673918 -0.0132960295 -2.079728
1.4178659 0.04314132 -1.5274957 1.429328 -0.23021378 -0.67976683 0.21290651 0.33632478
0.010103798 0.6750693 0.47930637 -0.32357028 -0.085438676 1.1491472 -1.5814416 0.4469011
0.77363986 -1.4380425 0.018045647 -0.6636093 -0.35980558 1.4760957 -1.1174624 -0.021786518
0.49234408 -1.0717323 -0.24510108 1.3967384 0.093451254 -0.49340603 0.20163521 -1.1752204
0.05301065 0.8095772 -0.590747 0.5247434 0.18836738 0.54725754 -0.17453814 -0.36915103
0.67554057 -0.48383588 0.34140638 0.31131038 -0.1787946 -0.12705992 -0.9047883 -1.0899835
-0.8563535 -0.39831406 -0.90800387 -0.7765292 0.13160779 0.014039239 -0.40230155 0.11755614
-0.9092368 -0.15448731 -0.12523396 -0.6035397 0.25409576 0.26526684 0.2510837 0.12407106
-0.14041097 0.10620005 0.28073585 0.5030471 0.1325887 0.11995047 1.4366771 0.25768766
0.41783506 1.1596879 0.52906317 -0.27713418 -0.50456977 -1.3966213 -1.04958 1.2484751
0.38123298 -0.11257925 0.6878679 0.3613141 0.49474612 -1.2793133 -0.9813414 -1.7331458
0.658691 -0.038549908 0.049397632 0.72681093 -0.45585895 0.38538364 -1.2854232 -0.073906936
0.5221432 -0.07528798 0.61360675 0.36062583 -0.23558754 0.32534817 0.120315365 -0.49337995
0.17072625 0.24653983 -0.6245991 -0.19188718 0.17339717 0.20105724 0.4892632 -0.47192752
-0.34914252 -0.36363983 -0.25709715 -0.88285714 -0.2821527 -0.36893144 0.1070148 0.21394216
0.23173195 0.106123835 0.53561485 -0.48569694 -0.43353713 -0.61617786 -0.5039817 -0.0718173
0.18945785 -0.11344578 -0.23550726 -0.20102872 -0.19170777 -0.15308094 -0.021854745 0.02343471
0.19963366 0.27464673 0.12134466 0.054038227 -0.096083015 0.15159759 -0.15212765 -0.23092051
-0.2978965 0.15039521 0.22427385 -0.056809343 0.32933447 0.15149112 0.029336266 -0.007663989
-0.049847353 0.037032828 0.6445808 -0.35934243 -0.16787356 0.7798536 -0.46103546 -0.46670938
0.25104472 -0.5060206 0.30980012 0.45277655 -0.5307605 -0.042522468 -0.05020482 -0.6010968
0.5012726 0.38133946 -0.5630899 0.31092203 0.2613636 -0.6731027 0.34778458 0.8536024
-1.184501 0.6635772 0.7364537 -1.125636 -0.1386252 0.0989505 -0.009960186 -0.1446573
-0.2721287 0.14995766 0.2750776 -0.48032683 -0.008361295 -0.04873833 0.06687298 0.11661444
0.041164413 0.06355446 -0.06738716 -0.13421516 -0.3623519 -0.12601344 -0.27251095 0.06932528
-0.06520844 0.17853388 -0.10954356 0.21740332 -0.16772486 -0.19642642 0.16736422 -0.26174003
00000000: adf3 1e3f 35ee c2bf 02bb 953f e848 0e3f
00000010: 1ec5 00c0 186d d53f 97d7 59bc 431a 05c0
00000020: a17c b53f f4b4 303d fb84 c3bf 38f4 b63f
00000030: 29bd 6bbe 3305 2ebf 2a04 5a3e c332 ac3e
00000040: 668a 253c 57d1 2c3f a567 f53e 01ab a5be
00000050: 79fa aebd 4117 933f ae6c cabf 39d0 e43e
00000060: 430d 463f c711 b8bf 77d4 933c 4de2 29bf
00000070: 7038 b8be b4f0 bc3f 0209 8fbf a479 b2bc
00000080: 8614 fc3e 862e 89bf c7fb 7abe 53c8 b23f
00000090: 5f63 bf3d b79f fcbe 7679 4e3e 9f6d 96bf
000000a0: b221 593d 7440 4f3f 323b 17bf 9555 063f
000000b0: 61e3 403e 1219 0c3f 20ba 32be 5d01 bdbe
000000c0: 3af0 2c3f 56b9 f7be d1cc ae3e 1364 9f3e
000000d0: ee15 37be ff1b 02be 35a0 67bf 9484 8bbf
000000e0: fc39 5bbf d2ef cbbe f172 68bf 9eca 46bf
000000f0: 31c4 063e d604 663c 78fa cdbe 46c1 f03d
00000100: bec3 68bf ec31 1ebe 553d 00be 9481 1abf
00000110: d718 823e 0ed1 873e 0b8e 803e f818 fe3d
00000120: e5c7 0fbe 697f d93d 9cbc 8f3e b2c7 003f
00000130: 55c5 073e 98a8 f53d 09e5 b73f a3ef 833e
00000140: 7aee d53e a770 943f af70 073f 88e4 8dbe
00000150: 7c2b 01bf 7dc4 b2bf a358 86bf 08ce 9f3f
00000160: f830 c33e f38f e6bd 1c18 303f 29fe b83e
00000170: 5d4f fd3e 8ac0 a3bf 3139 7bbf b9d7 ddbf
00000180: f99f 283f 82e6 1dbd 2c55 4a3d 4810 3a3f
00000190: 5866 e9be 0151 c53e bf88 a4bf 855c 97bd
000001a0: 2dab 053f 9630 9abd 5515 1d3f f3a3 b83e
000001b0: dc3d 71be 0994 a63e e767 f63d 4c9c fcbe
000001c0: ddd2 2e3e f074 7c3e bae5 1fbf 137e 44be
000001d0: 078f 313e f3e1 4d3e b580 fa3e 7ca0 f1be
000001e0: cfc2 b2be 002f babe 3da2 83be ed02 62bf
000001f0: 5276 90be 95e4 bcbe 932a db3d a713 5b3e
00000200: 244b 6d3e 7457 d93d 0e1e 093f 45ad f8be
00000210: 94f8 ddbe d5bd 1dbf f204 01bf f314 93bd
00000220: 3d01 423e 4356 e8bd d128 71be 79da 4dbe
00000230: 0b4f 44be 40c1 1cbe b908 b3bc 26fa bf3c
00000240: c46c 4c3e 7f9e 8c3e 8d83 f83d 3057 5d3d
00000250: 2cc7 c4bd 663c 1b3e 5ac7 1bbe 6d76 6cbe
00000260: e485 98be 3401 1a3e 0ba8 653e eab0 68bd
00000270: 879e a83e 7d20 1b3e 9c52 f03c 3322 fbbb
00000280: bd2c 4cbd bcaf 173d 3f03 253f bbfb b7be
00000290: 0ce7 2bbe 7ca4 473f d70c ecbe 88f4 eebe
000002a0: ef88 803e 918a 01bf 1f9e 9e3e 54d2 e73e
000002b0: ecdf 07bf 0a2c 2ebd 92a3 4dbd 7be1 19bf
000002c0: 6753 003f ed3e c33e a926 10bf 2c31 9f3e
000002d0: 73d1 853e 7550 2cbf d210 b23e b085 5a3f
000002e0: bb9d 97bf 32e0 293f 3b88 3c3f d714 90bf
000002f0: c4f3 0dbe 8fa6 ca3d 0c30 23bc 0b21 14be
00000300: 7454 8bbe 808e 193e f9d6 8c3e 66ed f5be
00000310: d0fd 08bc d8a1 47bd b3f4 883d 8dd3 ee3d
00000320: 049c 283d d728 823d 4802 8abd b36f 09be
00000330: 3086 b9be ab09 01be 8e86 8bbe 6afa 8d3d
00000340: 018c 85bd 96d1 363e 6058 e0bd fa9e 5e3e
00000350: 11c0 2bbe 0224 49be 8761 2b3e ca02 86be

conv2d_1/Conv2D_bias f4 [16]
-0.79188716 0.9686425 -0.23106934 0.40334052 0.5587362 0.08204004 -0.9798577 1.7273548
1.0800121 -0.021836583 1.4389304 0.697417 -1.602405 -0.034967095 1.7994988 -0.13520351
00000000: 1eb9 4abf f4f8 773f 719d 6cbe a682 ce3e
00000010: 5609 0f3f 9c04 a83d f4d7 7abf f619 dd3f
00000020: d63d 8a3f a2e2 b2bc df2e b83f ec89 323f
00000030: 9b1b cdbf a839 0fbd fa55 e63f ca72 0abe

conv2d_1/kernel f4 [16, 1, 1, 8]
1.134484 -0.1994989 0.5334882 -0.35104284 0.7664758 0.020275299 0.15842737 -0.030931005
-0.045972146 0.23862904 -0.5432612 -1.0097847 0.56594115 -0.57244676 0.99148303 -0.35014704
0.4834844 0.6674324 -0.035533097 -0.10817687 -0.26573843 -0.008668593 0.29409665 -0.006539765
0.043930594 -0.14405526 0.25966713 0.13904785 0.33696026 0.04243334 -0.075206876 -0.26374528
-0.06294452 0.06762179 0.19355153 -0.014590194 0.14099123 -0.0070437565 0.23490563 -0.25610438
-0.038268685 0.041313138 0.049982037 0.13412185 0.104417816 0.43688086 -0.024177136 0.04536388
-0.033192948 0.04524085 -0.11755882 0.92827946 0.3094921 -0.05025291 0.22515994 0.04273987
-0.06637583 -0.070408985 0.29974353 -1.1923833 -0.16316551 0.15130596 -0.17303795 0.221196
0.00013441654 -0.122070104 -0.2043049 0.059051108 0.108004145 -0.019999593 -0.061893724 -0.3377449
-0.08975361 0.39694506 0.040630918 0.07856032 0.19944496 0.09115239 0.3169283 -0.05016103
0.083975025 -0.07747738 -0.09602549 -0.15758577 -0.053971097 -0.48760292 -0.034516267 -0.102375194
-0.46614024 -0.11643267 -0.039814398 -0.031520173 -0.03990746 -0.06158174 0.35740012 -0.13919263
0.260967 -0.2304471 0.29408816 1.149075 -0.23965798 -0.4866679 0.4572831 0.6805367
-0.10383658 0.11362496 0.41472152 0.05514791 0.053415287 0.23426887 0.113953434 0.14336829
-0.8009686 -0.43024498 0.6232772 0.25949726 -0.7265174 -0.28738216 -0.9148393 -0.5080322
-0.08801027 0.178241 -0.109789275 -0.28633586 -0.3910752 -0.12862962 1.084352 -0.09640806
00000000: c636 913f 7149 4cbe af92 083f e3bb b3be
00000010: c237 443f 6218 a63c c93a 223e 0563 fdbc
00000020: 4a4d 3cbd 2c5b 743e 2a13 0bbf a040 81bf
00000030: 85e1 103f df8b 12bf d5d1 7d3f 7946 b3be
00000040: 448b f73e dadc 2a3f 278b 11bd d68b ddbd
00000050: de0e 88be b706 0ebc d693 963e 864b d6bb
00000060: 91f0 333d 3983 13be 17f3 843e 8f62 0e3e
00000070: 0e86 ac3e 95ce 2d3d 1006 9abd 9f09 87be
00000080: 0ee9 80bd 4b7d 8a3d 5f32 463e b60b 6fbc
00000090: 0160 103e 50cf e6bb 1a8b 703e 1d20 83be
000000a0: a0bf 1cbd f737 293d f7b9 4c3d 3d57 093e
000000b0: 02d9 d53d d9ae df3e 210f c6bc 7acf 393d
000000c0: 54f5 07bd 784e 393d aec2 f0bd b9a3 6d3f
000000d0: c075 9e3e ffd5 4dbd 5490 663e 0010 2f3d
000000e0: 0df0 87bd 9632 90bd fc77 993e 04a0 98bf
000000f0: dc14 27be f3ef 1a3e dc30 31be 3481 623e
00000100: 2af2 0c39 e4ff f9bd 4e35 51be 93df 713d
00000110: 4731 dd3d 30d6 a3bc 4684 7dbd e6ec acbe
00000120: bed0 b7bd 623c cb3e 9b6c 263d 3ce4 a03d
00000130: 4d3b 4c3e 1bae ba3d 6d44 a23e a775 4dbd
00000140: 19fb ab3d 76ac 9ebd 03a9 c4bd 2a5e 21be
00000150: cc10 5dbd 17a7 f9be ee60 0dbd 16aa d1bd
00000160: efa9 eebe 4074 eebd 6c14 23bd 4c1b 01bd
00000170: 0176 23bd 223d 7cbd 26fd b63e 8388 0ebe
00000180: 779d 853e 53fa 6bbe b992 963e e414 933f
00000190: e768 75be 892c f9be 0321 ea3e a737 2e3f
000001a0: 46a8 d4bd 34b4 e83d 6156 d43e c6e2 613d
000001b0: fdc9 5a3d 2ee4 6f3e 6b60 e93d 23cf 123e
000001c0: 470c 4dbf 1249 dcbe 188f 1f3f d3dc 843e
000001d0: 0bfd 39bf c123 93be e932 6abf 660e 02bf
000001e0: ba3e b4bd cf84 363e 33d9 e0bd 9d9a 92be
000001f0: 023b c8be 7cb7 03be 0ccc 8a3f 9771 c5bd

conv2d_10/Conv2D_bias f4 [128]
-0.24900666 -0.20303184 -0.052705683 -0.17993665 -0.16911964 0.09567223 -0.30243027 -0.17222224
0.3230414 -0.059724554 0.080606475 -0.1549187 -0.17281805 -0.25489804 -0.044736855 -0.019717997
0.3263504 -0.13875583 -0.12796232 -0.22089697 -0.21221614 0.20196286 0.05598756 -0.046476394
-0.06633009 0.29995814 0.043109793 0.040970813 -0.14486955 -0.022797784 -0.17971063 0.56594676
0.00032375753 -0.0548644 -0.058760628 -0.22272046 -0.27537107 -0.11166065 -0.11256158 -0.05593991
0.013083616 0.12303987 -0.139622 -0.066679224 0.007561354 -0.18668252 -0.085757375 -0.148317
-0.2656519 -0.018257963 -0.08334065 -0.06504944 -0.13571285 0.29649416 -0.1331287 0.0439225
-0.016573807 -0.15343009 -0.030894991 -0.22741318 -1.0763553 -0.07622924 -0.011164986 0.46306103
0.102372184 0.32212126 0.024109142 -0.07703785 -0.11259485 1.1472261 -0.103847384 0.37532824
-0.087717436 0.25167945 -0.1657783 -0.10139485 -0.10471492 -0.03409355 -0.099469595 -0.14734083
-0.19167176 0.25397158 -0.18084326 -0.10064219 -0.16849416 -0.18426244 -0.2935231 -0.440491
0.31638843 -0.06920273 0.13515991 -0.24228504 0.95392996 -0.044447817 -0.1622086 -0.010967069
-0.15087694 -0.09274646 -0.13921136 -0.10534614 0.38190773 -0.07772252 0.022279546 -0.18483484
-0.17609675 -0.011357013 0.6126457 0.022876913 0.32374334 0.021199752 -0.06822255 -0.16632262
-0.08786666 0.24938725 0.19493806 -0.009769672 -0.01033666 -0.2291374 0.23637787 -0.020446114
-0.08222595 -0.07447198 -0.1776053 -0.042131066 0.36153707 -0.16529469 -0.09985628 -0.16391766
00000000: 9afb 7ebe 94e7 4fbe eae1 57bd 5041 38be
00000010: b32d 2dbe cdef c33d 24d8 9abe 075b 30be
00000020: af65 a53e bca1 74bd 0215 a53d 02a3 1ebe
00000030: 37f7 30be ff81 82be fe3d 37bd a387 a1bc
00000040: 6617 a73e 0216 0ebe 8e08 03be d132 62be
00000050: 304f 59be 5acf 4e3e 3653 653d 085e 3ebd
00000060: 12d8 87bd 1d94 993e e593 303d 03d1 273d
00000070: af58 14be 6bc2 babc 1006 38be e3e1 103f
00000080: 00be a939 7eb9 60bd fcae 70bd d510 64be
00000090: 70fd 8cbe 57ae e4bd b086 e6bd 3f21 65bd
000000a0: aa5c 563c 54fc fb3d 12f9 0ebe 1e8f 88bd
000000b0: 3cc5 f73b b429 3fbe 90a1 afbd 69e0 17be
000000c0: 8703 88be b991 95bc 81ae aabd a438 85bd
000000d0: 4ff8 0abe 15ce 973e e452 08be 14e8 333d
000000e0: cbc5 87bc c71c 1dbe 7e17 fdbc 00df 68be
000000f0: 03c6 89bf 131e 9cbd 58ed 36bc 5616 ed3e
00000100: 82a8 d13d 14ed a43e 8980 c53c 05c6 9dbd
00000110: 2198 e6bd 4ed8 923f f0ad d4bd 062b c03e
00000120: 33a5 b3bd 21dc 803e c9c1 29be 1aa8 cfbd
00000130: c774 d6bd aea5 0bbd b7b6 cbbd 84e0 16be
00000140: 9a45 44be 9008 823e fa2e 39be 7e1d cebd
00000150: bc89 2cbe 4baf 3cbe a948 96be 0988 e1be
00000160: aafd a13e 29ba 8dbd 5c67 0a3e 9219 78be
00000170: c134 743f ea0e 36bd 031a 26be 39af 33bc
00000180: 7c7f 1abe dbf1 bdbd 6c8d 0ebe b8bf d7bd
00000190: 6989 c33e fc2c 9fbd 9883 b63c 5845 3dbe
000001a0: b552 34be c412 3abc 59d6 1c3f 5d68 bb3c
000001b0: b0c1 a53e 1aab ad3c 44b8 8bbd 7a50 2abe
000001c0: 6ff3 b3bd 5f5f 7f3e d89d 473e f910 20bc
000001d0: 185b 29bc ffa2 6abe 0a0d 723e 9c7e a7bc
000001e0: 1466 a8bd c484 98bd 2ade 35be a091 2cbd
000001f0: 631b b93e 0343 29be 7381 ccbd 08da 27be

conv2d_10/kernel f4 [128, 1, 1, 128]
1.0823014e-31 5.2532283e-31 -7.2693417e-31 5.800321e-31 9.662533e-31 9.771842e-31 1.4384084e-31 -9.794132e-32
5.936193e-32 9.563185e-31 6.152137e-31 -3.4684571e-31 -3.5555295e-31 5.7209293e-31 -1.9047166e-31 6.0426325e-31
-5.3692693e-31 6.1688096e-31 4.0695784e-31 2.8678486e-33 6.820881e-31 5.0546976e-31 5.158091e-31 -3.0365493e-32
-6.258915e-31 -4.972374e-32 -4.9345983e-31 7.6372517e-31 3.4441044e-31 7.079199e-31 1.6214106e-31 5.1770577e-31
4.126657e-31 3.9620437e-31 3.2451412e-31 2.6046002e-31 7.644386e-32 -4.906173e-31 7.037859e-31 -1.4651888e-31
-3.9644717e-32 3.8290527e-31 5.025788e-31 4.2531643e-31 -4.070123e-31 1.2288088e-31 1.2075798e-31 -9.569602e-31
-1.265495e-31 4.4230147e-31 7.926877e-31 4.232657e-31 -1.0309665e-30 5.6934e-31 5.331003e-31 7.0268057e-31
1.294337e-31 3.75281e-31 -2.885644e-31 5.7493316e-31 -4.3567117e-31 3.5052938e-31 8.829016e-31 -9.6752e-31
6.301636e-31 -6.442262e-31 4.371793e-31 5.7206613e-31 3.805858e-31 -3.778481e-31 -5.9397673e-31 1.2275611e-31
-6.1333116e-32 7.0935437e-31 -5.5488567e-31 -3.8626944e-31 6.207312e-31 1.9062751e-31 -8.582477e-32 3.0376652e-32
8.560685e-31 -4.3057062e-32 3.9105253e-31 1.1399255e-31 -6.323901e-31 8.819756e-31 -2.9207668e-31 6.6045827e-31
7.038878e-31 -6.0415255e-32 4.302361e-31 7.6341757e-31 1.8958663e-31 -4.480963e-31 8.613772e-32 -1.5722923e-31
-4.4973747e-32 3.336434e-32 7.6500744e-31 -8.095643e-31 4.389561e-31 -1.0354677e-31 -5.0683846e-31 2.6936392e-31
-8.001265e-32 -1.0060875e-31 -3.9127832e-31 1.2047729e-31 -5.2863307e-31 5.2985445e-31 -9.034512e-31 1.7112357e-31
-3.1786282e-31 -4.2657444e-31 -3.5279597e-31 6.9915973e-31 2.4089135e-31 9.106016e-31 -5.0670023e-31 -9.157949e-31
4.109181e-31 -7.463615e-31 2.9635386e-31 -5.540004e-31 -1.8509258e-31 9.648508e-31 1.8221438e-32 3.55254e-31
6.5733066e-31 -1.1962235e-30 5.2441765e-31 7.4984357e-31 -7.8579244e-31 4.8021783e-32 8.82389e-31 1.002614e-30
6.718023e-31 3.105015e-31 -3.9087397e-31 6.382738e-31 8.653798e-31 1.5638872e-32 2.9696194e-31 2.536346e-31
-1.456877e-31 -3.7492557e-31 -1.1285271e-30 -6.0287565e-31 -1.1383999e-30 9.126415e-31 -1.1799688e-30 -6.784615e-31
-8.377618e-31 -7.8949125e-31 6.5792866e-31 -9.172304e-31 -4.9143145e-31 -3.2908597e-31 7.7697017e-31 -1.8714249e-31
-1.0170981e-31 6.4149247e-31 -3.1791847e-31 5.8045286e-31 6.5661765e-31 -1.2741472e-30 -1.1160622e-30 4.7273356e-31
6.1794694e-31 7.764191e-31 2.0314233e-31 -6.8884566e-31 -1.0042427e-30 8.58287e-31 -1.2615339e-30 4.950875e-31
-6.3066504e-31 5.497319e-31 1.12526595e-30 -9.917292e-31 2.4256368e-31 -4.942991e-31 6.5281584e-32 -4.561327e-31
1.1163027e-31 -6.2840207e-31 -3.434797e-31 4.298712e-31 5.2119275e-31 -3.5990651e-31 6.798025e-31 -1.0985503e-31
-9.3430466e-32 7.702526e-32 -8.331102e-31 6.720524e-31 2.222095e-31 4.054999e-31 3.6803118e-31 -9.678955e-31
6.689913e-31 -3.6422735e-31 6.434502e-31 -6.014011e-31 3.6524182e-31 -4.7687657e-31 9.33827e-31 -9.235323e-31
1.1123041e-30 7.374738e-31 -1.0508864e-30 1.0845714e-30 1.3551383e-31 -4.4428185e-31 -4.050977e-31 -7.2677604e-31
-7.719051e-31 1.0786672e-31 2.8632148e-31 -6.8488147e-31 -4.4479305e-31 4.2522883e-31 -8.7587724e-32 8.594214e-31
6.124089e-31 -1.1796772e-30 4.361955e-31 1.20091e-31 -2.57525e-31 -7.3624517e-31 -1.028756e-30 -1.5168236e-31
3.3046508e-31 4.5605494e-31 -3.1139656e-31 -3.3608568e-31 6.9140608e-31 1.1350915e-30 -9.104179e-31 -4.6198277e-31
-1.1347066e-30 4.9016643e-31 1.8577442e-31 2.467707e-31 4.9607644e-31 -6.885144e-32 1.9419689e-31 1.1911793e-31
-3.388266e-31 -6.772921e-31 -8.684948e-31 -3.9356266e-31 6.0123155e-31 -3.2863994e-31 -4.404131e-31 -4.208934e-31
00000000: a27d 0c0c 1d7a 2a0d 54e7 6b8d 2e3b 3c0d
00000010: 97c8 9c0d a58e 9e0d 51b7 3a0c 2c45 fe8b
00000020: c51c 9a0b eb2b 9b0d f4a5 470d a11d e18c
00000030: 5ec4 e68c 9fa7 390d 113f 778c 3a18 440d
00000040: 253e 2e8d 7730 480d bc10 040d 6540 6e09
00000050: aa59 5d0d c908 240d be63 270d aaaa 1d8b
00000060: 081d 4b8d 1817 818b 0a23 208d ced7 770d
00000070: 0089 df0c afbb 650d 9c78 520c 5001 280d
00000080: edea 050d 5f93 000d 289f d20c 580c a90c
00000090: a975 c60b e436 1f8d 3f64 640d 4031 3e8c
000000a0: ded8 4d8b 0d85 f80c 9d18 230d e805 0a0d
000000b0: 4215 048d 2d82 1f0c b9c0 1c0c 9246 9b8d
000000c0: 4945 248c f888 0f0d f59e 800d 8a5b 090d
000000d0: ac48 a78d ebc2 380d 3d00 2d0d 6b08 640d
000000e0: b903 280c 4092 f30c fc49 bb8c 9493 3a0d
000000f0: 2562 0d8d af81 e30c 4c42 8f0d 35fd 9c8d
00000100: f27f 4c0d 3810 518d 6fdf 0d0d 65a5 390d
00000110: aa03 f70c c93c f58c a8c1 408d b758 1f0c
00000120: d93a 9f8b db32 660d 1912 348d 05b4 fa8c
00000130: 5570 490d db72 770c 58d0 de8b 7fb9 1d0b
00000140: b2e7 8a0d a790 5f8b bfce fd0c 86f8 130c
00000150: ea38 4d8d d51b 8f0d 9091 bd8c ba54 560d
00000160: b66c 640d d3d8 9c8b 9e9e 0b0d 40be 770d
00000170: f718 760c 626a 118d 56a0 df0b 6018 4c8c
00000180: 5d84 698b d13c 2d0b 5542 780d fc5b 838d
00000190: 0c73 0e0d 5169 068c 7e7a 248d c2d3 ae0c
000001a0: 87b9 cf8b fe98 028c 43f4 fd8c 7263 1c0c
000001b0: 1e8d 2b8d 96f2 2b0d e597 928d 8f21 5e0c
000001c0: 054e ce8c 6b6e 0a8d 49fa e48c ebe3 620d
000001d0: f158 9c0c e9c0 930d 026f 248d a298 948d
000001e0: bd59 050d 4a35 728d 3b58 c00c 8dc8 338d
000001f0: 8f43 708c 568e 9c0d e438 bd0a b292 e60c
00000200: e550 550d 2e19 c28d ea2e 2a0d 9156 730d
00000210: 1501 7f8d e657 790b 012d 8f0d f5ae a20d
00000220: 2703 5a0d e986 c90c 14b1 fd8c b621 4f0d
00000230: 786a 8c0d 4167 a20a 44bd c00c 479e a40c
00000240: 0b1d 3d8c 3257 f38c 2f1d b78d f3a4 438d
00000250: 48b7 b88d a515 940d fd75 bf8d 602c 5c8d
00000260: 44ef 878d 2f1a 808d 9382 550d 43d4 948d
00000270: 877a 1f8d c996 d58c 2824 7c0d c2ec 728c
00000280: e206 048c 1c2d 500d 4457 ce8c 235e 3c0d
00000290: a915 550d 01be ce8d 6917 b58d 2b69 190d
000002a0: 0689 480d 60f6 7b0d cfd8 830c 0f8b 5f8d
000002b0: 9cf2 a28d d943 8b0d 11b2 cc8d 43aa 200d
000002c0: 9aa9 4c8d f165 320d b895 b60d d2ea a08d
000002d0: ce6e 9d0c c368 208d 0e7b a90b 0606 148d
000002e0: 85e7 100c 9aed 4b8d 5bee de8c 4d80 0b0d
000002f0: 0023 290d ba97 e98c c89b 5c0d 9899 0e8c
00000300: 328f f28b 11f8 c70b 0b2e 878d ee17 5a0d
00000310: e338 900c 9d97 030d abdd ee0c ce0c 9d8d
00000320: 9f19 590d a665 ec8c c0cf 500d 732a 438d
00000330: 350e ed0c 5bc1 1a8d a885 970d 08da 958d
00000340: 4e7b b40d ed52 6f0d 1d84 aa8d 55fb af0d
00000350: 32e8 2f0c 7e2d 108d 3376 038d 31da 6b8d
00000360: 5e7f 7a8d de04 0c0c 51d5 b90c ba41 5e8d
00000370: f657 108d a1fe 090d 0764 e38b f872 8b0d
00000380: f1bc 460d e069 bf8d b48d 0d0d 14e3 1b0c
00000390: ae24 a78c dbec 6e8d daec a68d 1ce5 448c
000003a0: ee7b d60c 90ff 130d a11b ca8c d021 da8c
000003b0: c55f 600d db2d b80d 48b9 938d 07ec 158d
000003c0: de1d b88d 6f11 1f0d 2426 710c d129 a00c
000003d0: 6bfc 200d a1bf b28b fc14 7c0c b99f 1a0c
000003e0: 3ae9 db8c 3acb 5b8d ddeb 8c8d d06f ff8c
000003f0: 5d1c 430d ad4c d58c 17ec 0e8d 7596 088d

conv2d_11/Conv2D_bias f4 [128]
-0.094462544 -0.08698428 0.42039827 -0.11229583 -0.08796666 -0.03378778 0.7525119 -0.3037417
0.3159719 0.70618266 0.8827859 -0.11848836 0.14768389 -0.22782913 0.3346734 0.26914206
-0.04620805 0.26769873 0.07314435 -0.07945816 -0.12454314 -0.026871197 0.5590768 -0.054484494
-0.09675868 -0.06623508 -0.2685737 0.39231333 0.04621242 -0.06195901 -0.1115341 0.019191986
0.38170785 -0.20777346 -0.008342814 0.046895437 -0.00065651094 -0.16142094 -0.16442981 0.39920124
-0.14738311 0.06276172 -0.1327063 0.64760685 -0.26048103 -0.09750494 -0.20144926 -0.027515002
0.043764327 -0.22258298 0.0074761007 0.5860278 0.9758539 0.0240396 0.43789864 -0.0021593291
-0.14613949 -0.17359364 -0.024800688 0.393941 -0.12432791 0.08887171 0.08278412 -0.044812284
-0.12156725 0.49817258 -0.03649661 -0.026475877 0.04571396 0.63585967 -0.030856669 -0.039309427
0.37859696 -0.053971507 0.25561473 -0.010204584 1.1134515 0.031034758 0.26107216 -0.14434396
-0.23686358 0.005365913 0.005387084 -0.22843084 -0.077791736 0.425763 -0.09125448 0.010750938
-0.097485505 0.05871961 -0.040644385 0.6038648 -0.110919766 -0.13073225 0.044378854 -0.034058128
-0.0221684 0.60287774 -0.15168191 -0.09649986 -0.06417304 -0.033150434 -0.0798521 -0.29767147
-0.015004156 -0.020185517 -0.010613825 -0.091837466 -0.02168162 0.1218226 0.043345172 1.0212262
0.12064248 -0.09603128 -0.1414651 0.17840554 -0.15318747 -0.11489193 -0.15008709 -0.08290509
0.05392742 0.00034108758 0.45062152 0.085731044 0.029732026 -0.01712861 0.08268731 -0.038362414
00000000: 9475 c1bd d024 b2bd 713e d73e 5bfb e5bd
00000010: dd27 b4bd 0e65 0abd 9fa4 403f 0884 9bbe
00000020: 12c7 a13e 63c8 343f 42fe 613f 06aa f2bd
00000030: 723a 173e 0a4c 69be 505a ab3e fdcc 893e
00000040: a744 3dbd cf0f 893e b4cc 953d f6ba a2bd
00000050: 7910 ffbd fc20 dcbc a81f 0f3f 222b 5fbd
00000060: 6a29 c6bd 42a6 87bd 7e82 89be 4bdd c83e
00000070: 3c49 3d3d bbc8 7dbd fd6b e4bd 8338 9d3c
00000080: 366f c33e 91c2 54be 4cb0 08bc 6e15 403d
00000090: b419 2cba 884b 25be 4a60 28be 1b64 cc3e
000000a0: 99eb 16be 3789 803d 29e4 07be 90c9 253f
000000b0: c55d 85be acb0 c7bd b748 4ebe 2467 e1bc
000000c0: 3942 333d cbec 63be 14fa f43b eb05 163f
000000d0: 90d1 793f b2ee c43c 4034 e03e 8883 0dbb
000000e0: 97a5 15be 88c2 31be d02a cbbc a2b2 c93e
000000f0: a29f febd 5f02 b63d b98a a93d 168d 37bd
00000100: 40f8 f8bd 7a10 ff3e 787d 15bd f0e3 d8bc
00000110: 903e 3b3d b3c7 223f 20c7 fcbc ec02 21bd
00000120: 76d7 c13e 3a11 5dbd efdf 823e 2131 27bc
00000130: 9485 8e3f 9b3c fe3c 40ab 853e e7ce 13be
00000140: 5e8c 72be 8ad4 af3b 2386 b03b c6e9 69be
00000150: 4651 9fbd 9cfd d93e a1e3 babd b424 303c
00000160: 7ba6 c7bd f983 703d ba7a 26bd e296 1a3f
00000170: e729 e3bd adde 05be 9ac6 353d 8980 0bbd
00000180: 819a b5bc 3256 1a3f 8152 1bbe b8a1 c5bd
00000190: 286d 83bd c0c8 07bd 7f89 a3bd 6568 98be
000001a0: fed3 75bc 195c a5bc 9ce5 2dbc 4815 bcbd
000001b0: a79d b1bc 217e f93d b58a 313d 8ab7 823f
000001c0: 6813 f73d 0cac c4bd 3adc 10be f1af 363e
000001d0: 2ddd 1cbe 764c ebbd 6eb0 19be 25ca a9bd
000001e0: 00e3 5c3d 00d4 b239 ddb7 e63e c293 af3d
000001f0: 9490 f33c 4c51 8cbc f757 a93d e821 1dbd

conv2d_11/kernel f4 [128, 1, 1, 128]
-8.435864e-31 1.3233e-30 4.655751e-31 1.1370197e-30 -9.495855e-31 -1.428031e-30 -4.8059043e-31 3.7084167e-31
-9.1366455e-31 -6.5135463e-31 9.019539e-31 7.6933924e-31 -8.666982e-31 8.128567e-31 -3.994083e-31 7.2660696e-31
-1.1341028e-30 5.3973157e-31 6.8592564e-31 7.8093187e-31 -6.813084e-31 1.0451455e-30 4.617249e-31 5.832015e-32
7.0540537e-31 -8.313352e-31 -1.1588819e-30 2.0805166e-31 -5.3814766e-31 6.5509507e-32 -6.1247755e-31 4.986233e-31
1.580272e-31 6.627865e-31 -8.198472e-31 -1.5753054e-30 1.0734354e-30 1.2809254e-30 -2.0213065e-31 -1.5952243e-30
6.459463e-31 1.1626599e-30 -6.2369506e-31 -7.233027e-31 -1.2688667e-30 6.5125914e-32 1.1250414e-30 -5.11111e-31
5.1363127e-31 -8.697272e-31 -7.473787e-31 9.807325e-31 1.0930551e-30 -3.2809305e-31 -4.379648e-31 -2.3151796e-31
1.3805618e-31 1.1231977e-30 4.611933e-31 6.242518e-31 -8.952339e-31 4.2493418e-32 -9.092842e-31 1.0024348e-30
-1.4849667e-30 4.969862e-31 1.2379659e-30 4.0593266e-31 9.492921e-31 -1.251071e-30 1.0438749e-30 -9.097923e-31
5.1144396e-31 -7.474265e-32 1.3529991e-30 9.800774e-31 -7.4231754e-31 7.467637e-31 -6.5547963e-31 -1.8614527e-31
4.019579e-31 -1.06100045e-30 -7.756778e-31 6.1597583e-31 -8.829703e-31 -6.601505e-31 5.8699763e-31 -4.8401883e-31
-1.6366157e-32 -1.1508358e-30 1.3045764e-30 2.2500104e-31 2.2304107e-31 -1.1425904e-30 -3.9386974e-31 -7.99602e-31
-9.141158e-31 -1.2876037e-30 6.899554e-31 3.1738345e-32 7.538475e-32 -3.102656e-31 1.5610113e-30 8.310238e-31
-1.6360278e-30 -8.604076e-31 -1.044453e-30 1.0453389e-30 -6.072278e-31 5.2869274e-31 2.2702052e-33 5.7778416e-31
-8.538765e-31 -6.090671e-31 -1.2945595e-30 8.0699956e-32 -7.841253e-31 -4.6673046e-31 1.0225274e-30 -2.4471594e-31
-8.031948e-31 3.5840952e-31 7.723783e-31 -6.9964733e-31 -4.2489696e-31 -8.773321e-31 4.404953e-31 -8.069747e-31
-1.4749458e-31 8.226336e-32 -1.3956428e-31 2.1163128e-31 5.262009e-32 0.4100202 -0.035127446 -2.4178816e-31
-5.3286417e-32 1.1380743e-31 -9.623754e-32 -1.7100926e-31 -1.4022705e-31 1.9971722e-32 0.11263516 -1.1683727e-31
4.5766166e-31 2.171497e-31 -6.447747e-32 -2.8871178e-31 6.416236e-32 1.1867081e-31 -1.8961714e-31 1.1183791e-32
1.1437057e-31 9.1648933e-32 9.762488e-32 9.880726e-32 -1.9631626e-31 -9.321697e-32 -1.9028898e-31 1.320311e-31
-1.396299e-31 9.6935613e-32 1.271715e-31 1.6046483e-31 -1.5091543e-31 1.4291372e-31 1.3407433e-31 -1.3143669e-31
2.0223327e-31 -1.7613526e-31 -9.23983e-32 -3.0862034e-32 -3.9645163e-32 8.6833256e-32 -1.1120473e-31 -1.3353624e-31
-8.9513666e-32 1.1962577e-31 7.911892e-32 -5.740365e-32 -1.6828978e-31 -0.13318491 -1.898725e-31 -7.7458853e-32
-1.290463e-32 -1.3582098e-31 1.1650503e-31 -1.7532786e-31 -0.28370327 4.242466e-31 0.045095842 -0.000279221
1.4544709e-31 1.3059895e-31 1.2406546e-31 -6.108317e-32 1.3992796e-31 -0.021795867 -0.011814219 3.5634878e-31
1.5525382e-31 -2.224752e-31 -2.2681817e-31 1.0417227e-31 -7.9398995e-32 -1.5100581e-31 -0.24641173 2.3064151e-31
1.3604537e-31 0.3480374 -2.2100951e-31 -1.3757038e-32 -1.6488029e-31 -8.3551864e-32 -1.2694524e-31 -0.024656229
2.7668624e-05 1.0894587e-31 -0.10396197 1.8438104e-31 -0.004124282 1.0549494e-31 1.148793e-31 4.8397027e-32
-9.8502965e-32 1.2626496e-31 2.3378544e-31 -5.7026475e-32 1.8633841e-31 -7.259273e-32 -1.092374e-31 1.2147699e-31
-1.6664232e-31 -1.7390943e-31 0.20960844 1.1450803e-31 -0.02803816 -9.777621e-32 1.0027357e-31 1.3270927e-32
-1.2100397e-31 -0.0003601473 1.4352098e-31 -1.2456362e-31 -6.068689e-32 -1.9345168e-31 0.0054940325 -1.6925752e-31
-1.703972e-33 -1.7716683e-31 1.2772155e-31 -8.1890796e-32 -1.2517882e-31 -4.8765248e-32 -1.9251058e-32 -1.6560268e-31
00000000: 35e1 888d bbb7 d60d 7716 170d f37d b80d
00000010: 3d14 9a8d 16b6 e78d e4f5 1b8d a4b0 f00c
00000020: 2440 948d 6d60 538d b359 920d 34aa 790d
00000030: 3ca1 8c8d bfe4 830d 8b9d 018d 25cc 6b0d
00000040: ca04 b88d 2527 2f0d 7998 5e0d 486d 7d0d
00000050: e318 5d8d a595 a90d 9bd6 150d 6368 970b
00000060: c9ea 640d 50e4 868d 120a bc8d 8308 870c
00000070: 8fa3 2e8d 8912 aa0b a5c2 468d 01d0 210d
00000080: 8b21 4d0c 2616 570d 1f07 858d a09b ff8d
00000090: c32c ae0d 8fd7 cf0d b730 838c 836b 018e
000000a0: 1e9f 510d 01a7 bc0d 8f66 4a8d a3b9 6a8d
000000b0: a9e2 cd8d 9813 a90b 648c b60d 71dd 258d
000000c0: d1ae 260d 0e1f 8d8d cb89 728d 0922 9f0d
000000d0: bc5b b10d cff1 d48c b120 0e8d 8543 968c
000000e0: 0935 330c cf3f b60d 71aa 150d d094 4a0d
000000f0: 9042 918d 71a3 5c0b 308a 938d 83a7 a20d
00000100: 1af3 f08d 0048 210d 17df c80d 91bb 030d
00000110: 0d08 9a0d 75ff ca8d de60 a90d 4b9f 938d
00000120: 1af9 250d 030b c28b 6289 db0d d306 9f0d
00000130: 54e5 708d b356 720d 1eb7 548d 60a1 718c
00000140: 5b71 020d 3c28 ac8d cab8 7b8d 45e5 470d
00000150: 2745 8f8d 283b 568d db7d 3e0d b612 1d8d
00000160: b5f4 a98a d9bb ba8d fcad d30d b608 920c
00000170: 0ec3 900c 5965 b98d d6a2 ff8c 2bbe 818d
00000180: e352 948d f7ec d08d 41e7 5f0d 7fcb 240b
00000190: c3b5 c30b b75f c98c df49 fd0d 61d7 860d
000001a0: f8ba 048e ef9b 8b8d e178 a98d ae9d a90d
000001b0: 830e 458d 1392 2b0d ed99 3c09 6e80 3b0d
000001c0: a48c 8a8d 51a7 458d e60d d28d 5282 d10b
000001d0: 9576 7e8d 7376 178d 20ea a50d 69d4 9e8c
000001e0: 6853 828d ff9e e80c aea6 7a0d 6d0c 638d
000001f0: 0fe3 098d f35a 8e8d ebf2 0e0d 6bf0 828d
00000200: 7b75 3f8c 6191 d50b 302a 358c 475b 890c
00000210: 0c9c 880b 2bee d13e cce1 0fbd f3ed 9c8c
00000220: e656 8a8b 01bb 130c d1d8 f98b 93fb 5d8c
00000230: 6e06 368c f265 cf0a 43ad e63d d8a9 178c
00000240: 0b85 140d 2ff0 8c0c a164 a78b 7962 bb8c
00000250: 3493 a60b 240b 1a0c 1a23 768c 3b47 680a
00000260: 2476 140c 2aef ed0b dd72 fd0b 5842 000c
00000270: 44d5 7e8c 4e01 f28b 5c02 778c dc62 2b0c
00000280: fe3f 358c c4a8 fb0b fb13 250c 964b 500c
00000290: 41e6 438c 3b83 390c d709 2e0c 559d 2a8c
000002a0: c441 830c fba2 648c 34e1 ef8b ae3e 208b
000002b0: 76d9 4d8b 996e e10b 1c5a 108c 0757 2d8c
000002c0: 0964 e88b 7b48 1b0c 8b67 cd0b 4507 958b
000002d0: df73 5a8c a061 08be f677 768c 3d18 c98b
000002e0: 6402 868a 434e 308c 703b 170c ad96 638c
000002f0: 8e41 91be 07ad 090d 6bb6 383d 6964 92b9
00000300: 16cd 3c0c f286 290c d20b 210c bb94 9e8b
00000310: 0aa3 350c 3f8d b2bc 6d90 41bc 9948 e70c
00000320: ee87 490c 0865 908c a236 938c 2d39 070c
00000330: af21 ce8b 4a04 448c 5b53 7cbe e5b1 950c
00000340: d498 300c f531 b23e 8171 8f8c 7bdc 8e8a
00000350: e006 568c bde9 d88b cbc8 248c dcfb c9bc
00000360: eb19 e837 7a6b 0d0c 03ea d4bd 1c57 6f0c
00000370: fc24 87bb b5f0 080c 321f 150c af4a 7b0b
00000380: 73ba ff8b bbe6 230c 45bc 970c 980c 948b
00000390: 8fe1 710c 2576 bc8b 5acc 0d8c a7af 1d0c
000003a0: 6950 588c 52bf 618c 98a3 563e d2a3 140c
000003b0: 49b0 e5bc 70d7 fd8b 9c29 020c 2dd0 890a
000003c0: 7712 1d8c 27d2 bcb9 074d 3a0c 5db1 218c
000003d0: 5b8d 9d8b 591d 7b8c 4907 b43b 75b5 5b8c
000003e0: 7a8f 0d89 c7f9 658c c4ca 250c c599 d48b
000003f0: cc7d 228c 2234 7d8b 17ea c78a eef6 568c

conv2d_12/Conv2D_bias f4 [256]
0.052171618 -1.1070696 -0.15592654 -0.09488527 -0.2914042 -0.11516999 -1.734918 -0.010652652
-0.38806635 -0.15416713 -0.09001367 -0.23640528 0.0064248918 -0.16550876 0.043766502 -0.002588923
0.16746886 0.07622123 -0.07043759 -0.11578943 -0.091616705 -0.105469644 0.093560636 -0.15498926
-0.1497327 0.0021381923 -0.07709364 -0.08307572 0.1155763 -0.055965375 -0.0519101 -0.21745205
0.010004069 -0.03127596 -0.042667072 -0.054579288 -0.08682791 -0.07604899 0.029239664 0.114510655
-0.0023016613 -1.3630793 0.62970173 -0.13770044 1.326137 0.18299344 0.065795034 0.0025806916
-0.30480087 -0.03404901 -0.049591873 -0.34178162 -0.03209423 -0.022550005 -0.12710227 0.15624967
-0.07988951 -0.18309197 0.03493484 -0.10400419 -0.08638443 0.16026478 0.8826425 -0.0027144388
-0.103237204 0.038714264 -0.10109015 -0.17128505 0.061542552 -0.11817335 -0.09797543 0.67014
-0.5601068 -0.14649934 -0.21813683 -0.1058542 -0.18417484 -0.023095878 -0.13722219 -0.50641865
0.045637254 -0.1083369 -0.5645942 -0.16666459 -0.027717244 -0.052178346 -0.07528546 -0.09149767
-0.02563914 -0.12908459 0.1819559 -0.29912245 -0.0584078 0.39647487 -0.2606801 1.2187753
-0.043470237 -0.18976271 0.685698 -0.6274169 0.068581864 -0.20375757 -0.078963265 0.30602902
-0.11707295 -0.062316857 0.06642732 -0.0017753703 0.028730063 -0.07295591 -0.15512154 -0.35976955
0.063481964 0.007850133 0.2014948 -0.14605577 -0.14045598 -0.079681784 -0.21493544 -0.0021582819
-0.013865614 0.05155413 -0.13489091 0.00031271135 0.015711058 -0.48546782 -0.16765863 -0.15333745
-0.35746914 0.20259416 0.028023481 -0.163483 -0.13958925 0.4029199 -1.3514557 -0.3707466
0.18768021 -0.013415547 -0.13173936 -0.062473588 -0.15732184 -0.13564081 -0.095934615 0.039595723
0.29903087 0.089615345 0.054777063 -0.18817864 1.4672633 -0.21617076 -0.04860082 -0.04335287
-0.13275231 -0.014343687 -0.13390215 -0.3156756 0.0526321 -0.061944637 -0.14106563 0.0016322043
-0.0951723 0.33548045 -0.09091668 -0.033735223 0.010118503 0.04867751 0.07264746 -0.05824314
-0.11841306 -0.11072159 -0.17458956 0.07945022 -0.08378546 -0.21427959 -0.11445524 -0.15110998
-0.5997341 -0.12186924 -0.10105797 -0.06484574 -0.04393033 -0.20959413 -0.1558486 0.016448407
-0.25160012 -0.08752187 0.028886937 -0.18846843 -0.019000068 -0.13801618 -0.1429609 -0.21027818
-0.05394225 -1.4055432 -0.04761836 -0.16679707 0.04089656 -0.2441605 0.0008654364 -0.1654215
0.29892814 -0.53646564 -0.03964489 -0.0772613 -0.029882476 0.043209113 -0.11601002 -0.22975573
1.197785 -0.062476173 -0.2213219 -0.19074619 -0.30054557 -0.0010834192 -0.15490243 -0.14732724
-0.1453706 -0.13722575 -0.08860657 -0.19188726 0.06385862 -0.06273969 0.041026108 -0.97838
-0.008691866 -0.11413783 0.025475573 -0.1172863 -0.07168029 -0.050409596 0.13735946 -0.06350862
-0.011220206 -0.31474778 -0.07533429 -0.17946546 -1.3772302 -0.14636217 -0.17701246 -0.101194866
-0.048964318 1.2940619 -0.01195545 0.018413153 -0.040165424 0.012074891 -0.0016673198 0.2925631
-0.08531325 -0.034171917 -0.15469162 0.031675585 -0.15080684 -0.021560542 -0.07777005 0.039937675
00000000: e8b1 553d 75b4 8dbf 35ab 1fbe 3553 c2bd
00000010: ee32 95be 3ede ebbd cb11 debf 7688 2ebc
00000020: a2b0 c6be fddd 1dbe 1659 b8bd 3a14 72be
00000030: e687 d23b 217b 29be 8144 333d ecaa 29bb
00000040: f57c 2b3e e019 9c3d 9541 90bd 0223 edbd
00000050: 8aa1 bbbd 7800 d8bd b89c bf3d 81b5 1ebe
00000060: 8753 19be ea20 0c3b 45e3 9dbd 9a23 aabd
00000070: 44b3 ec3d f33b 65bd af9f 54bd c0ab 5ebe
00000080: 1be8 233c 391b 00bd abc3 2ebd 888e 5fbd
00000090: d5d2 b1bd 93bf 9bbd 0588 ef3c 9084 ea3d
000000a0: 78d7 16bb 6279 aebf 2234 213f 5801 0dbe
000000b0: dbbe a93f a262 3b3e 8cbf 863d d220 293b
000000c0: dc0e 9cbe fa76 0bbd d920 4bbd 00fe aebe
000000d0: 3d75 03bd caba b8bc 1927 02be eaff 1f3e
000000e0: 1d9d a3bd 767c 3bbe d617 0f3d 2600 d5bd
000000f0: 52ea b0bd 731c 243e dcf4 613f bae4 31bb
00000100: 076e d3bd d992 1e3d 5a08 cfbd 5965 2fbe
00000110: 0b14 7c3d df04 f2bd 58a7 c8bd 4c8e 2b3f
00000120: 2963 0fbf ec03 16be 435f 5fbe 16ca d8bd
00000130: 5498 3cbe 9133 bdbc f983 0cbe a7a4 01bf
00000140: 21ee 3a3d bddf ddbd 3f89 10bf 1faa 2abe
00000150: 460f e3bc f6b8 55bd 432f 9abd 2163 bbbd
00000160: 2c09 d2bc c02e 04be a652 3a3e 9426 99be
00000170: 043d 6fbd c1fe ca3e dd77 85be d400 9c3f
00000180: d90d 32bd 2851 42be e789 2f3f 659e 20bf
00000190: a674 8c3d d3a5 50be 7eb7 a1bd d6af 9c3e
000001a0: f1c3 efbd f63f 7fbd 0c0b 883d 8bb3 e8ba
000001b0: 4f5b eb3c e869 95bd 2ed8 1ebe b733 b8be
000001c0: d502 823d d89d 003c a754 4e3e a58f 15be
000001d0: b1d3 0fbe 3430 a3bd 0918 5cbe f671 0dbb
000001e0: 9a2c 63bc 6c2a 533d d820 0abe 68f3 a339
000001f0: 7ab4 803c 3d8f f8be b4ae 2bbe 7e04 1dbe
00000200: 3206 b7be d874 4f3e 8091 e53c 1668 27be
00000210: 7cf0 0ebe 844b ce3e 80fc acbf 80d2 bdbe
00000220: 3e2f 403e e2cc 5bbc afe6 06be 4ee4 7fbd
00000230: fa18 21be 6de5 0abe 5e79 c4bd 202f 223d
00000240: 931a 993e 4088 b73d ea5d 603d e7b1 40be
00000250: 49cf bb3f de5b 5dbe a711 47bd c792 31bd
00000260: 39f0 07be c901 6bbc a51d 09be 3ba0 a1be
00000270: c294 573d a9b9 7dbd 8273 10be b0ef d53a
00000280: b2e9 c2bd 18c4 ab3e 8632 babd f22d 0abd
00000290: 14c8 253c 1262 473d 31c8 943d 5c90 6ebd
000002a0: 8c82 f2bd 00c2 e2bd 9bc7 32be ccb6 a23d
000002b0: b697 abbd 1c6c 5bbe 8267 eabd 93bc 1abe
000002c0: 2d88 19bf 9596 f9bd 7bf7 cebd d8cd 84bd
000002d0: 4af0 33bd d89f 56be c796 1fbe cfbe 863c
000002e0: bbd1 80be ab3e b3bd 4ca4 ec3c defd 40be
000002f0: 08a6 9bbc 1d54 0dbe 5864 12be 2a53 57be
00000300: 8cf2 5cbd d7e8 b3bf 780b 43bd dacc 2abe
00000310: 2783 273d 3605 7abe 74de 623a 4164 29be
00000320: 1c0d 993e d055 09bf ae62 22bd 2c3b 9ebd
00000330: 18cc f4bc 0afc 303d a996 edbd 1645 6bbe
00000340: 0551 993f 04e7 7fbd 35a2 62be f852 43be
00000350: 1ce1 99be 8401 8eba be9e 1ebe f4dc 16be
00000360: 08dc 14be e884 0cbe 5d77 b5bd 187e 44be
00000370: 4fc8 823d ab7d 80bd fe0a 283d 1d77 7abf
00000380: 5468 0ebc 18c1 e9bd 26b2 d03c cd33 f0bd
00000390: 1ecd 92bd 4b7a 4ebd f5a7 0c3e cf10 82bd
000003a0: f4d4 37bc 9f26 a1be dd48 9abd cbc5 37be
000003b0: 1449 b0bf f7df 15be c142 35be 413f cfbd
000003c0: cf8e 48bd d2a3 a53f cbe0 43bc 2ed7 963c
000003d0: 8084 24bd c3d5 453c f889 daba d5ca 953e
000003e0: b7b8 aebd daf7 0bbd 7b67 1ebe 42be 013d
000003f0: 1c6d 1abe bc9f b0bc e745 9fbd b095 233d

conv2d_12/kernel f4 [256, 1, 1, 128]
5.3236987e-31 -7.4097112e-31 -1.3749276e-30 6.91627e-31 -6.781052e-31 -1.8163015e-30 -1.897848e-30 -1.4787438e-30
-1.11544935e-30 5.293346e-31 -8.487074e-31 -5.975385e-31 2.1352383e-32 6.7997e-31 -5.802584e-31 -8.781221e-31
9.812704e-31 1.0900091e-30 -5.792388e-31 -6.9605328e-31 1.7901045e-30 -6.36016e-31 9.327844e-31 8.356726e-31
-8.5058e-31 3.732658e-31 2.724317e-31 8.335609e-31 5.2105127e-31 1.5230049e-30 3.4825802e-31 7.0374317e-31
-2.7007215e-31 -4.1737182e-31 2.0423073e-30 -1.4168157e-30 -1.1504942e-30 1.1588325e-30 1.7679854e-31 -1.1741234e-30
-9.186204e-31 7.1037063e-32 1.4885516e-30 3.0264738e-31 1.4982387e-31 3.2411882e-31 9.329059e-31 -1.1711578e-30
-2.4074874e-31 1.159249e-30 -1.4508331e-30 6.4989923e-31 -7.513315e-33 1.47549245e-30 1.6547752e-30 -4.658278e-31
9.046486e-31 -1.0593618e-30 -9.744244e-31 -5.067619e-31 -8.759092e-31 1.6424342e-30 1.7385571e-31 -1.1198034e-30
1.2439514e-30 4.266379e-31 -2.7798286e-31 1.1530691e-30 -1.127012e-30 8.157539e-31 -7.841253e-31 9.467595e-31
2.8617452e-31 6.421601e-31 7.152928e-31 8.1224995e-31 -9.547403e-31 9.546722e-31 1.2938149e-30 5.7302373e-31
7.2587416e-31 1.7644198e-30 1.3939085e-30 -3.6914606e-31 1.0349028e-31 -1.7426391e-31 1.1642073e-30 7.071153e-31
2.0089663e-30 -6.4076004e-31 1.3810443e-30 -7.494517e-31 -7.555142e-32 1.6581883e-30 -6.735929e-31 1.4601349e-30
9.964679e-31 -7.6968577e-31 -6.5532776e-31 2.3595825e-31 -8.846173e-31 -6.769223e-31 1.2318347e-30 1.598213e-30
3.1916806e-31 1.5438797e-30 -6.119928e-31 6.363422e-31 4.1769795e-31 7.08351e-31 -1.4978687e-30 1.1555142e-30
-3.1075693e-31 -5.5532474e-31 1.5858649e-30 1.3046289e-30 1.0800682e-30 8.847772e-31 3.7956532e-31 -7.978187e-31
-1.7535607e-30 -2.496372e-31 6.2190728e-31 -7.024526e-31 1.6919919e-30 4.2342134e-31 -3.105735e-31 -1.8025064e-30
1.0564514e-32 -0.10574401 -5.195583e-32 -1.061288e-32 -1.7367208e-32 -4.7127197e-32 0.007448025 -3.9334633e-32
-4.5278743e-32 -0.00039203317 0.00077598816 -2.753675e-32 5.3163754e-32 -5.8244386e-33 -2.1978532e-33 4.4766337e-32
4.8150235e-32 -4.6804917e-32 -3.4072403e-32 4.1849004e-32 -2.914743e-32 4.958963e-32 -2.2425395e-32 -8.901871e-32
9.048164e-32 -1.0198685e-32 -5.6904024e-32 -4.4836273e-32 4.3623298e-32 7.213942e-32 -6.753461e-32 3.6645537e-33
4.7027876e-32 4.1948903e-32 -3.2057303e-32 0.13966054 0.021752322 -4.544818e-32 4.7081984e-32 -4.6923586e-32
-4.0899563e-32 7.053298e-32 -9.4663395e-32 0.05018194 -2.9472465e-32 4.5841062e-32 -3.794392e-32 4.235696e-32
-1.4014794e-33 -0.011121349 7.0587154e-32 2.7649858e-32 0.043384146 2.7160984e-32 2.8298254e-32 -3.4182518e-32
-3.024784e-32 3.7141302e-32 5.17672e-32 -0.0017350998 -4.3978435e-32 -0.040600292 -9.1939316e-32 -9.507099e-32
5.1131524e-32 -5.92564e-32 -9.865685e-32 3.0061575e-32 2.4593816e-32 0.009716581 2.477971e-32 5.202091e-32
-4.3286657e-32 -2.3466057e-32 3.637257e-32 7.0702894e-32 0.04566335 0.2551961 -8.789067e-32 -3.9863688e-32
-4.2839475e-32 4.1321492e-32 5.385701e-32 -3.4347163e-32 4.0227788e-32 5.321909e-32 2.4440272e-32 0.09061246
-3.9221985e-32 6.0837134e-32 3.7890756e-33 0.033643186 0.088995874 5.30451e-32 3.7822224e-32 -6.232475e-32
-3.4402776e-32 -0.00200874 -3.2901822e-32 5.901233e-32 4.4833055e-32 0.12334592 5.492114e-32 -1.09118415e-32
-8.104507e-32 -2.8674048e-32 0.019146904 2.8786755e-32 1.413105e-05 -0.0054918723 -3.7090885e-32 0.016385823
0.07484266 4.6753334e-32 2.1627579e-33 3.3518754e-32 3.2202682e-32 4.092141e-32 0.06828782 4.6007468e-32
9.450118e-32 0.13374989 5.2052394e-32 0.00968243 7.6189725e-33 -3.453169e-32 -2.0292897e-32 -0.029986398
00000000: 8fc3 2c0d 7975 708d 4218 df8d 2072 600d
00000010: c70e 5c8d 1b5b 138e c3f8 198e 9df0 ef8d
00000020: f4fd b48d 66c7 2b0d edb5 898d 8ee9 418d
00000030: 5fbc dd0a b3a9 5c0d fb4d 3c8d c47b 8e8d
00000040: 6138 9f0d 35dd b00d 47f9 3b8d d8e1 618d
00000050: 043b 110e 2466 4e8d 595a 970d 7b98 870d
00000060: b603 8a8d 6b43 f20c 7bd1 b00c c440 870d
00000070: 3f17 290d 261f f70d 4a08 e20c b260 640d
00000080: 6f49 af8c e571 078d 10b1 250e 39e4 e58d
00000090: a9ad ba8d 0508 bc0d 647f 650c 2e83 be8d
000000a0: 000e 958d 3a6c b80b 0488 f10d ec6d c40c
000000b0: 857b 420c 7a5d d20c 655f 970d fe07 be8d
000000c0: 3f41 9c8c 5219 bc0d 4069 eb8d 84e7 520d
000000d0: a20b 1c8a 8f69 ef0d 5640 060e 762b 178d
000000e0: a2c9 920d 2be4 ab8d 021c 9e8d 2274 248d
000000f0: d81f 8e8d 0640 050e 78ad 610c d0b2 b58d
00000100: b8d7 c90d b173 0a0d d36b b48c 9e18 bb0d
00000110: 3fde b68d 175d 840d 9576 7e8d da9e 990d
00000120: e6bc b90c 9364 500d 3320 680d 8bcb 830d
00000130: 5cea 9a8d 88e7 9a0d f8ee d10d f3f4 390d
00000140: 448f 6b0d 9125 0f0e b22c e20d e996 ef8c
00000150: 8b56 060c 1e35 628c 47e7 bc0d d778 650d
00000160: 99fc 220e 43f0 4f8d 5616 e00d 0336 738d
00000170: 8824 c48b 3987 060e e997 5a8d a1eb ec0d
00000180: a8af a10d fec6 798d 80aa 548d 4a25 990c
00000190: 9189 8f8d 81ac 5b8d 69e0 c70d 96a9 010e
000001a0: e426 cf0c 4182 fa0d 5f9a 468d 3e81 4e0d
000001b0: fd8c 070d 80df 650d 080b f38d 2f7e bb0d
000001c0: 5ab1 c98c 9336 348d 20a9 000e 2ab0 d30d
000001d0: 4740 af0d 3590 8f0d 1b5a f60c 1874 818d
000001e0: 0844 0e8e 1806 a28c 09d2 490d 7bf5 638d
000001f0: 4c45 090e 7868 090d e092 c98c 983c 128e
00000200: 976a 5b0a 5190 d8bd 92e2 868b c06b 5c8a
00000210: f559 b48a cab2 748b 900e f43b b23c 4c8b
00000220: c619 6b8b cd89 cdb9 af6b 4b3a 9efa 0e8b
00000230: 6005 8a0b 0ef0 f189 2b97 3689 ab70 680b
00000240: a402 7a0b 6806 738b fee9 308b de4a 590b
00000250: 9457 178b f6bd 800b ede0 e88a 151b e78b
00000260: 5de7 ea0b 83d1 538a 36bb 938b a1cd 688b
00000270: 4f81 620b de48 bb0b 7254 af8b 3838 9809
00000280: c52e 740b a8cf 590b 7773 268b 2c03 0f3e
00000290: ed31 b23c fefa 6b8b b176 740b 25a4 738b
000002a0: d85c 548b 351d b70b 9ec2 f58b 948b 4d3d
000002b0: a007 198b 3905 6e0b 1f04 458b 0fee 5b0b
000002c0: 57dc e888 5236 36bc 3641 b70b f790 0f0b
000002d0: 93b3 313d 2407 0d0b d5ee 120b 5c7c 318b
000002e0: 470e 1d8b 42d9 400b 3565 860b 4a6c e3ba
000002f0: 5e59 648b 7e4c 26bd 28b0 ee8b 83d1 f68b
00000300: babe 840b a2d6 998b 5d10 008c b016 1c0b
00000310: 9465 ff0a 4b32 1f3c e2a9 000b d30d 870b
00000320: d6c1 608b 7baf f38a 70db 3c0b 228e b70b
00000330: 7e09 3b3d 10a9 823e 5f2d e48b eefb 4e8b
00000340: 6e6f 5e8b af8d 560b 1fd2 8b0b 3657 328b
00000350: e7df 500b 272a 8a0b 63cd fd0a 0793 b93d
00000360: f6a6 4b8b 36f1 9d0b 5d64 9d09 70cd 093d
00000370: 7843 b63d 84b6 890b 5c62 440b e7cd a18b
00000380: 22a1 328b 11a5 03bb 06d6 2a8b 6c34 990b
00000390: 5ac9 680b c99c fc3d 5c95 8e0b 4da1 628a
000003a0: b067 d28b 59e2 148b f8d9 9c3c 2978 150b
000003b0: 6614 6d37 2af5 b3bb 3e96 408b 903b 863c
000003c0: 1c47 993d d7c1 720b c6ac 3309 110a 2e0b
000003d0: b534 270b e279 540b 7cda 8b3d 6ae2 6e0b
000003e0: cf56 f50b bbf5 083e c022 870b 0ea3 1e3c
000003f0: 683d 1e0a 7d4c 338b c6bb d28a 09a6 f5bc

conv2d_13/Conv2D_bias f4 [256]
-0.2788638 -0.425256 -0.4173288 -0.37771007 -0.31765872 -0.3946614 -0.28387144 -0.38066676
-0.33936378 -0.369905 -0.268434 -0.38872743 -0.25839704 -0.77492297 -0.36402193 -0.3459503
-0.328232 -0.39830083 -0.28074595 -0.3127208 -0.28482652 -0.61568207 -0.41130018 -0.41852933
-0.32841522 -0.27769944 -0.29654217 -0.30688003 -0.23045158 -0.33736128 -0.29406622 -0.39238635
-0.23382777 -0.34593523 -0.5606232 -0.42427263 -0.29986197 -0.8069613 -0.31779993 -0.7152337
-0.27899557 -0.4033498 -0.30945 -0.847873 -0.22889887 -0.3877611 -0.26624623 -0.26415294
-0.2952627 -0.49023965 -0.70220715 -0.26610777 -0.321821 -0.3708519 -0.80932426 -0.2724256
0.39720836 -0.32973486 -0.39264506 -0.3367771 -0.28552175 -0.39426884 -0.26893342 -0.3238854
-0.39667943 -0.35344195 -0.30271906 -0.3269334 -0.33685216 -0.31771547 -0.3527676 -0.3763074
-0.3103385 0.3118796 -0.3234423 -0.5750971 -0.29504532 -0.42683974 -0.38530108 -0.33313403
-0.35970923 -0.7219256 -0.2670157 -0.33490965 -0.28421503 -0.35415304 -0.36577773 0.8353604
-0.8977389 -0.5255161 -0.4580348 -0.39498678 -0.30599305 -0.35429803 -0.2740174 0.42651683
-0.36071733 -0.3622828 -0.54997337 0.31907707 -0.32523155 -0.25827754 -0.3071281 -0.339953
-0.20670716 -0.46709114 -0.38054642 -0.23610725 -0.2971556 -0.54618454 -0.29980808 -0.373174
-0.3438666 -0.327745 -0.3245596 -0.28876013 -0.3266937 -0.35002995 -0.350572 -0.30856174
-0.3754626 -0.3123515 -0.347972 -0.35587573 -0.38127565 -0.30223456 -0.3014438 -0.26243642
-0.37902153 -0.3528657 -0.31476128 -0.38605085 -0.35879698 -0.41990897 -0.32107484 -0.35849872
-0.51604944 -0.30104876 -0.6422703 -0.2672158 -0.33377135 -0.38608664 -0.33375713 -0.038567375
-0.29951108 -0.26738998 -0.30969468 -0.64237535 -0.3795652 0.69224715 -0.29838789 -0.4570513
-0.37616667 -0.3883247 -0.31571716 -0.25437945 -0.40244153 -0.39890057 -0.2882389 -0.3420081
-0.2829388 -0.33604637 -0.3406008 -0.3953931 -0.33357802 -0.3546823 -0.44592822 -0.3351261
-0.30496395 -0.48225993 -0.30819654 -0.57738715 -0.26271337 -0.36423752 -0.2949151 -0.27517042
-0.2557253 -0.1103753 -0.3782573 -0.33990398 -0.31030026 -0.35837144 -0.35490716 -0.40712467
-0.2495149 -0.364977 -0.3209429 -0.3683175 -0.43926445 -0.71118695 -0.32905772 -0.24991925
-0.29582414 -0.29907924 -0.28045964 -0.38288903 -0.2782511 -0.31412625 -0.3700738 -0.30635822
0.036262825 -0.059321135 -0.403799 -0.3607816 -0.3160203 -0.2793934 -0.23375307 -0.21078694
-0.5050543 -0.27139756 -0.34550387 -0.33116817 -0.28249127 -0.44980568 -0.60878193 -0.32256967
-0.32696575 -0.26319167 -0.29060677 -0.26916596 -0.2767016 -0.31477737 -0.72686034 -0.28457242
-0.30033982 -0.3124973 -0.23064654 -0.28059343 -0.37876683 -0.36664245 -0.33145767 -0.4101951
-0.6336418 -0.420562 -0.4504528 -0.31826773 -0.3573054 -0.3238512 -0.36978772 -0.023750126
-0.3159086 -0.28975827 -0.4090886 -0.25785506 -0.27994862 -0.28126702 -0.3108288 -0.30898523
-0.47619522 -0.055161107 -0.3024956 -0.33784524 -0.37046075 0.6466176 -0.4211966 -0.36241844
00000000: 3cc7 8ebe 28bb d9be 1fac d5be 3763 c1be
00000010: 2aa4 a2be 0f11 cabe 9957 91be c1e6 c2be
00000020: 17c1 adbe 3064 bdbe 2e70 89be 4807 c7be
00000030: 9e4c 84be 5a61 46bf 1561 babe 6620 b1be
00000040: 060e a8be 16ee cbbe efbd 8fbe f11c a0be
00000050: c8d4 91be 579d 1dbf f095 d2be 7a49 d6be
00000060: 0a26 a8be 9f2e 8ebe 60d4 97be 611f 9dbe
00000070: 80fb 6bbe 9eba acbe d98f 96be dde6 c8be
00000080: 8c70 6fbe 6c1e b1be 0185 0fbf 433a d9be
00000090: 8287 99be 0495 4ebf acb6 a2be 8e19 37bf
000000a0: 82d8 8ebe dd83 cebe 3b70 9ebe 340e 59bf
000000b0: 7764 6abe 9f88 c6be 6d51 88be 0e3f 87be
000000c0: ac2c 97be b100 fbbe d9c3 33bf 473f 88be
000000d0: b9c5 a4be 4de0 bdbe e02f 4fbf 5e7b 8bbe
000000e0: e55e cb3e 02d3 a8be c608 c9be 0c6e acbe
000000f0: e82f 92be 9bdd c9be a4b1 89be 4fd4 a5be
00000100: 9119 cbbe 58f6 b4be fefd 9abe d163 a7be
00000110: e377 acbe 9aab a2be f49d b4be 5dab c0be
00000120: b0e4 9ebe afae 9f3e 3b9a a5be 9039 13bf
00000130: 2e10 97be bd8a dabe 2f46 c5be 8b90 aabe
00000140: cf2b b8be 1ed0 38bf 48b6 88be 4779 abbe
00000150: a284 91be 8c53 b5be 3847 bbbe 2eda 553f
00000160: 37d2 65bf 3988 06bf 8a83 eabe b53b cabe
00000170: 1fab 9cbe 8d66 b5be 024c 8cbe 6a60 da3e
00000180: f1af b8be 227d b9be 0ecb 0cbf 125e a33e
00000190: c084 a6be f43c 84be e53f 9dbe 520e aebe
000001a0: 0bab 53be 9226 efbe fbd6 c2be 19c6 71be
000001b0: c724 98be c0d2 0bbf 7280 99be aa10 bfbe
000001c0: 480f b0be 31ce a7be ad2c a6be 5ed8 93be
000001d0: 6644 a7be 2037 b3be 2c7e b3be cefb 9dbe
000001e0: a23c c0be 89ec 9fbe 6329 b2be 5835 b6be
000001f0: 9036 c3be 7dbe 9abe d756 9abe 115e 86be
00000200: 1c0f c2be d0aa b4be 6428 a1be 75a8 c5be
00000210: 3db4 b7be 4ffe d6be ec63 a4be 258d b7be
00000220: d11b 04bf 1023 9abe d46b 24bf 82d0 88be
00000230: 14e4 aabe 26ad c5be 37e2 aabe d3f8 1dbd
00000240: 8459 99be 57e7 88be 4d90 9ebe b672 24bf
00000250: 5f56 c2be 1c37 313f 4cc6 98be a102 eabe
00000260: eb98 c0be 7fd2 c6be aea5 a1be 063e 82be
00000270: d10c cebe b23c ccbe 0d94 93be b01b afbe
00000280: 5bdd 90be 450e acbe 3a63 aebe f770 cabe
00000290: bdca aabe eb98 b5be b450 e4be a695 abbe
000002a0: 3c24 9cbe c6ea f6be f0cb 9dbe a5cf 13bf
000002b0: 5e82 86be 577d babe 1dff 96be 23e3 8cbe
000002c0: 6dee 82be 720c e2bd f1aa c1be e507 aebe
000002d0: addf 9ebe 767c b7be 64b6 b5be a572 d0be
000002e0: d580 7fbe 44de babe a152 a4be 1d94 bcbe
000002f0: 45e7 e0be 5910 36bf 417a a8be d5ea 7fbe
00000300: 4376 97be ea20 99be 6898 8fbe 080a c4be
00000310: ee76 8ebe 28d5 a0be 507a bdbe fcda 9cbe
00000320: 5488 143d b8fa 72bd bebe cebe 5eb8 b8be
00000330: 6acd a1be a70c 8fbe f75c 6fbe 88d8 57be
00000340: 3d4b 01bf 9ff4 8abe e2e5 b0be e08e a9be
00000350: b2a2 90be ee4c e6be 22d9 1bbf da27 a5be
00000360: 0e68 a7be 0fc1 86be 69ca 94be 1fd0 89be
00000370: d5ab 8dbe 802a a1be 8513 3abf 7ab3 91be
00000380: 24c6 99be a5ff 9fbe 9b2e 6cbe f1a9 8fbe
00000390: baed c1be 8fb8 bbbe d2b4 a9be 1805 d2be
000003a0: 5936 22bf e753 d7be c0a1 e6be fdf3 a2be
000003b0: bcf0 b6be d3cf a5be d154 bdbe a08f c2bc
000003c0: c6be a1be 325b 94be 1074 d1be 9405 84be
000003d0: 6d55 8fbe 3b02 90be f424 9fbe 5033 9ebe
000003e0: dccf f3be 9df0 61bd b4e0 9abe 0dfa acbe
000003f0: 08ad bdbe bb88 253f 15a7 d7be e98e b9be
