closed/kai_jiang/code/ic/K1_BOARD_V1.0_HIGH_FREQ/models/resnet.onnx (onnx, 99615 bytes, 37 tensors)

model/dense/MatMul/ReadVariableOp:0 i1 [10, 64]
000000 1e e6 27 22 10 ba f8 f6 d4 0c 16 e1 f0 f9 ff e8
       30 -26 39 34 16 -70 -8 -10 -44 12 22 -31 -16 -7 -1 -24
000010 12 c1 e9 17 fc ed 13 e8 0e 07 0e db d3 14 09 42
       18 -63 -23 23 -4 -19 19 -24 14 7 14 -37 -45 20 9 66
000020 c6 ba 1f 14 33 c7 c9 e5 1f 26 e5 ad e9 0b d0 15
       -58 -70 31 20 51 -57 -55 -27 31 38 -27 -83 -23 11 -48 21
000030 b1 04 e0 32 d1 fb d7 27 39 e2 17 ca 05 05 03 1a
       -79 4 -32 50 -47 -5 -41 39 57 -30 23 -54 5 5 3 26
000040 b8 db de e1 05 14 14 fc df f6 f0 23 34 e9 1b e1
       -72 -37 -34 -31 5 20 20 -4 -33 -10 -16 35 52 -23 27 -31
000050 0a 28 d0 0a 26 e5 e0 13 fd 13 34 ee cb d7 d9 0c
       10 40 -48 10 38 -27 -32 19 -3 19 52 -18 -53 -41 -39 12
000060 f8 c7 fe 09 ed da fa ab 23 de 0e 06 26 00 12 df
       -8 -57 -2 9 -19 -38 -6 -85 35 -34 14 6 38 0 18 -33
000070 00 e3 55 f8 12 d6 e2 cf c0 10 14 4c f0 13 3e e3
       0 -29 85 -8 18 -42 -30 -49 -64 16 20 76 -16 19 62 -29
000080 2d 1c 37 ff cd db 1c b2 14 44 fb e0 22 12 c9 ed
       45 28 55 -1 -51 -37 28 -78 20 68 -5 -32 34 18 -55 -19
000090 0c e0 13 fc bd eb 1e 1e eb d7 ea 6a e0 e1 cd df
       12 -32 19 -4 -67 -21 30 30 -21 -41 -22 106 -32 -31 -51 -33
0000a0 e8 f5 fd 7a 0f 1b 3a 03 0c 44 08 23 e5 e7 bc 1a
       -24 -11 -3 122 15 27 58 3 12 68 8 35 -27 -25 -68 26
0000b0 0b 0e d2 bb f7 b3 f4 00 fa e2 b8 ee e7 09 00 39
       11 14 -46 -69 -9 -77 -12 0 -6 -30 -72 -18 -25 9 0 57
0000c0 fb fb 0c 0c cd e6 ca 10 c8 e8 08 fb f5 24 0c 1a
       -5 -5 12 12 -51 -26 -54 16 -56 -24 8 -5 -11 36 12 26
0000d0 ec f4 04 fa e2 13 f0 04 f3 1b c4 db e5 f9 21 d9
       -20 -12 4 -6 -30 19 -16 4 -13 27 -60 -37 -27 -7 33 -39
0000e0 16 04 e1 ef 17 0a f7 0b f8 d3 fb 3b e6 1b 03 13
       22 4 -31 -17 23 10 -9 11 -8 -45 -5 59 -26 27 3 19
0000f0 04 e6 f9 e4 e9 4d 7c da 03 21 f2 e6 da 1c 2e f0
       4 -26 -7 -28 -23 77 124 -38 3 33 -14 -26 -38 28 46 -16

model/conv2d/BiasAdd_weights_fused_bn i1 [16, 3, 3, 3]
000000 19 15 4c a7 f9 ec ae 26 a7 21 f0 11 f6 28 d7 ff
       25 21 76 -89 -7 -20 -82 38 -89 33 -16 17 -10 40 -41 -1
000010 3a e8 d1 c4 9a 4b f4 ed 08 7f 2c f3 4b 29 e7 a9
       58 -24 -47 -60 -102 75 -12 -19 8 127 44 -13 75 41 -25 -87
000020 7f b9 32 61 18 c0 a5 f1 89 e4 26 1f aa a2 f5 ec
       127 -71 50 97 24 -64 -91 -15 -119 -28 38 31 -86 -94 -11 -20
000030 e1 9e 60 2b eb 50 c4 3f ac 30 bc cf 7f 19 07 b2
       -31 -98 96 43 -21 80 -60 63 -84 48 -68 -49 127 25 7 -78
000040 43 2d c9 b6 c3 05 36 42 24 20 05 f4 ea a7 f8 ea
       67 45 -55 -74 -61 5 54 66 36 32 5 -12 -22 -89 -8 -22
000050 5d bc ba 04 01 f0 09 2d d8 e0 04 3c 2d 22 7f 18
       93 -68 -70 4 1 -16 9 45 -40 -32 4 60 45 34 127 24
000060 fa 07 1c 07 eb cf 0f 13 d6 d7 db f7 80 ac 27 97
       -6 7 28 7 -21 -49 15 19 -42 -41 -37 -9 -128 -84 39 -105
000070 a3 0d 69 60 4f 32 25 02 0e f7 26 20 b8 ac 55 db
       -93 13 105 96 79 50 37 2 14 -9 38 32 -72 -84 85 -37
000080 ef 5c e1 1b da d5 e8 4c bb ef b5 ce f0 f4 52 55
       -17 92 -31 27 -38 -43 -24 76 -69 -17 -75 -50 -16 -12 82 85
000090 17 80 c9 ee 0d 65 fe de 65 10 ae bb e9 0a 26 1e
       23 -128 -55 -18 13 101 -2 -34 101 16 -82 -69 -23 10 38 30
0000a0 28 22 3e e8 d6 ca 00 65 16 c6 ea a0 e8 18 c4 07
       40 34 62 -24 -42 -54 0 101 22 -58 -22 -96 -24 24 -60 7
0000b0 7f 5c c5 53 41 62 19 0d 99 ee 40 83 ab 68 72 21
       127 92 -59 83 65 98 25 13 -103 -18 64 -125 -85 104 114 33
0000c0 1a eb ce 9e 81 1b a1 c2 28 4f 16 01 47 88 37 ac
       26 -21 -50 -98 -127 27 -95 -62 40 79 22 1 71 -120 55 -84
0000d0 b8 07 0e 26 d2 3a fe 5b 2a 68 5f f5 93 91 36 f5
       -72 7 14 38 -46 58 -2 91 42 104 95 -11 -109 -111 54 -11
0000e0 f9 a2 59 f3 ee 23 89 c5 cb 0f 15 7f e8 19 66 eb
       -7 -94 89 -13 -18 35 -119 -59 -53 15 21 127 -24 25 102 -21
0000f0 13 c6 eb 4d f3 d0 7f c5 f2 09 13 e5 e5 ee db 30
       19 -58 -21 77 -13 -48 127 -59 -14 9 19 -27 -27 -18 -37 48

model/conv2d_5/Conv2D/ReadVariableOp:0 i1 [32, 16, 1, 1]
000000 33 f6 bf ea 38 39 7f 44 1a 05 2a 8c 08 83 bd 06
       51 -10 -65 -22 56 57 127 68 26 5 42 -116 8 -125 -67 6
000010 e2 72 7f 92 fa 06 b2 55 0d f5 2f d5 19 2e d2 72
       -30 114 127 -110 -6 6 -78 85 13 -11 47 -43 25 46 -46 114
000020 7f e0 33 e7 11 05 24 b1 22 c4 e2 13 04 3c e5 1a
       127 -32 51 -25 17 5 36 -79 34 -60 -30 19 4 60 -27 26
000030 59 7f 0d da bf 12 eb 40 64 ce 06 34 1f 46 1b 20
       89 127 13 -38 -65 18 -21 64 100 -50 6 52 31 70 27 32
000040 0e b0 b6 df e3 7f 1a 48 37 bf 03 a4 ea 04 da ad
       14 -80 -74 -33 -29 127 26 72 55 -65 3 -92 -22 4 -38 -83
000050 02 0b 55 dc 7f 37 06 e4 ee db 28 17 07 0e 48 90
       2 11 85 -36 127 55 6 -28 -18 -37 40 23 7 14 72 -112
000060 05 35 64 de 26 2e e4 b9 03 ff 52 80 3d d7 23 d4
       5 53 100 -34 38 46 -28 -71 3 -1 82 -128 61 -41 35 -44
000070 ef d1 2e d0 28 39 bd ee dd 15 7f 5f 0c ff 46 e0
       -17 -47 46 -48 40 57 -67 -18 -35 21 127 95 12 -1 70 -32
000080 f3 7a 53 d7 85 2a e9 15 f9 4d b8 fc c6 4b 7f bf
       -13 122 83 -41 -123 42 -23 21 -7 77 -72 -4 -58 75 127 -65
000090 2d e0 1c e0 0b b9 31 8a 89 7f 4b 6b 16 19 5e 20
       45 -32 28 -32 11 -71 49 -118 -119 127 75 107 22 25 94 32
0000a0 d4 80 a2 e5 d6 da 13 e6 34 92 ec bf 16 95 92 c4
       -44 -128 -94 -27 -42 -38 19 -26 52 -110 -20 -65 22 -107 -110 -60
0000b0 81 25 46 c0 be e8 75 fd f2 5b d9 61 c6 fb 74 88
       -127 37 70 -64 -66 -24 117 -3 -14 91 -39 97 -58 -5 116 -120
0000c0 0e 25 11 eb e4 1d c5 0f fd 80 f8 13 0e 22 f2 05
       14 37 17 -21 -28 29 -59 15 -3 -128 -8 19 14 34 -14 5
0000d0 e1 25 10 14 45 dc 7f 04 cb 4c d9 13 e5 b6 21 af
       -31 37 16 20 69 -36 127 4 -53 76 -39 19 -27 -74 33 -81
0000e0 e2 f6 0c 62 d3 f5 8d b7 8b 6c 7f e5 0d d6 2b 2d
       -30 -10 12 98 -45 -11 -115 -73 -117 108 127 -27 13 -42 43 45
0000f0 1d 46 73 5d 3e cb 72 d6 30 2e 48 00 7f f4 29 01
       29 70 115 93 62 -53 114 -42 48 46 72 0 127 -12 41 1

model/conv2d_4/BiasAdd_weights_fused_bn i1 [32, 32, 3, 3]
000000 ad 1d 18 c0 45 3a d9 4c 3c d4 e6 1a b3 bd 25 c9
       -83 29 24 -64 69 58 -39 76 60 -44 -26 26 -77 -67 37 -55
000010 b6 dc 35 65 2b 24 45 0c ea 27 05 fe 18 5c 89 d2
       -74 -36 53 101 43 36 69 12 -22 39 5 -2 24 92 -119 -46
000020 32 d2 08 3b e9 c5 03 f7 b9 9f 45 38 d3 c0 bf e6
       50 -46 8 59 -23 -59 3 -9 -71 -97 69 56 -45 -64 -65 -26
000030 c1 27 1d b5 b5 e3 10 2b e7 eb 22 05 f5 08 1e 33
       -63 39 29 -75 -75 -29 16 43 -25 -21 34 5 -11 8 30 51
000040 d9 ae 79 fc c1 32 de c8 06 d6 9b 14 0e fa d2 cb
       -39 -82 121 -4 -63 50 -34 -56 6 -42 -101 20 14 -6 -46 -53
000050 f0 06 05 0e d3 0b 54 bc dd 3c f4 dc e4 f9 01 fe
       -16 6 5 14 -45 11 84 -68 -35 60 -12 -36 -28 -7 1 -2
000060 10 1c 18 07 01 d1 f1 e3 13 e7 1b 2e 04 05 13 f4
       16 28 24 7 1 -47 -15 -29 19 -25 27 46 4 5 19 -12
000070 02 11 db 02 27 b3 03 1b da 11 3e dd 22 42 29 d5
       2 17 -37 2 39 -77 3 27 -38 17 62 -35 34 66 41 -43
000080 c2 4c e9 99 40 f3 80 1b e1 bd 29 e3 e3 fb d8 04
       -62 76 -23 -103 64 -13 -128 27 -31 -67 41 -29 -29 -5 -40 4
000090 d6 1e fb e7 16 ff d2 02 24 e2 c5 39 da a3 17 e0
       -42 30 -5 -25 22 -1 -46 2 36 -30 -59 57 -38 -93 23 -32
0000a0 af 1d ea da fb f3 fa 12 ff f5 ec dd de e4 07 05
       -81 29 -22 -38 -5 -13 -6 18 -1 -11 -20 -35 -34 -28 7 5
0000b0 12 ff 33 24 dd f3 d7 0a d5 01 02 c9 f9 c6 c7 05
       18 -1 51 36 -35 -13 -41 10 -43 1 2 -55 -7 -58 -57 5
0000c0 0a 0b 1d 0e 1a 31 be da 1a bf e5 06 c6 b1 0e df
       10 11 29 14 26 49 -66 -38 26 -65 -27 6 -58 -79 14 -33
0000d0 0e 15 01 01 0c fb ee 06 c6 e0 f3 c3 09 59 fe 0a
       14 21 1 1 12 -5 -18 6 -58 -32 -13 -61 9 89 -2 10
0000e0 28 4a ee df 47 d4 b9 11 07 ea 44 42 d7 21 34 02
       40 74 -18 -33 71 -44 -71 17 7 -22 68 66 -41 33 52 2
0000f0 3d ee fb d9 07 12 c0 ef 0a b9 d1 f5 f3 f0 1f fd
       61 -18 -5 -39 7 18 -64 -17 10 -71 -47 -11 -13 -16 31 -3

model/conv2d_2/BiasAdd_weights_fused_bn i1 [16, 16, 3, 3]
000000 be db b6 06 18 e8 31 24 2c 2e 42 58 0c 1e 04 15
       -66 -37 -74 6 24 -24 49 36 44 46 66 88 12 30 4 21
000010 da be e7 36 34 f8 0d 04 d8 dc 11 09 e5 0a 09 14
       -38 -66 -25 54 52 -8 13 4 -40 -36 17 9 -27 10 9 20
000020 ef ae cd dd aa 1c 4f ef 12 0c ec 15 f2 17 f5 f3
       -17 -82 -51 -35 -86 28 79 -17 18 12 -20 21 -14 23 -11 -13
000030 e4 d9 fa 1e ca d5 47 32 06 f7 1c fa e0 e3 c9 17
       -28 -39 -6 30 -54 -43 71 50 6 -9 28 -6 -32 -29 -55 23
000040 64 2b 33 7f 25 fb 13 08 ca c0 f3 14 0a 0d f8 34
       100 43 51 127 37 -5 19 8 -54 -64 -13 20 10 13 -8 52
000050 1e 36 f7 da 16 e5 ee bd b0 f2 1d 2c 2e 00 07 1f
       30 54 -9 -38 22 -27 -18 -67 -80 -14 29 44 46 0 7 31
000060 b1 b9 fd d8 40 44 ec 42 2c af fb 17 20 3f d5 10
       -79 -71 -3 -40 64 68 -20 66 44 -81 -5 23 32 63 -43 16
000070 18 c2 20 00 c7 12 19 38 b7 cf 0a 8e a4 b1 ef 1a
       24 -62 32 0 -57 18 25 56 -73 -49 10 -114 -92 -79 -17 26
000080 f2 ce ef d8 c7 00 bc c8 ec 29 07 c4 c8 17 e5 02
       -14 -50 -17 -40 -57 0 -68 -56 -20 41 7 -60 -56 23 -27 2
000090 0c 35 dd 7d 05 a1 3d de b1 2e ee f1 2e ef ce db
       12 53 -35 125 5 -95 61 -34 -79 46 -18 -15 46 -17 -50 -37
0000a0 c7 01 ee ee 1a e4 dc 52 d6 f8 21 e6 39 d1 53 e4
       -57 1 -18 -18 26 -28 -36 82 -42 -8 33 -26 57 -47 83 -28
0000b0 a7 53 af d4 ce 42 a7 2e 7b 80 e6 3e ad dd 26 24
       -89 83 -81 -44 -50 66 -89 46 123 -128 -26 62 -83 -35 38 36
0000c0 d0 fe 4c b8 e9 fb b0 c6 5a df e4 24 f2 26 15 17
       -48 -2 76 -72 -23 -5 -80 -58 90 -33 -28 36 -14 38 21 23
0000d0 ca c5 2b ea e0 c7 22 1a f5 00 15 4a 08 56 f4 e7
       -54 -59 43 -22 -32 -57 34 26 -11 0 21 74 8 86 -12 -25
0000e0 f3 62 0a 0c f8 bc 09 eb c0 53 01 fe f4 40 0c 12
       -13 98 10 12 -8 -68 9 -21 -64 83 1 -2 -12 64 12 18
0000f0 10 cd ce 0a 02 f3 07 1d f7 05 39 09 ae d2 0d 84
       16 -51 -50 10 2 -13 7 29 -9 5 57 9 -82 -46 13 -124

model/conv2d_7/BiasAdd_weights_fused_bn i1 [64, 64, 3, 3]
000000 c8 18 1b d2 ef c9 ed 08 ee f0 f9 fd fa ca d2 01
       -56 24 27 -46 -17 -55 -19 8 -18 -16 -7 -3 -6 -54 -46 1
000010 d0 e2 ee 13 17 2e 02 11 f4 03 f2 f6 ce fb c2 b8
       -48 -30 -18 19 23 46 2 17 -12 3 -14 -10 -50 -5 -62 -72
000020 de 3a 03 ef c1 fe d1 ca e7 f8 fe d0 b9 4c 17 e0
       -34 58 3 -17 -63 -2 -47 -54 -25 -8 -2 -48 -71 76 23 -32
000030 38 2e 2d f3 de 22 34 22 41 54 38 03 57 16 bb 13
       56 46 45 -13 -34 34 52 34 65 84 56 3 87 22 -69 19
000040 00 06 2c fc f2 17 d8 e2 fe fb 07 c7 ca 02 eb eb
       0 6 44 -4 -14 23 -40 -30 -2 -5 7 -57 -54 2 -21 -21
000050 ff 28 03 ec 2a f0 08 ef ca 32 ad e0 13 f4 f7 06
       -1 40 3 -20 42 -16 8 -17 -54 50 -83 -32 19 -12 -9 6
000060 f3 0a 0e 18 10 e7 20 16 16 e1 de 02 10 54 76 f7
       -13 10 14 24 16 -25 32 22 22 -31 -34 2 16 84 118 -9
000070 07 73 c3 f7 10 e9 dd e3 e5 e5 ec 0d 30 7c 38 d8
       7 115 -61 -9 16 -23 -35 -29 -27 -27 -20 13 48 124 56 -40
000080 d2 25 0e fa e6 11 2c dd b9 cd e9 06 d5 07 39 5f
       -46 37 14 -6 -26 17 44 -35 -71 -51 -23 6 -43 7 57 95
000090 fa e5 df 03 eb f2 ff fd fb 14 0c f1 0d 20 c6 31
       -6 -27 -33 3 -21 -14 -1 -3 -5 20 12 -15 13 32 -58 49
0000a0 1a 03 f2 f3 e5 da ee da ee f8 f3 1e 0e bc 17 fb
       26 3 -14 -13 -27 -38 -18 -38 -18 -8 -13 30 14 -68 23 -5
0000b0 f6 f9 cb 13 00 2e 2e 0f 21 bc 3b fd ce d4 f7 37
       -10 -7 -53 19 0 46 46 15 33 -68 59 -3 -50 -44 -9 55
0000c0 08 f3 18 51 15 d0 4c 7f 31 f0 13 2b a6 e2 23 0d
       8 -13 24 81 21 -48 76 127 49 -16 19 43 -90 -30 35 13
0000d0 0d 0a 32 04 e9 24 08 0b d2 19 38 ab 0a 07 11 f0
       13 10 50 4 -23 36 8 11 -46 25 56 -85 10 7 17 -16
0000e0 e5 e0 df fd fc eb d4 21 07 0a e9 fc f3 a0 fd 07
       -27 -32 -33 -3 -4 -21 -44 33 7 10 -23 -4 -13 -96 -3 7
0000f0 e6 07 ee ff fc dd 01 fd 33 75 33 23 be e4 e4 f5
       -26 7 -18 -1 -4 -35 1 -3 51 117 51 35 -66 -28 -28 -11

model/conv2d_6/BiasAdd_weights_fused_bn i1 [64, 32, 3, 3]
000000 02 16 fd 21 15 fb 16 22 0d b2 8f 9f 8c 92 de a3
       2 22 -3 33 21 -5 22 34 13 -78 -113 -97 -116 -110 -34 -93
000010 88 d0 28 da cd 2e e4 df 32 f1 f9 1d 29 1d fa 13
       -120 -48 40 -38 -51 46 -28 -33 50 -15 -7 29 41 29 -6 19
000020 24 c3 d7 f7 e8 d5 ea f8 ea fb 16 06 f0 06 02 0d
       36 -61 -41 -9 -24 -43 -22 -8 -22 -5 22 6 -16 6 2 13
000030 fb 02 0b f5 f4 ff de b1 b7 0e ee eb 36 24 e1 02
       -5 2 11 -11 -12 -1 -34 -79 -73 14 -18 -21 54 36 -31 2
000040 19 27 27 3e 7f fa 18 32 1d 1a 04 43 43 26 23 35
       25 39 39 62 127 -6 24 50 29 26 4 67 67 38 35 53
000050 23 f2 f8 e6 f4 0f 02 31 2d 09 e0 d1 e6 c5 bc e8
       35 -14 -8 -26 -12 15 2 49 45 9 -32 -47 -26 -59 -68 -24
000060 e6 f5 2d 1a ee ea fd e5 e2 f7 f5 ff cf f8 1e d4
       -26 -11 45 26 -18 -22 -3 -27 -30 -9 -11 -1 -49 -8 30 -44
000070 0a 25 f4 18 ff e4 f2 29 eb f8 14 fa fc f5 00 17
       10 37 -12 24 -1 -28 -14 41 -21 -8 20 -6 -4 -11 0 23
000080 25 0e f2 f7 13 fe ec f7 e6 f4 fd da d7 17 ef e0
       37 14 -14 -9 19 -2 -20 -9 -26 -12 -3 -38 -41 23 -17 -32
000090 db df 26 d8 ea 29 09 0b 26 12 fa dd 32 1f f9 2b
       -37 -33 38 -40 -22 41 9 11 38 18 -6 -35 50 31 -7 43
0000a0 14 2c f4 ea ed e8 f5 02 ce dd e3 e3 eb 10 0d 2c
       20 44 -12 -22 -19 -24 -11 2 -50 -35 -29 -29 -21 16 13 44
0000b0 3e 28 4b 3b b2 c2 de b9 bc c5 b7 ab bd 10 e7 f4
       62 40 75 59 -78 -62 -34 -71 -68 -59 -73 -85 -67 16 -25 -12
0000c0 ed f7 ea 05 04 f4 d6 a7 c4 db a5 b2 ba b4 d6 49
       -19 -9 -22 5 4 -12 -42 -89 -60 -37 -91 -78 -70 -76 -42 73
0000d0 2a 08 3c 1e 0e fd da f2 19 05 07 fa e2 f5 e1 db
       42 8 60 30 14 -3 -38 -14 25 5 7 -6 -30 -11 -31 -37
0000e0 fc be ee f4 c2 f5 ec d2 e8 e4 32 1f fe 26 06 d4
       -4 -66 -18 -12 -62 -11 -20 -46 -24 -28 50 31 -2 38 6 -44
0000f0 cb d9 be 07 35 31 12 2b 2b f5 e8 ea df ed f7 fc
       -53 -39 -66 7 53 49 18 43 43 -11 -24 -22 -33 -19 -9 -4

model/conv2d_1/BiasAdd_weights_fused_bn i1 [16, 16, 3, 3]
000000 09 04 e0 f1 ee f1 08 16 32 09 e8 1b f3 a7 3b 1a
       9 4 -32 -15 -18 -15 8 22 50 9 -24 27 -13 -89 59 26
000010 03 38 04 80 f9 32 ed 06 ed 2d 0e fd 1f e5 31 29
       3 56 4 -128 -7 50 -19 6 -19 45 14 -3 31 -27 49 41
000020 a7 f2 fc c7 ef b9 16 11 dd 1c 04 f8 0e 0f 04 04
       -89 -14 -4 -57 -17 -71 22 17 -35 28 4 -8 14 15 4 4
000030 f6 0b 10 c8 ec fc 08 11 2a 17 aa f1 f9 e2 f7 3e
       -10 11 16 -56 -20 -4 8 17 42 23 -86 -15 -7 -30 -9 62
000040 ad 28 ee 0a de da df fc f5 f2 17 cc f6 e4 11 e9
       -83 40 -18 10 -34 -38 -33 -4 -11 -14 23 -52 -10 -28 17 -23
000050 f9 fe ee f4 12 24 1f f4 06 d3 01 da 02 00 b5 e2
       -7 -2 -18 -12 18 36 31 -12 6 -45 1 -38 2 0 -75 -30
000060 fa f8 1f 07 b0 ef 0e d5 e8 0d fe 07 01 0a e4 f8
       -6 -8 31 7 -80 -17 14 -43 -24 13 -2 7 1 10 -28 -8
000070 db fd 0b d7 02 1c e0 01 3b f7 e2 fb f2 d4 d4 eb
       -37 -3 11 -41 2 28 -32 1 59 -9 -30 -5 -14 -44 -44 -21
000080 16 c8 ed 10 ec 09 1b ff 0a e8 e6 35 09 02 96 ee
       22 -56 -19 16 -20 9 27 -1 10 -24 -26 53 9 2 -106 -18
000090 05 0c 14 14 f9 f0 0b 06 dd ea c4 01 d9 b5 c9 15
       5 12 20 20 -7 -16 11 6 -35 -22 -60 1 -39 -75 -55 21
0000a0 13 e2 f1 63 47 ed 7f 66 db de e1 08 17 2b d7 f2
       19 -30 -15 99 71 -19 127 102 -37 -34 -31 8 23 43 -41 -14
0000b0 0b 17 fd e4 12 47 33 dd 22 1a c7 13 00 23 1f 2e
       11 23 -3 -28 18 71 51 -35 34 26 -57 19 0 35 31 46
0000c0 d4 bb 01 06 e9 03 13 f8 0f f1 d3 00 02 cd 15 16
       -44 -69 1 6 -23 3 19 -8 15 -15 -45 0 2 -51 21 22
0000d0 98 c1 1a ab 8e 24 28 de d2 f6 17 ea d5 dd 1a fc
       -104 -63 26 -85 -114 36 40 -34 -46 -10 23 -22 -43 -35 26 -4
0000e0 db 11 64 48 f3 4f 43 d3 40 f7 04 0e f4 24 37 1a
       -37 17 100 72 -13 79 67 -45 64 -9 4 14 -12 36 55 26
0000f0 17 25 18 f3 41 5f e1 ea f4 e8 fa e2 1e 0a 00 f0
       23 37 24 -13 65 95 -31 -22 -12 -24 -6 -30 30 10 0 -16

model/conv2d_3/BiasAdd_weights_fused_bn i1 [32, 16, 3, 3]
000000 e9 d7 e9 0f eb d1 40 04 db 09 06 16 d9 f4 0c 0c
       -23 -41 -23 15 -21 -47 64 4 -37 9 6 22 -39 -12 12 12
000010 3e 5d e7 f7 1a b1 9d ea 21 d4 d8 cd c8 2c de bb
       62 93 -25 -9 26 -79 -99 -22 33 -44 -40 -51 -56 44 -34 -69
000020 de 25 fe e1 e8 e0 d7 1c 36 1a 42 38 12 c0 c4 2e
       -34 37 -2 -31 -24 -32 -41 28 54 26 66 56 18 -64 -60 46
000030 bb 8d e5 e8 8c c5 13 14 f5 08 27 01 b3 14 1a b3
       -69 -115 -27 -24 -116 -59 19 20 -11 8 39 1 -77 20 26 -77
000040 95 e1 c2 80 a1 18 ca bd a8 c1 ef f0 c9 d0 26 f0
       -107 -31 -62 -128 -95 24 -54 -67 -88 -63 -17 -16 -55 -48 38 -16
000050 be 23 3e df c4 04 e1 c1 e8 22 10 06 01 b9 b1 e8
       -66 35 62 -33 -60 4 -31 -63 -24 34 16 6 1 -71 -79 -24
000060 9a d3 23 2a 15 fb 05 17 06 29 3d 41 03 0a 0b 11
       -102 -45 35 42 21 -5 5 23 6 41 61 65 3 10 11 17
000070 10 0e 12 03 06 48 75 3a 4b 64 f4 58 61 02 20 3a
       16 14 18 3 6 72 117 58 75 100 -12 88 97 2 32 58
000080 10 21 1e 03 2f 35 54 31 30 0f f0 27 3e 13 62 5f
       16 33 30 3 47 53 84 49 48 15 -16 39 62 19 98 95
000090 06 01 01 ef 04 09 f4 00 0b 10 f9 f6 37 e3 fd 17
       6 1 1 -17 4 9 -12 0 11 16 -7 -10 55 -29 -3 23
0000a0 fe fd b8 45 07 80 62 00 d5 14 05 00 05 00 f2 15
       -2 -3 -72 69 7 -128 98 0 -43 20 5 0 5 0 -14 21
0000b0 f9 f9 09 f3 42 a0 09 5e 87 17 39 d6 0a 08 03 fb
       -7 -7 9 -13 66 -96 9 94 -121 23 57 -42 10 8 3 -5
0000c0 08 f4 f9 fc fd 03 d6 09 0d d9 37 f7 f5 15 f5 04
       8 -12 -7 -4 -3 3 -42 9 13 -39 55 -9 -11 21 -11 4
0000d0 fa 03 0e eb 0c 11 e3 08 f2 10 fe f1 fe 03 f6 fc
       -6 3 14 -21 12 17 -29 8 -14 16 -2 -15 -2 3 -10 -4
0000e0 0d 0f f0 14 15 e1 11 ee f1 f8 ef 1e f1 d2 26 f2
       13 15 -16 20 21 -31 17 -18 -15 -8 -17 30 -15 -46 38 -14
0000f0 f0 11 0a e1 0a 09 f3 03 0d 0c f5 fe 05 01 02 01
       -16 17 10 -31 10 9 -13 3 13 12 -11 -2 5 1 2 1

model/conv2d_8/Conv2D/ReadVariableOp:0 i1 [64, 32, 1, 1]
000000 04 07 f2 2b fb 49 b1 fb bf 1a 1f 0d b3 c7 4d e0
       4 7 -14 43 -5 73 -79 -5 -65 26 31 13 -77 -57 77 -32
000010 11 43 c0 24 dd 33 15 32 f6 80 d5 17 a5 2e 20 c7
       17 67 -64 36 -35 51 21 50 -10 -128 -43 23 -91 46 32 -57
000020 e2 0c 39 08 94 f4 ae 8b 88 e1 13 ee ab e9 45 44
       -30 12 57 8 -108 -12 -82 -117 -120 -31 19 -18 -85 -23 69 68
000030 a9 11 7b 0b 59 27 b0 ba c0 74 4d 51 80 1c 1f 56
       -87 17 123 11 89 39 -80 -70 -64 116 77 81 -128 28 31 86
000040 58 4d d0 85 9b c7 55 25 ae e6 04 ef ed 56 09 20
       88 77 -48 -123 -101 -57 85 37 -82 -26 4 -17 -19 86 9 32
000050 00 c8 81 98 13 ce 56 09 e9 37 35 00 9c bd c6 c5
       0 -56 -127 -104 19 -50 86 9 -23 55 53 0 -100 -67 -58 -59
000060 29 f0 f5 f7 7f fc 00 49 44 92 08 f9 72 f9 ec db
       41 -16 -11 -9 127 -4 0 73 68 -110 8 -7 114 -7 -20 -37
000070 fd f2 ff 37 b4 d8 e5 e4 dd cd ef 26 59 fd de d7
       -3 -14 -1 55 -76 -40 -27 -28 -35 -51 -17 38 89 -3 -34 -41
000080 48 03 0c 32 7b 17 80 a0 2c 22 58 df 22 f7 02 a8
       72 3 12 50 123 23 -128 -96 44 34 88 -33 34 -9 2 -88
000090 8f ec 13 09 d3 f3 28 d1 2a ae 2e 2c f4 db ce e7
       -113 -20 19 9 -45 -13 40 -47 42 -82 46 44 -12 -37 -50 -25
0000a0 9d f6 93 1e f4 e4 80 c8 fd fc 3c 10 e7 ef fd 9f
       -99 -10 -109 30 -12 -28 -128 -56 -3 -4 60 16 -25 -17 -3 -97
0000b0 10 10 eb 36 eb 05 f3 da 04 ad f5 d7 b5 09 d7 d4
       16 16 -21 54 -21 5 -13 -38 4 -83 -11 -41 -75 9 -41 -44
0000c0 9a f0 09 11 e4 ff 80 cb ff c8 1c db d2 c5 cd bc
       -102 -16 9 17 -28 -1 -128 -53 -1 -56 28 -37 -46 -59 -51 -68
0000d0 dd 05 28 32 16 e5 fc d9 42 c3 06 f2 bf f2 ff f9
       -35 5 40 50 22 -27 -4 -39 66 -61 6 -14 -65 -14 -1 -7
0000e0 c0 27 94 e0 f3 d5 aa 0a 37 29 0f 09 7f ec 1d 21
       -64 39 -108 -32 -13 -43 -86 10 55 41 15 9 127 -20 29 33
0000f0 dd 0c 01 b9 d0 14 dc 11 1e c9 f3 f5 c6 f8 fb c0
       -35 12 1 -71 -48 20 -36 17 30 -55 -13 -11 -58 -8 -5 -64

PPQ_Variable_53 f4 [16]
000000 3b 53 b3 37 8a e7 5e 36 55 24 fd 36 d7 d8 96 37
       2.137722e-05 3.3215351e-06 7.544217e-06 1.7982367e-05
000010 fa 46 26 37 2c 0b 54 37 e2 69 4c 37 a3 d0 8b 37
       9.910897e-06 1.2638786e-05 1.2184e-05 1.6667245e-05
000020 48 6c 25 37 cc be f4 36 8c 2d 81 36 32 59 f8 36
       9.859978e-06 7.2939783e-06 3.849802e-06 7.4013597e-06
000030 72 2c c9 37 ff 2d d6 35 47 68 81 36 35 3e ea 37
       2.3981764e-05 1.5957629e-06 3.856639e-06 2.7923941e-05

PPQ_Variable_54 i1 [16]
000000 00 00 00 00 00 00 00 00 00 00 00 00 00 00 00 00
       0 0 0 0 0 0 0 0 0 0 0 0 0 0 0 0

PPQ_Variable_56 f4 [16]
000000 3b 53 b3 37 8a e7 5e 36 55 24 fd 36 d7 d8 96 37
       2.137722e-05 3.3215351e-06 7.544217e-06 1.7982367e-05
000010 fa 46 26 37 2c 0b 54 37 e2 69 4c 37 a3 d0 8b 37
       9.910897e-06 1.2638786e-05 1.2184e-05 1.6667245e-05
000020 48 6c 25 37 cc be f4 36 8c 2d 81 36 32 59 f8 36
       9.859978e-06 7.2939783e-06 3.849802e-06 7.4013597e-06
000030 72 2c c9 37 ff 2d d6 35 47 68 81 36 35 3e ea 37
       2.3981764e-05 1.5957629e-06 3.856639e-06 2.7923941e-05

PPQ_Variable_65 f4 [16]
000000 2e 46 99 3b 6b c9 15 3b 1a 22 97 3b 3d 06 7d 3b
       0.0046775555 0.002285565 0.0046122195 0.0038608455
000010 c3 36 65 3b 56 76 68 3b 42 80 52 3b e0 77 65 3b
       0.0034975267 0.0035470924 0.0032119905 0.0035014078
000020 8a 90 38 3b cf a1 93 3b 46 1c 3d 3b bd 23 74 3b
       0.0028162324 0.004505373 0.0028855964 0.0037252747
000030 4a b5 8d 3b f8 7b 45 3b 29 0a 54 3b 99 b9 99 3b
       0.00432459 0.0030133706 0.0032354689 0.0046913144

PPQ_Variable_66 i1 [16]
000000 00 00 00 00 00 00 00 00 00 00 00 00 00 00 00 00
       0 0 0 0 0 0 0 0 0 0 0 0 0 0 0 0

PPQ_Variable_68 f4 [16]
000000 5b 13 cf 37 38 5d 4a 37 e5 2e cc 37 79 eb aa 37
       2.4685336e-05 1.2061842e-05 2.4340532e-05 2.037523e-05
000010 ef d5 9a 37 ab 07 9d 37 e9 31 8e 37 eb 01 9b 37
       1.8457851e-05 1.871943e-05 1.695096e-05 1.8478333e-05
000020 77 59 79 37 fd 73 c7 37 b0 7d 7f 37 08 eb a4 37
       1.4862387e-05 2.377666e-05 1.5228448e-05 1.9659768e-05
000030 26 73 bf 37 ed 66 85 37 ff 3b 8f 37 49 af cf 37
       2.2822594e-05 1.5902764e-05 1.7074866e-05 2.4757946e-05

PPQ_Variable_77 f4 [16]
000000 cc 8c 64 3b 69 af 06 3b 9f 05 64 3b 2d 46 99 3b
       0.003487396 0.002055133 0.003479339 0.004677555
000010 5a 8e 1d 3b ce 63 97 3b cf a1 93 3b d0 d3 4a 3b
       0.0024041147 0.004620052 0.004505373 0.0030949004
000020 cc 16 07 3b d3 a3 7a 3b ed 34 30 3b 99 b9 99 3b
       0.0020612953 0.003824462 0.0026887015 0.0046913144
000030 2e d6 8b 3b 3f 8e 81 3b 3c 06 7d 3b e1 ed 45 3b
       0.0042674756 0.0039537246 0.0038608452 0.0030201601

PPQ_Variable_78 i1 [16]
000000 00 00 00 00 00 00 00 00 00 00 00 00 00 00 00 00
       0 0 0 0 0 0 0 0 0 0 0 0 0 0 0 0

PPQ_Variable_80 f4 [16]
000000 8f d0 79 37 70 37 13 37 ce 3c 79 37 f7 88 a7 37
       1.4890115e-05 8.77479e-06 1.4855714e-05 1.997173e-05
000010 22 37 2c 37 b7 79 a5 37 36 5e a1 37 e5 b2 5d 37
       1.02648355e-05 1.972621e-05 1.9236566e-05 1.3214279e-05
000020 71 a8 13 37 df fa 88 37 f1 99 40 37 20 07 a8 37
       8.801101e-06 1.6329284e-05 1.1479934e-05 2.0030478e-05
000030 e8 d8 98 37 18 9c 8d 37 79 48 8a 37 4b 58 58 37
       1.8220817e-05 1.6881197e-05 1.648463e-05 1.2895161e-05

PPQ_Variable_95 f4 [32]
000000 a9 27 62 3b 49 08 ba 3a b3 6f 2d 3b 58 36 91 3b
       0.0034508503 0.0014193143 0.0026464283 0.004431527
000010 82 89 ac 3b 39 ce eb 3a 29 bb b3 3b 18 f5 61 3b
       0.0052654156 0.0017990536 0.0054849577 0.0034478363
000020 37 29 0a 3b d4 c4 22 3b 14 4d 5b 3b af 0c a1 3b
       0.0021081695 0.0024836557 0.003346269 0.004914842
000030 54 2d 9c 3b 09 29 3d 3b 78 ac 32 3b 64 bb b5 3b
       0.0047661457 0.002886357 0.0027263444 0.0055460203
000040 3a b2 18 3b f8 da 66 3b 1d 70 c7 3b bd ab 3e 3b
       0.002329959 0.003522573 0.006086363 0.0029094063
000050 5f 22 4b 3b e2 93 e4 3a 0b 00 68 3b a8 fa 05 3b
       0.0030995829 0.0017439092 0.0035400416 0.0020443592
000060 8c e1 b1 3b ca 0f ac 3b 1f 02 e4 3a 16 c7 76 3b
       0.0054284986 0.0052509056 0.0017395652 0.0037655286
000070 15 c2 c5 3b aa 43 08 3b b8 73 1b 3b 9f 6b 7b 3b
       0.0060350993 0.0020792284 0.0023720097 0.0038363708

PPQ_Variable_96 i1 [32]
000000 00 00 00 00 00 00 00 00 00 00 00 00 00 00 00 00
       0 0 0 0 0 0 0 0 0 0 0 0 0 0 0 0
000010 00 00 00 00 00 00 00 00 00 00 00 00 00 00 00 00
       0 0 0 0 0 0 0 0 0 0 0 0 0 0 0 0

PPQ_Variable_98 f4 [32]
000000 bb dc b6 37 99 6b 16 37 4b 3c 8c 37 2a d4 ea 37
       2.1798876e-05 8.965749e-06 1.6717377e-05 2.799377e-05
000010 2b 82 0b 38 5b aa 3e 37 46 53 11 38 d8 b3 b6 37
       3.326141e-05 1.13645465e-05 3.464825e-05 2.1779837e-05
000020 04 6d 5f 37 31 9c 83 37 07 52 b1 37 4d 38 02 38
       1.3317218e-05 1.568915e-05 2.1138241e-05 3.104685e-05
000030 74 8f fc 37 10 f3 98 37 66 78 90 37 72 f1 12 38
       3.0107542e-05 1.8232997e-05 1.7222203e-05 3.5033976e-05
000040 6b ee 76 37 b1 a9 ba 37 79 42 21 38 bd 2b 9a 37
       1.4718254e-05 2.2251947e-05 3.84473e-05 1.8378598e-05
000050 97 3f a4 37 39 d2 38 37 a9 96 bb 37 c6 a9 58 37
       1.9579935e-05 1.1016201e-05 2.2362294e-05 1.2914132e-05
000060 53 d4 0f 38 c0 1f 0b 38 5d 5c 38 37 85 89 c7 37
       3.42916e-05 3.3169752e-05 1.098876e-05 2.3786686e-05
000070 c3 e6 1f 38 d0 5b 5c 37 4c 63 7b 37 89 4a cb 37
       3.8123468e-05 1.3134399e-05 1.4983885e-05 2.4234194e-05

PPQ_Variable_107 f4 [32]
000000 d5 a2 13 3b 0d 65 90 3b 4d b3 11 3b c3 8c 07 3b
       0.0022527475 0.0044065774 0.0022232116 0.0020683266
000010 95 0b 19 3b 36 dc 6e 3b 05 fe 5e 3b fe 04 26 3b
       0.002335285 0.0036447174 0.003402592 0.0025332565
000020 a9 76 94 3b f9 6d 27 3b c6 19 22 3b 75 6b 99 3b
       0.004530747 0.0025547727 0.00247346 0.0046819993
000030 fd e4 3a 3b 45 19 0e 3b 32 8f 4c 3b fe e9 41 3b
       0.0028517835 0.0021682542 0.003121328 0.0029588933
000040 9f 89 32 3b 71 6a e3 3a 60 3e 37 3b f8 23 e4 3a
       0.0027242673 0.0017350448 0.0027960762 0.0017405739
000050 91 e3 23 3b 74 24 1c 3b f1 1b 2b 3b 63 40 58 3b
       0.0025007466 0.0023825439 0.0026109184 0.0032997362
000060 3d 2b 93 3b fe c2 3a 3b 5e 29 56 3b fa 8c a8 3b
       0.0044912384 0.0028497572 0.0032678465 0.005143759
000070 61 f6 56 3b 41 2b 23 3b 5d 17 21 3b 81 84 3b 3b
       0.0032800662 0.0024897608 0.0024580576 0.0028612914

PPQ_Variable_108 i1 [32]
000000 00 00 00 00 00 00 00 00 00 00 00 00 00 00 00 00
       0 0 0 0 0 0 0 0 0 0 0 0 0 0 0 0
000010 00 00 00 00 00 00 00 00 00 00 00 00 00 00 00 00
       0 0 0 0 0 0 0 0 0 0 0 0 0 0 0 0

PPQ_Variable_110 f4 [32]
000000 95 bf 6e 37 b5 81 e9 37 3d 9e 6b 37 08 34 5b 37
       1.4230512e-05 2.7836164e-05 1.4043934e-05 1.3065532e-05
000010 eb 7e 77 37 a6 22 c1 37 14 4e b4 37 0e 3d 86 37
       1.4751898e-05 2.3023527e-05 2.149403e-05 1.6002476e-05
000020 23 16 f0 37 ef 60 87 37 e1 11 83 37 f6 19 f8 37
       2.8620538e-05 1.6138392e-05 1.5624742e-05 2.9575993e-05
000030 0d 1e 97 37 2f cb 65 37 93 66 a5 37 0e cb 9c 37
       1.8014596e-05 1.3696771e-05 1.9717298e-05 1.8691204e-05
000040 39 5c 90 37 b9 e1 37 37 5a 2a 94 37 bc 77 38 37
       1.7209082e-05 1.0960205e-05 1.7662696e-05 1.09951325e-05
000050 0a 84 84 37 1a 81 7c 37 95 5a 8a 37 c8 da ae 37
       1.5797112e-05 1.5050429e-05 1.6493063e-05 2.0844294e-05
000060 2f fe ed 37 90 02 97 37 2e 2a ad 37 ff 48 08 38
       2.8370965e-05 1.8001796e-05 2.0642849e-05 3.249291e-05
000070 f3 cf ad 37 02 ef 83 37 f0 40 82 37 08 9f 97 37
       2.0720041e-05 1.5727714e-05 1.5527447e-05 1.8074657e-05

PPQ_Variable_119 f4 [32]
000000 0d c5 8c 3b 76 db 85 3b cb b8 57 3b df e1 8f 3b
       0.004295951 0.0040849997 0.0032916542 0.0043909396
000010 89 ff a1 3b cb 5a 4f 3b a4 84 bf 3b 93 03 9b 3b
       0.0049437922 0.003163981 0.0058446694 0.0047306507
000020 f9 39 95 3b f8 23 74 3b e5 ea b8 3b 46 ab c0 3b
       0.00455403 0.0037252884 0.005643236 0.0058797924
000030 b4 78 e7 3b c5 8b 8d 3b 05 3d 9d 3b 6d d4 e2 3b
       0.0070639495 0.0043196403 0.004798534 0.006922296
000040 2a 47 49 3b 71 b0 66 3b c7 13 99 3b d0 a9 60 3b
       0.0030712583 0.0035200382 0.004671547 0.0034280904
000050 26 75 83 3b 63 5c 61 3b a1 6b 77 3b 94 5d 7d 3b
       0.004011768 0.0034387342 0.003775336 0.0038660513
000060 d2 76 b4 3b d0 cf b4 3b db ed 7a 3b 75 07 aa 3b
       0.0055073285 0.0055179372 0.0038288746 0.005188877
000070 99 21 c3 3b 13 bf 89 3b ad 66 82 3b 6c 56 a1 3b
       0.005954933 0.004203686 0.003979525 0.0049236324

PPQ_Variable_120 i1 [32]
000000 00 00 00 00 00 00 00 00 00 00 00 00 00 00 00 00
       0 0 0 0 0 0 0 0 0 0 0 0 0 0 0 0
000010 00 00 00 00 00 00 00 00 00 00 00 00 00 00 00 00
       0 0 0 0 0 0 0 0 0 0 0 0 0 0 0 0

PPQ_Variable_122 f4 [32]
000000 98 70 de 37 58 84 d3 37 3a 70 aa 37 b4 5b e3 37
       2.6516893e-05 2.5214787e-05 2.0317839e-05 2.7103211e-05
000010 fe fb ff 37 de d3 a3 37 bf 50 17 38 b7 f2 f4 37
       3.0515712e-05 1.9529773e-05 3.6076406e-05 2.920009e-05
000020 89 cd eb 37 3a e4 c0 37 b4 19 12 38 88 39 18 38
       2.8109893e-05 2.299446e-05 3.483305e-05 3.6293204e-05
000030 c6 e1 36 38 9b aa df 37 89 76 f8 37 ef 36 33 38
       4.360245e-05 2.6663116e-05 2.9619101e-05 4.2728087e-05
000040 ca 06 9f 37 8d 43 b6 37 46 e3 f1 37 be 80 b1 37
       1.8957438e-05 2.1727546e-05 2.8835271e-05 2.1159995e-05
000050 a1 b9 cf 37 d5 0d b2 37 a1 7b c3 37 18 2e c8 37
       2.4762763e-05 2.1225695e-05 2.330338e-05 2.3863322e-05
000060 f3 94 0e 38 43 db 0e 38 4d 41 c6 37 59 56 06 38
       3.3994158e-05 3.405964e-05 2.3633847e-05 3.2028507e-05
000070 8a 2b 1a 38 95 a9 d9 37 3c 0e ce 37 c4 f0 fe 37
       3.675701e-05 2.5947384e-05 2.4563742e-05 3.0391275e-05

PPQ_Variable_137 f4 [64]
000000 56 42 00 3c 95 e7 e9 3b 86 60 e8 3b 04 aa 2e 3c
       0.007828316 0.0071382024 0.0070915846 0.010660652
000010 e6 b0 09 3c 48 dc 20 3c 66 f9 5c 3c b8 be 12 3c
       0.008403992 0.009818144 0.013487196 0.008956604
000020 f8 01 1e 3c 28 c3 1b 3c 1c 84 04 3c e2 b7 26 3c
       0.009644024 0.009506978 0.008088138 0.010175677
000030 46 3a 06 3c 82 a6 cf 3b 90 d0 24 3c 46 f9 34 3c
       0.008192604 0.006336988 0.010059491 0.01104576
000040 f0 ad 1e 3c 5f 71 39 3c ad bb 2a 3c 73 91 12 3c
       0.009685025 0.011318534 0.010420722 0.008945811
000050 da 1b 09 3c 8f 1d 0d 3c 48 4e dd 3b 13 09 d1 3b
       0.008368457 0.008613004 0.0067537166 0.0063792556
000060 c3 63 fd 3b 96 dc 03 3c 17 1b 58 3c 36 d0 0c 3c
       0.00773284 0.008048197 0.0131900525 0.008594563
000070 af 6a 07 3c 4b 14 a8 3b b9 2c 1f 3c 4b 65 1b 3c
       0.008265181 0.0051293722 0.009715253 0.009484599
000080 56 b2 2e 3c dc e5 fc 3b 22 7c 08 3c d7 5c 44 3c
       0.010662636 0.007717831 0.008330377 0.011985025
000090 5f a4 0b 3c dd c9 00 3c e6 05 0d 3c 45 f9 4d 3c
       0.008523076 0.007860628 0.008607363 0.0125716375
0000a0 12 58 37 3c f5 0f 16 3c af 97 0c 3c 93 ea af 3b
       0.011190431 0.009159078 0.008581086 0.0053685396
0000b0 b9 a5 1c 3c 54 34 1f 3c e0 65 df 3b fe 6f f8 3b
       0.009560996 0.009717066 0.0068175644 0.00758171
0000c0 60 0f 1c 3c 79 cd f5 3b 1e 53 00 3c 0f 10 15 3c
       0.00952515 0.007501301 0.007832317 0.009098067
0000d0 b9 ab d8 3b 2b 75 17 3c 67 0a 21 3c b0 8f fb 3b
       0.006612268 0.009244244 0.00982914 0.007677041
0000e0 c9 86 3a 3c bb 19 be 3b 78 87 02 3c 3a 2d 2c 3c
       0.011384674 0.005801407 0.007966869 0.01050883
0000f0 5d e8 21 3c c7 5d f9 3b 16 36 f2 3b 1b 2d ee 3b
       0.00988206 0.007610056 0.0073917015 0.0072685606

PPQ_Variable_138 i1 [64]
000000 00 00 00 00 00 00 00 00 00 00 00 00 00 00 00 00
       0 0 0 0 0 0 0 0 0 0 0 0 0 0 0 0
000010 00 00 00 00 00 00 00 00 00 00 00 00 00 00 00 00
       0 0 0 0 0 0 0 0 0 0 0 0 0 0 0 0
000020 00 00 00 00 00 00 00 00 00 00 00 00 00 00 00 00
       0 0 0 0 0 0 0 0 0 0 0 0 0 0 0 0
000030 00 00 00 00 00 00 00 00 00 00 00 00 00 00 00 00
       0 0 0 0 0 0 0 0 0 0 0 0 0 0 0 0

PPQ_Variable_140 f4 [64]
000000 d3 89 fe 38 6a 19 e8 38 60 95 e6 38 e7 50 2d 39
       0.000121373356 0.00011067356 0.00010995078 0.00016528704
000010 d7 a0 08 39 71 9e 1f 39 c8 44 5b 39 c5 9c 11 39
       0.00013029888 0.00015222446 0.0002091109 0.00013886679
000020 c4 c9 1c 39 64 8f 1a 39 46 7e 03 39 78 6e 25 39
       0.00014952483 0.00014740002 0.00012540174 0.00015776779
000030 0e 31 05 39 37 0c ce 38 e9 8a 23 39 b1 93 33 39
       0.00012702143 9.825121e-05 0.0001559664 0.0001712579
000040 68 74 1d 39 f6 02 38 39 54 6a 29 39 d9 6f 11 39
       0.00015016051 0.0001754871 0.00016156706 0.00013869944
000050 f1 0c 08 39 bb 06 0c 39 02 99 db 38 0c 6c cf 38
       0.00012974792 0.00013353948 0.00010471234 9.8906545e-05
000060 18 6f fb 38 0b d8 02 39 17 70 56 39 fb b9 0b 39
       0.000119893055 0.00012478248 0.00020450387 0.00013325356
000070 1e 5f 06 39 30 c8 a6 38 37 f2 1d 39 40 32 1a 39
       0.0001281467 7.952785e-05 0.00015062919 0.00014705304
000080 28 59 2d 39 2a f2 fa 38 75 6e 07 39 da d8 42 39
       0.00016531779 0.000119660355 0.00012915752 0.00018582065
000090 75 90 0a 39 c9 96 ff 38 41 ef 0b 39 4b 62 4c 39
       0.0001321452 0.000121874335 0.00013345202 0.00019491573
0000a0 ce ed 35 39 74 e7 14 39 e4 81 0b 39 fc 8e ae 38
       0.00017350094 0.00014200603 0.00013304461 8.3235995e-05
0000b0 35 70 1b 39 c3 f9 1d 39 78 ac dd 38 1c 85 f6 38
       0.00014823752 0.0001506573 0.00010570226 0.00011754988
0000c0 05 db 1a 39 cc e7 f3 38 21 ab fe 38 87 e9 13 39
       0.00014768176 0.000116303185 0.00012143539 0.00014106008
0000d0 9c ff d6 38 e8 49 16 39 35 cc 1f 39 a2 9e f9 38
       0.00010251926 0.00014332647 0.00015239495 0.00011902793
0000e0 3b 16 39 39 1e a2 bc 38 8f 85 01 39 07 d9 2a 39
       0.00017651256 8.994735e-05 0.00012352153 0.00016293312
0000f0 74 a8 20 39 0f 71 f7 38 82 57 f0 38 80 56 ec 38
       0.00015321543 0.000117989366 0.000114603914 0.00011269469

PPQ_Variable_149 f4 [64]
000000 e4 df 15 3b e5 78 2c 3b 47 2c 5f 3b 82 a3 91 3b
       0.0022869045 0.0026317176 0.003405349 0.0044445405
000010 07 18 5b 3b 69 0a 18 3b e1 32 58 3b 56 9f 1c 3b
       0.003343107 0.0023199564 0.003298931 0.0023898683
000020 68 7e 4c 3b 9f a1 1a 3b 21 da 4a 3b fc 8b 60 3b
       0.0031203274 0.0023594869 0.003095277 0.0034263125
000030 be 71 43 3b 15 a1 53 3b 4f ba 41 3b 8d fa 2f 3b
       0.0029822434 0.0032292057 0.0029560511 0.002685222
000040 44 c3 44 3b 9c 45 54 3b ad ae 47 3b 09 44 1d 3b
       0.0030023614 0.0032390123 0.0030469105 0.002399685
000050 bf cc 24 3b 72 7c 30 3b 0c ea 11 3b b5 36 f0 3b
       0.0025146452 0.0026929644 0.0022264747 0.0073307403
000060 1c 8b 51 3b 5c ea 3d 3b d7 41 12 3b 16 99 1c 3b
       0.0031973785 0.00289788 0.0022317076 0.0023894957
000070 13 8b 29 3b e0 8d 3e 3b b8 e1 65 3b 9f dd 5f 3b
       0.0025870248 0.0029076263 0.0035077166 0.0034159196
000080 a4 56 5c 3b 6f 8a 32 3b 18 62 23 3b bb 5d 11 3b
       0.0033620978 0.0027243157 0.0024930295 0.0022181112
000090 60 91 8e 3b 10 96 71 3b cc 01 71 3b 2d 7b 33 3b
       0.004350826 0.0036863126 0.0036774753 0.002738665
0000a0 a8 2b f4 3a 02 95 31 3b 82 09 77 3b 08 7e 29 3b
       0.0018628733 0.0027096872 0.0037694876 0.0025862474
0000b0 51 d8 87 3b 0b 81 5a 3b ce 44 2c 3b a2 45 6e 3b
       0.00414566 0.0033341076 0.0026286128 0.0036357422
0000c0 da dd 48 3b e0 92 9c 3b 54 53 2c 3b 93 a7 18 3b
       0.0030649812 0.004778251 0.0026294785 0.0023293241
0000d0 ec de 5f 3b 7b 23 1d 3b 64 c8 37 3b 20 c3 86 3b
       0.0034159971 0.0023977447 0.0028043026 0.004112616
0000e0 08 27 53 3b 41 a7 7b 3b 12 88 40 3b 2e 6d 1a 3b
       0.003221931 0.0038399252 0.002937798 0.0023563611
0000f0 7c 7c 4d 3b 89 92 53 3b ff cc 71 3b 08 8e 32 3b
       0.0031354716 0.0032283387 0.0036895869 0.0027245302

PPQ_Variable_150 i1 [64]
000000 00 00 00 00 00 00 00 00 00 00 00 00 00 00 00 00
       0 0 0 0 0 0 0 0 0 0 0 0 0 0 0 0
000010 00 00 00 00 00 00 00 00 00 00 00 00 00 00 00 00
       0 0 0 0 0 0 0 0 0 0 0 0 0 0 0 0
000020 00 00 00 00 00 00 00 00 00 00 00 00 00 00 00 00
       0 0 0 0 0 0 0 0 0 0 0 0 0 0 0 0
000030 00 00 00 00 00 00 00 00 00 00 00 00 00 00 00 00
       0 0 0 0 0 0 0 0 0 0 0 0 0 0 0 0

PPQ_Variable_152 f4 [64]
000000 c2 b7 14 38 1c 24 2b 38 51 73 5d 38 be 83 90 38
       3.5457088e-05 4.0803207e-05 5.2797903e-05 6.890994e-05
000010 20 67 59 38 ff dd 16 38 b2 87 56 38 df 69 1b 38
       5.1832874e-05 3.5969537e-05 5.1147952e-05 3.705348e-05
000020 5a ea 4a 38 17 70 19 38 52 49 49 38 4f d0 5e 38
       4.837881e-05 3.6582434e-05 4.799042e-05 5.3122927e-05
000030 92 ef 41 38 ee fe 51 38 87 3b 40 38 d7 9e 2e 38
       4.6237903e-05 5.0066905e-05 4.5831806e-05 4.1632764e-05
000040 7d 3e 43 38 30 a2 52 38 21 24 46 38 4c 0d 1c 38
       4.654982e-05 5.021895e-05 4.7240526e-05 3.7205682e-05
000050 1f 87 23 38 bb 1f 2f 38 bd c9 10 38 13 5c ee 38
       3.898807e-05 4.1752803e-05 3.452016e-05 0.000113658745
000060 14 ed 4f 38 1c 73 3c 38 db 20 11 38 ab 63 1b 38
       4.9573442e-05 4.4929897e-05 3.4601293e-05 3.7047703e-05
000070 14 3c 28 38 5d 15 3d 38 80 1b 64 38 4a 23 5e 38
       4.0110273e-05 4.5081008e-05 5.4385047e-05 5.296179e-05
000080 47 a3 5a 38 a9 29 31 38 45 1f 22 38 81 3e 10 38
       5.2127314e-05 4.2238888e-05 3.8652932e-05 3.4390487e-05
000090 ae 77 8d 38 b8 b8 6f 38 99 25 6f 38 8b 18 32 38
       6.745696e-05 5.7154073e-05 5.7017056e-05 4.2461365e-05
0000a0 35 49 f2 37 21 36 30 38 65 21 75 38 23 2f 28 38
       2.8882738e-05 4.201208e-05 5.8443653e-05 4.009822e-05
0000b0 e7 cb 86 38 4e d1 58 38 6c f0 2a 38 d6 6e 6c 38
       6.427598e-05 5.1693343e-05 4.075507e-05 5.637001e-05
0000c0 f7 50 47 38 81 5d 9b 38 d6 fe 2a 38 f3 79 17 38
       4.75207e-05 7.4083924e-05 4.0768493e-05 3.611478e-05
0000d0 95 24 5e 38 fe ec 1b 38 42 5d 36 38 da b8 85 38
       5.2962994e-05 3.7175596e-05 4.3479035e-05 6.3763655e-05
0000e0 d2 85 51 38 05 b6 79 38 a7 0b 3f 38 0d 3c 19 38
       4.9954113e-05 5.9535745e-05 4.55488e-05 3.653397e-05
0000f0 78 e6 4b 38 7f f0 51 38 3a ef 6f 38 3b 2d 31 38
       4.8613612e-05 5.0053462e-05 5.7204838e-05 4.2242213e-05

PPQ_Variable_161 f4 [64]
000000 d9 d1 55 3c 27 3e 3c 3c ea 36 7b 3c 84 b2 1d 3c
       0.01305052 0.011489428 0.015332917 0.009625081
000010 a0 91 8b 3c a5 6d 9c 3c a1 5d 68 3c cd ab 80 3c
       0.017037213 0.019095251 0.014182479 0.015706921
000020 42 e8 3c 3c bb 6a 62 3c 26 bd 4a 3c 5a af 8f 3c
       0.011529984 0.013819392 0.012374198 0.017539669
000030 71 bb 36 3c ec 53 5a 3c 5b a9 5f 3c 28 b9 3f 3c
       0.011153088 0.013325673 0.013651217 0.0117018595
000040 5a 6f 6f 3c 32 ea 7a 3c 6d 78 51 3c 32 42 4d 3c
       0.014613951 0.015314626 0.012785059 0.012527989
000050 e4 72 5e 3c ae 6a 3a 3c b4 33 42 3c b1 9c 54 3c
       0.013577197 0.0113779735 0.011853147 0.012976811
000060 de dc 83 3c 38 ac 5f 3c 2a 46 7a 3c df 40 7d 3c
       0.016096529 0.0136519 0.0152755175 0.015457361
000070 a1 dc 91 3c 9f 17 5a 3c f2 9c 58 3c 63 cd 53 3c
       0.0178054 0.013311296 0.013221012 0.012927386
000080 30 b3 55 3c 2d fa 54 3c e7 da 33 3c 79 13 7a 3c
       0.01304321 0.0129991 0.010977483 0.015263432
000090 a5 92 62 3c 45 03 56 3c 40 c8 37 3c 9c e4 66 3c
       0.013828908 0.013062303 0.011217177 0.014092591
0000a0 f1 99 77 3c f0 ca 6c 3c 69 45 70 3c c0 91 5a 3c
       0.015112386 0.014452681 0.014664986 0.013340414
0000b0 11 76 72 3c de c8 45 3c 74 3c 27 3c e2 ff 34 3c
       0.014798657 0.012071816 0.010207284 0.011047335
0000c0 8c 7a 39 3c 1a 5f 52 3c 5f 94 62 3c 37 18 81 3c
       0.011320721 0.012840057 0.01382932 0.015758617
0000d0 68 8f 26 3c 7e 99 81 3c 9e d8 69 3c 3d 95 5d 3c
       0.010166027 0.015820261 0.014272837 0.013524351
0000e0 61 cf 42 3c 3f f3 74 3c b8 07 54 3c 8a 0e 82 3c
       0.011890263 0.0149505725 0.012941293 0.015876073
0000f0 fc 57 53 3c e2 f8 26 3c 84 22 77 3c 2d 2a 58 3c
       0.012899395 0.010191174 0.015083913 0.013193649

PPQ_Variable_162 i1 [64]
000000 00 00 00 00 00 00 00 00 00 00 00 00 00 00 00 00
       0 0 0 0 0 0 0 0 0 0 0 0 0 0 0 0
000010 00 00 00 00 00 00 00 00 00 00 00 00 00 00 00 00
       0 0 0 0 0 0 0 0 0 0 0 0 0 0 0 0
000020 00 00 00 00 00 00 00 00 00 00 00 00 00 00 00 00
       0 0 0 0 0 0 0 0 0 0 0 0 0 0 0 0
000030 00 00 00 00 00 00 00 00 00 00 00 00 00 00 00 00
       0 0 0 0 0 0 0 0 0 0 0 0 0 0 0 0

PPQ_Variable_164 f4 [64]
000000 b8 2f 69 39 f8 4a 4d 39 ef fb 88 39 12 fb 2b 39
       0.00022238388 0.00019578252 0.00026127647 0.00016401362
000010 d5 35 98 39 c6 98 aa 39 88 69 7d 39 52 53 8c 39
       0.00029031807 0.00032538752 0.00024167274 0.0002676496
000020 7b 04 4e 39 b2 ec 76 39 16 1a 5d 39 00 b3 9c 39
       0.0001964736 0.00023548564 0.0002108592 0.00029888004
000030 7c 48 47 39 53 1a 6e 39 6f eb 73 39 ad 16 51 39
       0.00019005121 0.00022707255 0.00023261992 0.0001994024
000040 96 8f 82 39 19 d2 88 39 73 71 64 39 8f d9 5f 39
       0.00024902512 0.00026096476 0.00021786038 0.00021347984
000050 d9 98 72 39 28 4d 4b 39 b2 ca 53 39 90 de 67 39
       0.00023135859 0.00019388332 0.00020198038 0.00022112788
000060 64 ce 8f 39 8e ee 73 39 a8 78 88 39 8d 18 8a 39
       0.00027428858 0.00023263154 0.00026029837 0.00026339703
000070 c0 12 9f 39 90 d8 6d 39 97 3b 6c 39 7b fc 66 39
       0.00030340813 0.00022682757 0.00022528913 0.00022028566
000080 49 0e 69 39 84 44 68 39 3b 25 44 39 04 5d 88 39
       0.00022225933 0.00022150768 0.00018705886 0.00026009243
000090 3a 18 77 39 9e 65 69 39 a4 6d 48 39 5d ce 7b 39
       0.0002356478 0.00022258467 0.0001911433 0.00024014102
0000a0 8f 03 87 39 bf 1e 81 39 4f 04 83 39 c1 5d 6e 39
       0.00025751858 0.00024627705 0.00024989477 0.00022732375
0000b0 07 36 84 39 ef b2 57 39 2f 62 36 39 c0 64 45 39
       0.00025217255 0.00020570656 0.00017393449 0.00018824916
0000c0 46 47 4a 39 05 6d 65 39 1c 1a 77 39 8d c9 8c 39
       0.00019290773 0.00021879755 0.00023565482 0.00026853048
0000d0 77 a5 35 39 8a 56 8d 39 d9 06 7f 39 1e a7 71 39
       0.00017323146 0.00026958092 0.00024321246 0.00023045807
0000e0 79 74 54 39 79 91 85 39 19 3c 67 39 30 d6 8d 39
       0.00020261285 0.00025476122 0.00022052265 0.00027053198
0000f0 72 7c 66 39 7f 18 36 39 70 c2 86 39 6c be 6b 39
       0.00021980869 0.00017365998 0.0002570334 0.00022482284
