closed/kai_jiang/code/ad/K1_BOARD_V1.0/models/deep_autoencoder.onnx (onnx, 286244 bytes, 10 tensors)

functional_1/dense_1/MatMul i1 [128, 128]
000000 17 1f 03 fb 12 d4 f2 05 0b f6 f8 07 f8 fa 17 02
       23 31 3 -5 18 -44 -14 5 11 -10 -8 7 -8 -6 23 2
000010 10 1d f4 09 0b f8 f4 fe fb ee fa 36 f7 04 f6 df
       16 29 -12 9 11 -8 -12 -2 -5 -18 -6 54 -9 4 -10 -33
000020 07 fd 00 20 fa 1d 17 fe cd 05 00 06 03 f9 f5 d5
       7 -3 0 32 -6 29 23 -2 -51 5 0 6 3 -7 -11 -43
000030 eb 19 0a fe 0a 04 01 e0 f7 fb d3 fa 06 f2 10 04
       -21 25 10 -2 10 4 1 -32 -9 -5 -45 -6 6 -14 16 4
000040 02 04 ef 18 da e9 18 d2 00 0f fc da fa ef e4 f2
       2 4 -17 24 -38 -23 24 -46 0 15 -4 -38 -6 -17 -28 -14
000050 0b 01 f3 06 f6 ec e5 2e e7 0d 15 e5 14 fd 05 2b
       11 1 -13 6 -10 -20 -27 46 -25 13 21 -27 20 -3 5 43
000060 07 38 18 00 ea fa 07 fd 27 fb fc e5 e8 f0 f8 2b
       7 56 24 0 -22 -6 7 -3 39 -5 -4 -27 -24 -16 -8 43
000070 ee fc fa e3 11 fe fd e6 1b 02 00 f4 d5 cd fd 20
       -18 -4 -6 -29 17 -2 -3 -26 27 2 0 -12 -43 -51 -3 32
000080 03 ea 00 00 f0 01 ff ff 02 01 ff 01 ff 03 ff 02
       3 -22 0 0 -16 1 -1 -1 2 1 -1 1 -1 3 -1 2
000090 fc 00 fd 04 ff 00 fe 06 fe fc fc fe 00 ff f7 00
       -4 0 -3 4 -1 0 -2 6 -2 -4 -4 -2 0 -1 -9 0
0000a0 fb 01 ff 05 02 02 f9 00 fe 00 00 fe fb fb 03 00
       -5 1 -1 5 2 2 -7 0 -2 0 0 -2 -5 -5 3 0
0000b0 0a 02 02 02 fd fc 03 04 fd 02 fb 04 fd fb 02 04
       10 2 2 2 -3 -4 3 4 -3 2 -5 4 -3 -5 2 4
0000c0 04 05 08 ff 00 06 ff f0 05 01 ff fe fc 02 06 fc
       4 5 8 -1 0 6 -1 -16 5 1 -1 -2 -4 2 6 -4
0000d0 ff 00 01 01 01 02 fd 04 fa ff 04 ef f9 ff fe 00
       -1 0 1 1 1 2 -3 4 -6 -1 4 -17 -7 -1 -2 0
0000e0 03 00 02 03 0a 00 00 02 01 06 fa 00 fa f4 00 00
       3 0 2 3 10 0 0 2 1 6 -6 0 -6 -12 0 0
0000f0 07 fb ff 02 02 03 01 f8 00 00 02 05 fa 04 0f 02
       7 -5 -1 2 2 3 1 -8 0 0 2 5 -6 4 15 2

functional_1/dense_5/MatMul i1 [128, 8]
000000 e5 fb c0 00 fe 08 fd 16 e7 eb 05 f7 fc 12 fa 29
       -27 -5 -64 0 -2 8 -3 22 -25 -21 5 -9 -4 18 -6 41
000010 0c 06 29 01 07 46 01 f5 e7 f5 e6 07 44 f3 fd 15
       12 6 41 1 7 70 1 -11 -25 -11 -26 7 68 -13 -3 21
000020 f5 fb e3 ff ef f5 ed fe 0d 01 f0 39 d5 fe 03 fb
       -11 -5 -29 -1 -17 -11 -19 -2 13 1 -16 57 -43 -2 3 -5
000030 05 92 25 ff 01 fd fe fd 1f fe 0e f2 f8 ce 02 05
       5 -110 37 -1 1 -3 -2 -3 31 -2 14 -14 -8 -50 2 5
000040 fe fb ed fa f3 cf ff 08 e7 f9 0d df ed 26 09 28
       -2 -5 -19 -6 -13 -49 -1 8 -25 -7 13 -33 -19 38 9 40
000050 fa 68 e2 01 fa 07 01 03 0b 50 f2 fc f7 f8 fc f3
       -6 104 -30 1 -6 7 1 3 11 80 -14 -4 -9 -8 -4 -13
000060 ff fe 04 05 03 03 20 fd fc f2 de 19 bc 05 ff 4d
       -1 -2 4 5 3 3 32 -3 -4 -14 -34 25 -68 5 -1 77
000070 f7 0f fd fb d0 fa 11 e1 11 f6 d7 f8 10 1e 05 1c
       -9 15 -3 -5 -48 -6 17 -31 17 -10 -41 -8 16 30 5 28
000080 08 f5 cf fe 1b ff f2 04 03 fe d6 0f 15 c9 fb 2f
       8 -11 -49 -2 27 -1 -14 4 3 -2 -42 15 21 -55 -5 47
000090 fe 00 00 02 f8 cd 08 f4 02 fc ad fd 13 f9 04 25
       -2 0 0 2 -8 -51 8 -12 2 -4 -83 -3 19 -7 4 37
0000a0 1f 03 14 0c d5 fa fb 1e 0c 00 fa 00 10 c8 04 08
       31 3 20 12 -43 -6 -5 30 12 0 -6 0 16 -56 4 8
0000b0 0d 4b ed 0c e6 17 03 f7 e8 03 f7 fb 26 fa 01 8e
       13 75 -19 12 -26 23 3 -9 -24 3 -9 -5 38 -6 1 -114
0000c0 14 a0 34 00 f9 fc fc ef ff 01 e3 fe fe e2 14 fd
       20 -96 52 0 -7 -4 -4 -17 -1 1 -29 -2 -2 -30 20 -3
0000d0 04 fc f9 fc fd 01 46 05 04 fc d7 06 ef ea 1a de
       4 -4 -7 -4 -3 1 70 5 4 -4 -41 6 -17 -22 26 -34
0000e0 e6 04 1b d7 ce f2 fe f0 fb 03 01 09 1c 08 03 d7
       -26 4 27 -41 -50 -14 -2 -16 -5 3 1 9 28 8 3 -41
0000f0 18 f9 f0 03 fb ec 01 d0 8b fc 19 fa cc 9f 02 14
       24 -7 -16 3 -5 -20 1 -48 -117 -4 25 -6 -52 -97 2 20

functional_1/dense_4/MatMul i1 [8, 128]
000000 08 f9 fd fe f9 db 4b f4 02 f0 f3 07 00 01 2f f1
       8 -7 -3 -2 -7 -37 75 -12 2 -16 -13 7 0 1 47 -15
000010 ec 00 03 dd 0e ff f4 09 04 00 0a f4 08 09 ff 01
       -20 0 3 -35 14 -1 -12 9 4 0 10 -12 8 9 -1 1
000020 02 84 e3 ee 01 fc f5 f0 03 e4 fb 11 03 09 02 04
       2 -124 -29 -18 1 -4 -11 -16 3 -28 -5 17 3 9 2 4
000030 fd fd 02 e5 2d 02 f9 f2 fc f3 06 1e fd 01 fb 03
       -3 -3 2 -27 45 2 -7 -14 -4 -13 6 30 -3 1 -5 3
000040 04 07 26 d1 0e e5 fb f9 25 06 f7 fd f1 02 bd 03
       4 7 38 -47 14 -27 -5 -7 37 6 -9 -3 -15 2 -67 3
000050 0f fa ee 2a 0a 0d 03 f8 f4 00 b1 f0 fa 0e 03 c9
       15 -6 -18 42 10 13 3 -8 -12 0 -79 -16 -6 14 3 -55
000060 f6 fa f5 01 02 df 00 34 ff f6 ec ac fe fe 16 ed
       -10 -6 -11 1 2 -33 0 52 -1 -10 -20 -84 -2 -2 22 -19
000070 02 0c 0d 1d 10 ef fb ff ff fe 54 e9 e9 06 00 02
       2 12 13 29 16 -17 -5 -1 -1 -2 84 -23 -23 6 0 2
000080 03 14 fb 01 67 15 fe e0 fb e9 06 02 01 01 f6 04
       3 20 -5 1 103 21 -2 -32 -5 -23 6 2 1 1 -10 4
000090 07 00 03 f0 fb e6 02 03 05 fe fb 02 00 fe 00 ee
       7 0 3 -16 -5 -26 2 3 5 -2 -5 2 0 -2 0 -18
0000a0 01 08 f5 00 ff 00 00 f8 01 ff 02 00 03 f1 ee b5
       1 8 -11 0 -1 0 0 -8 1 -1 2 0 3 -15 -18 -75
0000b0 ff 03 00 f2 e9 03 fb 05 30 fa fc 04 55 e5 18 fc
       -1 3 0 -14 -23 3 -5 5 48 -6 -4 4 85 -27 24 -4
0000c0 ee fc 03 04 05 01 0c ff e2 8b f0 fc 0a 03 ff fc
       -18 -4 3 4 5 1 12 -1 -30 -117 -16 -4 10 3 -1 -4
0000d0 0e 04 fc ef fe fc 00 07 09 05 ff ff f9 10 00 03
       14 4 -4 -17 -2 -4 0 7 9 5 -1 -1 -7 16 0 3
0000e0 ff e8 05 fd ff f3 00 fd 2b ed 0d f8 01 00 fb 00
       -1 -24 5 -3 -1 -13 0 -3 43 -19 13 -8 1 0 -5 0
0000f0 00 09 ed 02 ff 01 06 03 15 02 fd fd fa 06 00 00
       0 9 -19 2 -1 1 6 3 21 2 -3 -3 -6 6 0 0

functional_1/dense_9/MatMul i1 [640, 128]
000000 f3 f6 f7 fc de 02 dd ee 02 f4 fe ff d7 f2 fd f6
       -13 -10 -9 -4 -34 2 -35 -18 2 -12 -2 -1 -41 -14 -3 -10
000010 eb e4 fe 03 01 f0 fd ef e6 f1 eb f7 f0 fb e9 f7
       -21 -28 -2 3 1 -16 -3 -17 -26 -15 -21 -9 -16 -5 -23 -9
000020 fc 02 e6 ef f8 de f7 09 fc fc e7 ce eb d0 05 f9
       -4 2 -26 -17 -8 -34 -9 9 -4 -4 -25 -50 -21 -48 5 -7
000030 ff 03 0d ea db ff 09 f5 fb dd d4 cd e6 f0 d5 00
       -1 3 13 -22 -37 -1 9 -11 -5 -35 -44 -51 -26 -16 -43 0
000040 f1 f2 ed e1 f2 da 04 ee f3 ed e6 e7 fb ca f6 da
       -15 -14 -19 -31 -14 -38 4 -18 -13 -19 -26 -25 -5 -54 -10 -38
000050 e2 e6 ff e2 fe f7 d8 fd 0d f3 ec df f6 ef e8 fc
       -30 -26 -1 -30 -2 -9 -40 -3 13 -13 -20 -33 -10 -17 -24 -4
000060 f6 ff e2 f3 f8 d2 0e f8 f1 e6 f1 11 0b f1 f7 01
       -10 -1 -30 -13 -8 -46 14 -8 -15 -26 -15 17 11 -15 -9 1
000070 ff d3 f1 ef fa fb fa ff ea 06 f2 03 d8 f8 f1 f9
       -1 -45 -15 -17 -6 -5 -6 -1 -22 6 -14 3 -40 -8 -15 -7
000080 e3 fb 06 f2 fb f1 f3 f4 fb e3 f1 fd fe 01 00 f7
       -29 -5 6 -14 -5 -15 -13 -12 -5 -29 -15 -3 -2 1 0 -9
000090 f6 d6 0b 0d 05 01 04 04 f5 f4 f2 f7 f8 26 04 fc
       -10 -42 11 13 5 1 4 4 -11 -12 -14 -9 -8 38 4 -4
0000a0 fe ff 01 f0 0d cd f0 09 04 ff f0 02 ef d0 fd 12
       -2 -1 1 -16 13 -51 -16 9 4 -1 -16 2 -17 -48 -3 18
0000b0 13 fd 12 f0 f4 03 ff ff f3 e8 de db f6 fa d1 f5
       19 -3 18 -16 -12 3 -1 -1 -13 -24 -34 -37 -10 -6 -47 -11
0000c0 ff ef f5 fd f5 ce 03 eb d4 e6 ff f4 ed f8 f5 dd
       -1 -17 -11 -3 -11 -50 3 -21 -44 -26 -1 -12 -19 -8 -11 -35
0000d0 fa fb 0a fb 12 ec ec 08 03 ef f0 e0 fe f4 de f5
       -6 -5 10 -5 18 -20 -20 8 3 -17 -16 -32 -2 -12 -34 -11
0000e0 f8 f5 f7 02 d5 0a fa ed ef f1 f1 22 f8 f0 0e f0
       -8 -11 -9 2 -43 10 -6 -19 -17 -15 -15 34 -8 -16 14 -16
0000f0 f7 f0 f4 f8 04 ec 00 01 ef 09 01 00 d8 fc eb 1d
       -9 -16 -12 -8 4 -20 0 1 -17 9 1 0 -40 -4 -21 29

functional_1/dense_8/MatMul i1 [128, 128]
000000 19 f4 10 17 0f f8 07 0a 0a db 14 1a 01 54 f1 11
       25 -12 16 23 15 -8 7 10 10 -37 20 26 1 84 -15 17
000010 09 fc ea f2 f0 e8 f3 e4 1b 0f eb e7 cb 05 e3 07
       9 -4 -22 -14 -16 -24 -13 -28 27 15 -21 -25 -53 5 -29 7
000020 12 12 fb 08 01 06 00 f3 f9 eb 03 12 fd 26 c2 cf
       18 18 -5 8 1 6 0 -13 -7 -21 3 18 -3 38 -62 -49
000030 f9 fe f0 f9 04 1b f8 1a ee 0d fe fa 01 f7 18 11
       -7 -2 -16 -7 4 27 -8 26 -18 13 -2 -6 1 -9 24 17
000040 0b fe fa f3 0f e2 fe fc f3 f8 fc 0a cd 5e 22 16
       11 -2 -6 -13 15 -30 -2 -4 -13 -8 -4 10 -51 94 34 22
000050 0c f0 fa 02 01 17 28 05 08 07 0e 17 13 07 10 ea
       12 -16 -6 2 1 23 40 5 8 7 14 23 19 7 16 -22
000060 2b 2f 1e ee f8 e0 f7 22 00 04 da 11 d4 f4 01 0a
       43 47 30 -18 -8 -32 -9 34 0 4 -38 17 -44 -12 1 10
000070 fb 0a 32 0b 1d f4 fc cf 0a ee fc f4 03 00 d9 07
       -5 10 50 11 29 -12 -4 -49 10 -18 -4 -12 3 0 -39 7
000080 ff 0c ec 12 f5 ee 0b 02 f5 03 04 12 ea ee 03 fb
       -1 12 -20 18 -11 -18 11 2 -11 3 4 18 -22 -18 3 -5
000090 db 0a e8 06 f4 fc 07 06 cd f0 05 04 17 ed fe 03
       -37 10 -24 6 -12 -4 7 6 -51 -16 5 4 23 -19 -2 3
0000a0 e6 fd f8 ec fe f5 f6 e5 05 fe 01 05 d8 04 06 02
       -26 -3 -8 -20 -2 -11 -10 -27 5 -2 1 5 -40 4 6 2
0000b0 05 12 1c e8 0c fe ff e1 fc 10 10 f7 0f 06 db 02
       5 18 28 -24 12 -2 -1 -31 -4 16 16 -9 15 6 -37 2
0000c0 fc 1e 08 f7 fc ff 04 01 f4 06 0e fe a9 df f3 0a
       -4 30 8 -9 -4 -1 4 1 -12 6 14 -2 -87 -33 -13 10
0000d0 00 ef 0e ff f9 02 29 db 05 eb 07 f8 f5 06 ea 14
       0 -17 14 -1 -7 2 41 -37 5 -21 7 -8 -11 6 -22 20
0000e0 f3 e4 fe e3 12 fb 0b df e5 f9 09 e2 f7 0e f3 f1
       -13 -28 -2 -29 18 -5 11 -33 -27 -7 9 -30 -9 14 -13 -15
0000f0 df 07 f5 e1 f8 fa 08 f5 d3 10 df fb f3 13 0b 01
       -33 7 -11 -31 -8 -6 8 -11 -45 16 -33 -5 -13 19 11 1

functional_1/dense_2/MatMul i1 [128, 128]
000000 00 00 01 00 ff 00 04 01 00 00 fe 02 00 01 fe 02
       0 0 1 0 -1 0 4 1 0 0 -2 2 0 1 -2 2
000010 fe ff 00 00 fe 02 ff 02 01 ff ff ff 00 fe 01 ff
       -2 -1 0 0 -2 2 -1 2 1 -1 -1 -1 0 -2 1 -1
000020 00 00 f3 fb 00 01 03 ff 01 fe 01 fe 02 fe fe 00
       0 0 -13 -5 0 1 3 -1 1 -2 1 -2 2 -2 -2 0
000030 fe 00 fb 02 ff fe 00 fe ff ff ff 01 ff 00 00 01
       -2 0 -5 2 -1 -2 0 -2 -1 -1 -1 1 -1 0 0 1
000040 02 00 00 fe fe fe ff 03 ff 00 fe fe 01 fe 01 00
       2 0 0 -2 -2 -2 -1 3 -1 0 -2 -2 1 -2 1 0
000050 01 03 00 00 00 ff 00 00 01 01 00 03 fe fe fe 01
       1 3 0 0 0 -1 0 0 1 1 0 3 -2 -2 -2 1
000060 01 fe 00 ff ff 00 fe 00 00 01 00 ff ff ff ef 00
       1 -2 0 -1 -1 0 -2 0 0 1 0 -1 -1 -1 -17 0
000070 fd ff 02 f7 f6 fe 00 01 00 fc ff fe 00 f8 02 00
       -3 -1 2 -9 -10 -2 0 1 0 -4 -1 -2 0 -8 2 0
000080 00 ff 00 01 ff 01 ff 01 00 ff 00 ff 01 00 fe 00
       0 -1 0 1 -1 1 -1 1 0 -1 0 -1 1 0 -2 0
000090 04 00 01 ff 01 00 f8 ff 00 fe ff 01 00 fe fe ff
       4 0 1 -1 1 0 -8 -1 0 -2 -1 1 0 -2 -2 -1
0000a0 ff 01 fc 01 02 fe fd fe 00 01 03 01 fe fd 03 00
       -1 1 -4 1 2 -2 -3 -2 0 1 3 1 -2 -3 3 0
0000b0 00 00 01 02 01 01 00 00 00 ff fc 01 ff fd 00 01
       0 0 1 2 1 1 0 0 0 -1 -4 1 -1 -3 0 1
0000c0 ff ff fc ff 01 ff ff ff fc ff fd 03 00 00 01 00
       -1 -1 -4 -1 1 -1 -1 -1 -4 -1 -3 3 0 0 1 0
0000d0 00 00 00 fc 00 04 01 00 00 01 00 01 00 01 01 01
       0 0 0 -4 0 4 1 0 0 1 0 1 0 1 1 1
0000e0 fe ff 00 fd 00 01 fa fd 01 01 ff ff ff ff f7 00
       -2 -1 0 -3 0 1 -6 -3 1 1 -1 -1 -1 -1 -9 0
0000f0 fa ff 02 fe fe 00 01 fe 01 fe 00 01 00 01 00 01
       -6 -1 2 -2 -2 0 1 -2 1 -2 0 1 0 1 0 1

functional_1/dense_7/MatMul i1 [128, 128]
000000 09 15 f9 05 fe fe f5 d4 0e 02 f0 eb fe fe 17 f4
       9 21 -7 5 -2 -2 -11 -44 14 2 -16 -21 -2 -2 23 -12
000010 f9 0a 09 10 09 1b 03 2a 08 ee 0b cb ff ed 01 04
       -7 10 9 16 9 27 3 42 8 -18 11 -53 -1 -19 1 4
000020 f5 05 f7 ef f9 05 f8 04 02 06 d8 08 bf 0c 03 ee
       -11 5 -9 -17 -7 5 -8 4 2 6 -40 8 -65 12 3 -18
000030 ec d2 f5 ff ff 0c e5 25 f7 07 f9 f0 d5 2f f0 fa
       -20 -46 -11 -1 -1 12 -27 37 -9 7 -7 -16 -43 47 -16 -6
000040 0f fb f6 f5 fa 07 10 0a 11 f6 00 1a 0b fb 00 e9
       15 -5 -10 -11 -6 7 16 10 17 -10 0 26 11 -5 0 -23
000050 05 03 25 0a 15 08 09 00 f9 1c 0d 00 00 ff fd 11
       5 3 37 10 21 8 9 0 -7 28 13 0 0 -1 -3 17
000060 28 fe 0f e7 ff eb 10 e9 0b f5 f9 e7 02 02 ee e6
       40 -2 15 -25 -1 -21 16 -23 11 -11 -7 -25 2 2 -18 -26
000070 05 f6 0a 0b 00 e7 f9 19 fb 00 0f 07 f6 1a 05 07
       5 -10 10 11 0 -25 -7 25 -5 0 15 7 -10 26 5 7
000080 02 0b 04 04 0a 07 0e fd 10 25 c1 13 fa 02 b6 0d
       2 11 4 4 10 7 14 -3 16 37 -63 19 -6 2 -74 13
000090 0f f6 fe f3 03 e3 08 f4 fe f7 05 e8 08 07 0f f9
       15 -10 -2 -13 3 -29 8 -12 -2 -9 5 -24 8 7 15 -7
0000a0 01 14 f7 f6 01 23 0e 00 f4 03 0d 09 f6 f1 06 fc
       1 20 -9 -10 1 35 14 0 -12 3 13 9 -10 -15 6 -4
0000b0 04 02 fd 04 f4 00 10 13 0c 12 fb fc ee fd dd fd
       4 2 -3 4 -12 0 16 19 12 18 -5 -4 -18 -3 -35 -3
0000c0 f7 05 00 01 09 06 f4 0f fc 03 00 0b fc f8 0f 0b
       -9 5 0 1 9 6 -12 15 -4 3 0 11 -4 -8 15 11
0000d0 06 02 f6 f6 12 02 fb 02 0b 03 ff 00 db fe 09 f6
       6 2 -10 -10 18 2 -5 2 11 3 -1 0 -37 -2 9 -10
0000e0 07 03 02 0f 14 f5 fb 0c 0a fe fd f0 b2 00 00 f6
       7 3 2 15 20 -11 -5 12 10 -2 -3 -16 -78 0 0 -10
0000f0 05 09 fe 0b f9 05 fc 1f 00 02 01 01 f5 1d 29 0a
       5 9 -2 11 -7 5 -4 31 0 2 1 1 -11 29 41 10

functional_1/dense_6/MatMul i1 [128, 128]
000000 07 f3 2b 06 f7 f4 07 05 06 0b 02 05 f6 06 01 03
       7 -13 43 6 -9 -12 7 5 6 11 2 5 -10 6 1 3
000010 01 0c fd e9 f4 25 f8 f3 f9 f2 0b 03 fc fb fe fd
       1 12 -3 -23 -12 37 -8 -13 -7 -14 11 3 -4 -5 -2 -3
000020 f9 0b 04 f7 0c 06 f6 0b fd 13 eb 06 fd 0b fe fd
       -7 11 4 -9 12 6 -10 11 -3 19 -21 6 -3 11 -2 -3
000030 05 ef f9 06 f6 ff 04 04 f2 02 02 f2 f7 00 03 03
       5 -17 -7 6 -10 -1 4 4 -14 2 2 -14 -9 0 3 3
000040 e3 08 ff 05 fa fa 03 f9 10 f0 1a 05 04 fb fb f7
       -29 8 -1 5 -6 -6 3 -7 16 -16 26 5 4 -5 -5 -9
000050 ff fb f8 fe 07 fe 17 08 fd 03 fd f8 02 06 19 f7
       -1 -5 -8 -2 7 -2 23 8 -3 3 -3 -8 2 6 25 -9
000060 06 fe 09 05 01 18 0a f6 f9 f3 11 04 01 f1 ff f9
       6 -2 9 5 1 24 10 -10 -7 -13 17 4 1 -15 -1 -7
000070 11 ee 05 00 05 04 10 05 f6 0b 03 08 0d 1b 00 f8
       17 -18 5 0 5 4 16 5 -10 11 3 8 13 27 0 -8
000080 07 02 19 ea fc fb 02 fe e1 f1 fe 06 05 ee 04 04
       7 2 25 -22 -4 -5 2 -2 -31 -15 -2 6 5 -18 4 4
000090 01 f5 f2 09 f5 db 03 f9 01 fa 00 fe 05 0c 07 0b
       1 -11 -14 9 -11 -37 3 -7 1 -6 0 -2 5 12 7 11
0000a0 f9 02 f5 e9 f8 05 0b fa 00 06 f1 fe 06 05 fd 0f
       -7 2 -11 -23 -8 5 11 -6 0 6 -15 -2 6 5 -3 15
0000b0 ff 08 09 02 07 07 ff 00 01 ff 03 fd 01 ff 03 f6
       -1 8 9 2 7 7 -1 0 1 -1 3 -3 1 -1 3 -10
0000c0 fb 05 fb fa f7 fc 07 05 ec 18 f6 01 fc 01 07 01
       -5 5 -5 -6 -9 -4 7 5 -20 24 -10 1 -4 1 7 1
0000d0 01 fc 02 01 f6 fa 06 04 02 04 fd 01 06 ff 1b 11
       1 -4 2 1 -10 -6 6 4 2 4 -3 1 6 -1 27 17
0000e0 cc fd fa fd 01 fb 0d 08 ef fb f7 f7 f9 0e eb fa
       -52 -3 -6 -3 1 -5 13 8 -17 -5 -9 -9 -7 14 -21 -6
0000f0 07 0a 05 08 fa fb ea 02 fd 02 fe 06 08 01 11 fb
       7 10 5 8 -6 -5 -22 2 -3 2 -2 6 8 1 17 -5

functional_1/dense_3/MatMul i1 [128, 128]
000000 02 03 01 00 f9 02 01 00 ff fd 00 fe 00 01 ff 00
       2 3 1 0 -7 2 1 0 -1 -3 0 -2 0 1 -1 0
000010 ff 00 01 f8 ff 00 00 ff f5 fe 00 fe 00 fe 00 fe
       -1 0 1 -8 -1 0 0 -1 -11 -2 0 -2 0 -2 0 -2
000020 01 01 ff 03 01 fe f6 ff fe 00 01 01 00 00 00 ff
       1 1 -1 3 1 -2 -10 -1 -2 0 1 1 0 0 0 -1
000030 01 02 ff 02 ff 00 ff 00 00 00 00 00 09 fb 00 00
       1 2 -1 2 -1 0 -1 0 0 0 0 0 9 -5 0 0
000040 01 fb 01 00 ff 01 ff 00 00 00 00 00 ff ff 00 00
       1 -5 1 0 -1 1 -1 0 0 0 0 0 -1 -1 0 0
000050 01 00 01 03 01 05 ff 00 01 03 00 ff ff 00 00 01
       1 0 1 3 1 5 -1 0 1 3 0 -1 -1 0 0 1
000060 00 00 00 00 01 ff 01 00 00 ff 00 01 d9 00 00 00
       0 0 0 0 1 -1 1 0 0 -1 0 1 -39 0 0 0
000070 00 f7 01 01 03 00 00 00 01 00 01 ec 00 00 fe 01
       0 -9 1 1 3 0 0 0 1 0 1 -20 0 0 -2 1
000080 01 00 ff 00 fb 00 00 00 00 01 fe ff 00 ff 01 02
       1 0 -1 0 -5 0 0 0 0 1 -2 -1 0 -1 1 2
000090 ff 00 fe fe 01 02 01 00 fd 01 02 00 01 fd 00 00
       -1 0 -2 -2 1 2 1 0 -3 1 2 0 1 -3 0 0
0000a0 fd fe 00 ff 01 00 f8 00 ff 00 00 02 01 00 01 fe
       -3 -2 0 -1 1 0 -8 0 -1 0 0 2 1 0 1 -2
0000b0 fd 00 ff 02 f8 ff fd 00 00 ff f6 00 f9 fd 00 01
       -3 0 -1 2 -8 -1 -3 0 0 -1 -10 0 -7 -3 0 1
0000c0 00 00 00 00 fe 01 01 02 fd 00 00 02 00 01 01 01
       0 0 0 0 -2 1 1 2 -3 0 0 2 0 1 1 1
0000d0 00 01 00 01 00 00 02 01 00 01 ff 00 00 00 00 00
       0 1 0 1 0 0 2 1 0 1 -1 0 0 0 0 0
0000e0 00 00 00 00 00 00 ff 00 00 01 01 03 00 00 02 00
       0 0 0 0 0 0 -1 0 0 1 1 3 0 0 2 0
0000f0 01 04 00 ff 00 00 00 00 00 01 00 03 00 ff f9 00
       1 4 0 -1 0 0 0 0 0 1 0 3 0 -1 -7 0

functional_1/dense/MatMul i1 [128, 640]
000000 06 09 f8 04 02 fe f8 f3 fd 0c 02 ff 01 fd fb ff
       6 9 -8 4 2 -2 -8 -13 -3 12 2 -1 1 -3 -5 -1
000010 fe 06 ff fe ff 00 fe fd fa 01 00 fe f8 f5 f6 f7
       -2 6 -1 -2 -1 0 -2 -3 -6 1 0 -2 -8 -11 -10 -9
000020 f7 fe 00 fd fe fb fd fc 01 fd 05 00 fc 02 04 02
       -9 -2 0 -3 -2 -5 -3 -4 1 -3 5 0 -4 2 4 2
000030 01 01 02 01 03 ff fe 01 01 05 05 01 fe 03 08 fd
       1 1 2 1 3 -1 -2 1 1 5 5 1 -2 3 8 -3
000040 01 05 01 01 01 02 04 05 00 02 07 06 02 03 07 04
       1 5 1 1 1 2 4 5 0 2 7 6 2 3 7 4
000050 03 ff 02 03 02 fc 00 04 02 fc 09 09 fd fc fe 00
       3 -1 2 3 2 -4 0 4 2 -4 9 9 -3 -4 -2 0
000060 fc fd 00 fc fd fb fd fa fe 01 fc 02 fe f9 ff fe
       -4 -3 0 -4 -3 -5 -3 -6 -2 1 -4 2 -2 -7 -1 -2
000070 03 ff 05 ff 0d 02 ff 02 05 04 04 00 03 03 fe 01
       3 -1 5 -1 13 2 -1 2 5 4 4 0 3 3 -2 1
000080 06 07 f8 05 05 fe f8 f4 00 0c 03 fe ff fb fa ff
       6 7 -8 5 5 -2 -8 -12 0 12 3 -2 -1 -5 -6 -1
000090 fd 07 fe ff 01 ff fc f9 f9 01 ff 00 fa f4 f8 f6
       -3 7 -2 -1 1 -1 -4 -7 -7 1 -1 0 -6 -12 -8 -10
0000a0 f7 fe fc fd fd f9 fb fc ff fe 05 ff f8 fd 03 02
       -9 -2 -4 -3 -3 -7 -5 -4 -1 -2 5 -1 -8 -3 3 2
0000b0 01 01 00 ff fe 00 fc fd 01 06 05 00 fc 00 06 fb
       1 1 0 -1 -2 0 -4 -3 1 6 5 0 -4 0 6 -5
0000c0 00 03 00 01 01 ff 05 03 01 03 06 03 01 02 06 06
       0 3 0 1 1 -1 5 3 1 3 6 3 1 2 6 6
0000d0 04 01 fe fe 00 fd fe 03 00 fc 08 07 fc fc fd fe
       4 1 -2 -2 0 -3 -2 3 0 -4 8 7 -4 -4 -3 -2
0000e0 fa fe fe fc fb fb fb fa fc fc fb 03 fc f8 fd fe
       -6 -2 -2 -4 -5 -5 -5 -6 -4 -4 -5 3 -4 -8 -3 -2
0000f0 00 fe 04 00 08 00 fe ff 03 00 ff fe 02 01 fd ff
       0 -2 4 0 8 0 -2 -1 3 0 -1 -2 2 1 -3 -1
