closed/Qualcomm/code/AIMET/IC/source_model.tflite (tflite, 315248 bytes, 20 tensors)

conv2d/Conv2D_bias f4 [16]
000000 82 cb 1b 3f ea ee a4 3e ae 07 32 3f 7d 51 a0 3e
       0.60857403 0.32213527 0.6954297 0.3131217
000010 1d 92 00 3f 92 ae 34 3e 8c 75 04 3f c3 77 18 3f
       0.5022295 0.17644718 0.5174186 0.5955774
000020 1b 5b 3b 3e 6c ce 9b 3e 9f e1 14 3e cf 45 38 3f
       0.18296473 0.30430925 0.14539193 0.7198152
000030 1b 2a 3e 3f 7d 99 30 be 93 9c 70 bf 09 fe b8 3f
       0.74283 -0.17246051 -0.93988913 1.4452525

conv2d/kernel f4 [16, 3, 3, 3]
000000 9b b5 13 3b e0 48 42 3b 77 00 8a bb b1 6b f9 3a
       0.0022538665 0.0029645488 -0.004211481 0.0019029287
000010 a2 5d be ba c2 e9 ae bb c4 fa db 3b 3e 93 c4 3a
       -0.0014523754 -0.0053379247 0.006713243 0.0014997495
000020 8c d7 14 bc d5 a3 01 bc b4 1c 65 ba ee 7f da 3b
       -0.0090845935 -0.007912596 -0.0008739934 0.0066680824
000030 91 34 2e ba e3 6c 6a 3b e2 03 8f ba 0c 28 e9 ba
       -0.0006645406 0.0035770468 -0.0010911191 -0.0017788424
000040 48 ba 6d bb db 83 da ba d1 eb ee bb 18 37 3d b8
       -0.0036274362 -0.0016671376 -0.007291295 -4.511242e-05
000050 ee 10 33 3a 2e df 5b 3b b7 4c a9 3b 41 3e 39 3c
       0.0006830831 0.0033549774 0.005166616 0.011306346
000060 a3 97 00 bc f0 78 0a bb 5b d3 7e 3b 26 75 ba b9
       -0.007848653 -0.0021129213 0.0038883302 -0.00035563967
000070 a0 ac 32 3a c0 55 2c bb 7d 76 09 3b 2f 9e ea ba
       0.0006815884 -0.0026296228 0.0020975166 -0.0017899926
000080 18 63 a7 b9 5d 5c 95 3a 8c 5c 27 bb 1a 8b 15 ba
       -0.00031926553 0.0011395324 -0.002553734 -0.00057046267
000090 36 a0 38 ba a4 34 d8 b9 6e cd 65 ba 33 4f 20 bb
       -0.0007042916 -0.0004123795 -0.0008766268 -0.002446127
0000a0 37 12 5a bb f4 fb 33 bb 1e 72 6a 3b 6c 40 51 ba
       -0.0033275017 -0.0027463408 0.0035773586 -0.0007982317
0000b0 52 ad 30 3b f4 08 02 bb 76 5f 8c 3a 23 76 9e 3a
       0.0026958776 -0.0019841762 0.0010709602 0.0012089651
0000c0 76 6d b7 3a 4a 07 62 3a 2a 8b 1a ba 33 77 32 3b
       0.0013994414 0.0008622302 -0.0005895371 0.0027231693
0000d0 d7 94 1d bb 3e 58 12 3b 0f 23 8a bb 37 03 b3 bb
       -0.0024045014 0.0022330428 -0.004215605 -0.0054630297
0000e0 e4 4e 25 3b 90 ea 8f 3b 0b b7 99 3b bd 75 14 3b
       0.0025224024 0.0043919757 0.00469101 0.0022653185
0000f0 89 a3 c0 bb 4f 02 4e 3b 1e 18 b4 39 b5 fb 5c 3b
       -0.00587887 0.0031434481 0.00034350244 0.0033719365
000100 1a f9 7a bb b7 89 59 ba 43 3d 9c bb cf dc a9 bb
       -0.0038295449 -0.0008298414 -0.004768045 -0.005183793
000110 d4 61 c5 ba 3d e7 60 bb 0d 8c 8c bb 4b d9 cb bb
       -0.0015059062 -0.0034317516 -0.0042891563 -0.0062209717
000120 1a 0a 12 3c f7 07 c7 39 31 c8 16 ba 70 b4 e1 3a
       0.008913541 0.00037962172 -0.0005751877 0.0017219912
000130 72 46 77 3b ca 99 cb ba 1f 09 fc 39 75 ea 97 3b
       0.0037731198 -0.0015533504 0.0004807198 0.0046361038
000140 d7 55 d5 3b 30 11 cd bb c3 e8 b4 39 08 04 2e 3a
       0.006510477 -0.0062581524 0.00034505696 0.0006638174
000150 0e 0b d6 bb 20 64 b6 3b 5c ee fd ba 8e 11 cb 39
       -0.0065320795 0.005566135 -0.0019373405 0.00038732257
000160 ad 36 89 3b 99 79 93 bb a3 cb c7 38 3f 81 50 3b
       0.004187426 -0.0045005796 9.52699e-05 0.0031815318
000170 db e3 b2 3a e9 bd bd ba 43 a5 41 3c 88 54 e8 3a
       0.0013648228 -0.0014476153 0.011819187 0.0017725388
000180 f6 77 56 3a 46 81 13 3b ce d1 7f bb c5 27 88 3b
       0.0008181328 0.0022507473 -0.0039034965 0.0041551315
000190 21 d8 09 ba 37 cd 79 bb e5 92 70 bb d4 93 2b 3a
       -0.0005258341 -0.0038116702 -0.003670865 0.00065451604
0001a0 a2 9b 61 bb 08 2f 43 bb 31 e8 2a 3b 8c fa 57 ba
       -0.003442504 -0.0029782671 0.0026078338 -0.00082389335
0001b0 9e f7 1c bc 5d d8 76 3b f3 20 d1 3b 46 4a ce bb
       -0.009580521 0.0037665584 0.0063821017 -0.006295475
0001c0 74 6d 38 3b 53 03 37 bb 08 f5 3f 3b cb 38 0e 39
       0.002814141 -0.0027925565 0.0029290337 0.00013563332
0001d0 1a f9 a2 ba 0c 6e 01 bc 2c fa 85 3a d5 00 e3 3b
       -0.0012433857 -0.007899772 0.0010221652 0.0069275894
0001e0 9e ca e5 bb 3a 41 30 ba 47 c1 16 bb 41 7d 79 3a
       -0.0070126792 -0.00067235867 -0.0023003386 0.00095172605
0001f0 7d 59 39 3b bc 3b 05 3b 9f de 01 3c 32 50 1e 3b
       0.00282821 0.0020329794 0.007926612 0.0024156687
000200 71 ca 38 bb 8e 26 ed 3b 8a a4 b0 bb e9 c5 53 bb
       -0.0028196836 0.007237262 -0.0053907083 -0.0032314009
000210 e3 9e c1 3b c3 81 cf bb 3e 4c e8 ba 5c 0e 84 3b
       0.0059088334 -0.0063326075 -0.0017722917 0.004030032
000220 c0 06 a2 3a e7 41 63 3a c2 e3 6e bb 7f e7 dd bb
       0.0012361631 0.0008669183 -0.0036451672 -0.0067719813
000230 7f 2b 8f bb 37 20 66 ba f7 1d 41 bb c8 b8 6f bb
       -0.004369199 -0.0008778604 -0.0029467323 -0.0036578644
000240 c2 ef 81 bb 35 a0 80 ba ef ef 9c ba 6e cd 2c bb
       -0.003965349 -0.000981337 -0.0011973361 -0.0026367563
000250 d9 8a 2e 3a 5a 9f 04 3a 99 e3 62 ba 39 3a b0 3b
       0.0006658263 0.00050591456 -0.00086551305 0.0053780344
000260 7a bd 04 3b a3 6e 2a ba f1 b8 02 b9 cf f6 cd 3a
       0.0020254538 -0.00065014715 -0.00012466662 0.0015713813
000270 a3 13 8f 3b dd 33 ec ba 4f f8 0c 3b a3 7f 94 3b
       0.0043663546 -0.0018020828 0.0021510308 0.004531817
000280 8c b0 af 3b 91 75 ee 3a 0e f8 97 3b a4 23 eb bb
       0.005361622 0.0018192997 0.0046377247 -0.0071758796
000290 af 9e 9f 3b f0 42 ec ba d1 e8 e6 ba 85 23 f1 3b
       0.0048712115 -0.001802532 -0.0017616992 0.0073589706
0002a0 8e af 50 bb 55 aa ef 3a 96 fa f5 3a 67 62 84 bb
       -0.003184292 0.0018285016 0.0018766697 -0.004040051
0002b0 bb ab 92 bb 92 50 81 3a 5f fd 11 38 ce 36 03 3a
       -0.0044760383 0.0009865931 3.4806664e-05 0.000500542
0002c0 91 66 fd bb 6f 74 f8 3b 22 8c 1c 3c fd 67 b1 ba
       -0.007733174 0.0075822393 0.009554895 -0.0013535019
0002d0 7c bb d4 3a 18 00 e3 3b bf 19 9d 3b eb e5 8d bb
       0.0016230191 0.0069275014 0.004794329 -0.004330387
0002e0 2a b5 90 bb 4d 3e 19 bc 72 4b d3 ba 5c 75 cc 3b
       -0.0044161277 -0.009353233 -0.0016120507 0.0062395763
0002f0 8c 9d d1 bb a6 91 46 3c 21 99 35 bc 8d da 20 bc
       -0.006396955 0.012119686 -0.011083872 -0.009817732
000300 57 fb 59 3c 26 8c ee bb fb 59 09 bc 86 74 7e 3b
       0.013304553 -0.0072798906 -0.008383269 0.0038826778
000310 af 31 9a 3b a8 df 52 3a 96 43 44 3b ab a2 17 3c
       0.00470563 0.00080441916 0.002994751 0.009255092
000320 93 c0 dc 3a 84 a9 1e bb 1a ea 2b 3b 25 b2 92 3b
       0.001684206 -0.0024209926 0.0026232065 0.004476803
000330 8b 0a be bb f9 5d f8 38 20 64 b0 bb 03 db 3a bc
       -0.0057995967 0.00011843065 -0.0053830296 -0.0114047555
000340 db 26 07 3c d7 58 dd 3b 68 45 74 bc 60 9d 66 bc
       0.00824901 0.0067549753 -0.014909126 -0.014075607
000350 eb a5 60 b9 63 3b 4f 3b 3e 6f d2 3b 2b 40 2e 3c
       -0.00021424114 0.003162109 0.0064219525 0.010635416
000360 cf ee 0d 3b ea 4c a0 bb c2 77 8c 3a d7 20 b0 3b
       0.0021657234 -0.0048919814 0.0010716843 0.0053750086
000370 5d 0f 98 3b 8e da d8 3b 45 93 a1 3b f8 fa 2e ba
       0.0046405033 0.0066178506 0.004930886 -0.00066749705
000380 9b b2 a2 ba 83 15 13 ba e8 d3 76 ba 69 a7 a8 3a
       -0.0012412848 -0.00056108105 -0.0009415732 0.0012867275
000390 f1 35 b9 bb ad 1a ee 3a 53 20 ae 3b a7 f6 bc bb
       -0.0056521823 0.0018165909 0.005313912 -0.005766708
0003a0 79 9f c9 bb 00 bc 8b ba a4 97 36 3b de 5e 47 bb
       -0.006153044 -0.0010660887 0.002786138 -0.0030421535
0003b0 69 ce 81 3a b5 e4 14 ba dc 54 34 bb af ac 45 bb
       0.0009903434 -0.0005679832 -0.00275164 -0.0030162742
0003c0 a5 91 c0 b9 e1 81 4c 3a b0 23 8e ba 92 07 83 3b
       -0.00036729607 0.0007801336 -0.0010844376 0.003998705
0003d0 2c db b8 ba fa a5 d2 3a 47 7a 2b ba 94 84 78 ba
       -0.0014103404 0.0016071193 -0.0006541353 -0.0009480205
0003e0 b2 b7 ba ba de 8e 23 bb 50 82 fd ba b8 3a 4a 39
       -0.0014245419 -0.0024956982 -0.0019341204 0.00019286096
0003f0 5f 55 da 3b 21 19 26 3b d0 6b a6 3b a4 d0 49 bb
       0.006663009 0.0025344568 0.00507877 -0.0030794526

conv2d_1/Conv2D_bias f4 [16]
000000 c2 2d 6e 40 60 8b 8b bf e4 a7 2a 40 42 29 a8 3f
       3.7215428 -1.0901909 2.6664972 1.3137591
000010 00 2f 6d 40 35 93 00 3f 10 58 33 bf 68 6f d4 3e
       3.7059937 0.5022462 -0.7005625 0.41491246
000020 6f 2a e3 3f e4 7c 50 3c f2 d0 91 c0 9b f2 90 bf
       1.7747325 0.012725089 -4.556756 -1.1324037
000030 c1 37 e6 3e ce 47 0b 3e b8 56 33 3e 7b e0 92 3f
       0.44964412 0.1360161 0.1751355 1.1474756

conv2d_1/kernel f4 [16, 3, 3, 16]
000000 81 30 9e 3d 9c 19 1e 3d 49 fa 8a 3c 56 e3 b2 bc
       0.07724095 0.03859864 0.016965048 -0.021836918
000010 de 47 aa bd c1 c3 08 3e 28 25 41 3d a9 e2 a6 3e
       -0.08314489 0.13355924 0.047154576 0.32594803
000020 fe 5c 9b bd d6 60 48 bc 17 e7 07 3c 70 af 19 3d
       -0.07586096 -0.012230119 0.008294842 0.037520826
000030 10 d7 56 3c ae a2 e6 3d bc 7d 6c be d3 22 06 bc
       0.013112798 0.112614974 -0.23094839 -0.008187014
000040 b1 de 01 3d 49 84 d2 bd a8 f6 00 bf 10 c1 62 3e
       0.031706516 -0.10279138 -0.5037637 0.2214396
000050 e7 75 ae be 38 a1 19 3d 59 f8 c9 3d d0 e5 de be
       -0.34074327 0.037507266 0.09861822 -0.43534708
000060 2a c7 c6 bd eb d6 c0 bd 68 7f 5b be 30 d9 e3 be
       -0.09705956 -0.09415992 -0.2143532 -0.44501638
000070 06 71 e2 3d 43 c1 03 be fb 40 e1 bd 50 93 70 3d
       0.11056714 -0.12866692 -0.10998722 0.05873424
000080 38 be 8e be 8f 97 ed 3d 02 b9 d6 bc 73 ec 47 be
       -0.278795 0.11601173 -0.026211265 -0.19523792
000090 1d 62 d5 3d 40 be 0e 3d 36 35 80 3e fa 69 56 3e
       0.10419104 0.034849405 0.25040597 0.20938864
0000a0 c1 9b 24 3e da 9c 7d bd 9b 66 16 3c b3 94 c0 bd
       0.1607504 -0.061917163 0.0091797365 -0.09403362
0000b0 38 4d a2 be 58 5a a4 3b ef 3c eb 3d 2a 4a 15 be
       -0.31699538 0.0050156526 0.114862315 -0.14579073
0000c0 81 84 03 be 23 11 62 bd 02 5d 4b 3e 64 8f b1 3e
       -0.12843515 -0.055192124 0.19859698 0.3467971
0000d0 8c 5d a6 3d 30 97 ab bd 8e 2f 09 3e 5b 90 be bd
       0.081233114 -0.08378446 0.13397047 -0.09304877
0000e0 cb d0 b7 be ff 8a bc 3d f3 80 ad ba 0f 0b a1 3d
       -0.35901484 0.09206199 -0.0013237282 0.078634374
0000f0 91 46 ae bd bf 58 74 3e cc 25 99 be bb 40 26 be
       -0.08509553 0.23861979 -0.2991165 -0.1623563
000100 62 b3 25 be a6 fd c4 be aa b4 99 bd 8b 5c 93 3e
       -0.1618171 -0.38474768 -0.07505162 0.28781542
000110 09 d8 2d be e4 17 cc 3d 97 72 03 bf 1f 09 55 3d
       -0.16976942 0.09965494 -0.51346725 0.05201065
000120 31 8f 8a bd f8 73 3c 3e 67 43 d8 be ef 8f 71 be
       -0.06765593 0.18403614 -0.42238924 -0.23590063
000130 eb 78 d6 be 6b c2 15 bd 6f 3d d2 bd 8c 44 a7 3e
       -0.41889128 -0.036562365 -0.10265624 0.32669485
000140 69 36 08 be 34 66 83 3e eb 8e b2 3c c3 31 22 bf
       -0.13302006 0.25663912 0.021796664 -0.6335718
000150 19 96 0a 3e cc 83 12 3e 10 0e b5 bd 20 18 37 be
       0.1353382 0.14308089 -0.08840573 -0.17880297
000160 87 c3 45 be 9c bf 21 3e 2a 97 2f be cb 0c 06 be
       -0.19312869 0.1579575 -0.17147508 -0.13090818
000170 5d b3 13 bd 40 68 fa bd 62 b3 ad 3d 78 33 68 3d
       -0.036059726 -0.12226915 0.0848148 0.05668971
000180 b7 25 8f 3d e4 45 ea 3d 2e e4 97 bd 3d aa d2 bd
       0.069896154 0.11439112 -0.07416569 -0.102863766
000190 4b b1 a9 3c 75 38 f9 be 19 b1 2f bd 2b 25 4b be
       0.020714423 -0.48675886 -0.042893503 -0.19838397
0001a0 1b ee f2 3d 9d 8a 7b bd cf 5e 00 bd d2 23 8e 3d
       0.11861821 -0.06141149 -0.031340417 0.06940426
0001b0 3d 91 f4 3d e8 93 97 bc 5a c0 d4 bd b9 83 62 3c
       0.119417645 -0.018503144 -0.10388251 0.01382535
0001c0 1e 2d 45 3e ad f7 3c 3c 22 1e 35 3e f8 81 f7 bc
       0.19255492 0.01153366 0.17687276 -0.030213341
0001d0 5d 58 19 bd b7 b5 33 be 62 f2 33 be 4f d9 30 be
       -0.037437785 -0.17549787 -0.1757293 -0.17270397
0001e0 84 2b 24 be d4 3a 04 3d f1 19 3a bd 52 7d 0a bc
       -0.16032225 0.032282665 -0.045434896 -0.00845273
0001f0 f9 1b eb be 6b ba 61 bd bb 1d 3a 3d e4 22 27 bf
       -0.4591978 -0.055109423 0.04543851 -0.65287614
000200 a5 43 e0 3e b7 22 78 3e 8f ea 62 3d f3 94 d0 be
       0.4380161 0.24231993 0.055399474 -0.4073864
000210 81 7f 8b 3d 13 9a 05 bd 53 4f 4f bd 7c 25 b7 bc
       0.06811429 -0.03261764 -0.05061276 -0.022356741
000220 e9 a0 50 bd e4 f0 6c be 09 99 31 3e fb 15 16 3d
       -0.050934706 -0.23138767 0.17343535 0.036642056
000230 01 ed 93 3c 39 e8 38 be c4 97 11 3e 47 f2 de bd
       0.018057348 -0.18057336 0.1421805 -0.108860545
000240 7c 91 a3 3c 51 e3 29 bd 69 38 d9 bc 1a f4 c4 3c
       0.019966833 -0.04147655 -0.026516156 0.024042178
000250 35 ac 1b 3d 09 79 0a 3e 45 6d 51 3d 67 62 4f 3d
       0.038006026 0.13522734 0.0511296 0.050630953
000260 34 44 13 be 2b cf 1e 3d d9 e7 21 3c 26 6e 06 bd
       -0.14381486 0.03877179 0.009881937 -0.03281989
000270 53 3d 1a 3e b4 d6 45 3a a3 d2 9d 3d b1 6a fa 3d
       0.15062456 0.0007546947 0.077061914 0.12227381
000280 6d 0e 40 3d 38 8e ee bd 01 46 31 3e 07 b7 95 3d
       0.046888757 -0.1164822 0.1731186 0.073103
000290 2f 19 1b 3e 1b 58 f7 3d 45 95 af bc 6a 5e 76 be
       0.15146326 0.12077352 -0.021433482 -0.24059454
0002a0 28 39 fe bc 1d 83 69 3e 72 06 0e 3d 4d be 24 3e
       -0.031033114 0.22803922 0.034674115 0.16088219
0002b0 2c ae 4a 3d 41 72 2d 3d 9f ae 1b 3d 52 ea 85 3e
       0.04948251 0.04234529 0.03800833 0.26155335
0002c0 8e ab 9e 3d bd 5b 8d 3a fe 06 00 3e af 12 0c 3e
       0.07747565 0.0010784786 0.12502667 0.13679002
0002d0 6f 5d df 3d 07 12 36 3e d9 1f 20 3d 5c b5 14 be
       0.10906493 0.17780314 0.039092872 -0.14522308
0002e0 47 48 90 3d 9b 1e 28 3e 1f 7a ff bc f5 18 6f 3e
       0.07045036 0.16417925 -0.031186162 0.23349364
0002f0 d1 61 1a 3b 0c 80 70 bd 0b 7d e0 bc 9e d8 71 3e
       0.0023556838 -0.058715865 -0.027403375 0.23617789
000300 2d 27 a1 3d 89 d0 9b bd 1d bc 0a bd df 44 05 be
       0.078688 -0.07608134 -0.033870805 -0.13014553
000310 22 2a 99 bd 77 ba 2d be f2 e3 23 bd ef f9 72 3d
       -0.07478739 -0.16965662 -0.040012307 0.059320386
000320 98 ae 89 bd 54 ad ec bc c1 81 b9 3d 3c 15 9d bd
       -0.06722754 -0.028891243 0.09057952 -0.07670066
000330 47 1e a7 bd 28 c0 50 bd 33 91 29 3e aa ad 40 bd
       -0.08160072 -0.050964504 0.16559295 -0.04704062
000340 fa 5c e8 bc a3 ab 13 be eb 6e 65 3e 5b b2 2e bd
       -0.028364647 -0.14420943 0.22405593 -0.04265056
000350 f5 fb 96 3d e8 a4 89 be f2 fd f1 bd 2d f2 49 be
       0.07372276 -0.26883626 -0.11816014 -0.19721289
000360 d6 96 09 be 5c d9 37 3e 67 15 0e 3e b1 68 60 bd
       -0.13436446 0.1795401 0.13875352 -0.05478734
000370 ad 1a da 3b 03 5f b4 3c 76 9e 9e 3d 03 80 be bd
       0.006656012 0.022017961 0.07745068 -0.0930176
000380 c6 aa 7d bd 82 d1 d8 bd 7c 03 38 3e dc e7 10 3d
       -0.06193044 -0.105868354 0.17970079 0.03537737
000390 bb 9b 68 3d 93 b8 af 3b 91 dc 42 3a 7b 7a 87 be
       0.05678914 0.005362579 0.00074333797 -0.26460633
0003a0 0d 1f db bd 5a 9a 1c 3e e1 bf 87 3d b3 6e fa bc
       -0.10699282 0.15293255 0.06628395 -0.030570364
0003b0 c6 90 d5 3c 28 7e 0a bd 6e 59 4d bd 11 30 fb 3c
       0.02607001 -0.03381172 -0.050134115 0.030662568
0003c0 da a6 2c 3d 87 fc 25 3d 8e bb 83 bd ba ce 96 3d
       0.04215131 0.040524032 -0.064322576 0.07363649
0003d0 56 f8 f8 bd c8 e1 b2 3c fd 1e c1 3b 73 22 ac 3d
       -0.12156741 0.021836177 0.0058935867 0.08405008
0003e0 29 05 a4 3d 54 37 d3 bd 94 64 68 3d 21 58 71 bd
       0.08008797 -0.103132874 0.056736544 -0.058921937
0003f0 e9 6f 89 bd 90 a2 fa bd 78 22 a8 3d c5 e6 4a bc
       -0.06710798 -0.122380376 0.082096994 -0.012384121

conv2d_2/Conv2D_bias f4 [16]
000000 a8 b3 64 3f 33 46 81 3e cc 4a 76 be ca f4 a3 bf
       0.89336634 0.2524887 -0.2405197 -1.2809079
000010 61 aa c6 3d e8 32 64 3d b4 b1 c3 be 06 0d 6d bf
       0.09700466 0.05571261 -0.38221514 -0.92598
000020 40 60 40 bc 39 b0 93 3f 3f de 90 3f db 6a 7c be
       -0.011741698 1.1538154 1.1317824 -0.24650137
000030 74 c4 4f be 91 29 16 3e b9 18 19 3f 91 d3 89 bf
       -0.20289785 0.14664294 0.5980335 -1.076769

conv2d_2/kernel f4 [16, 3, 3, 16]
000000 07 fb f8 bd f1 91 be 3d 53 66 7b bd df 87 6e 3c
       -0.12157255 0.0930518 -0.06137688 0.014558761
000010 f7 5d 15 be 6c 30 0c 3d e6 78 fd 3d f2 ba 04 3d
       -0.14586626 0.034225866 0.12376575 0.032404847
000020 ba 31 b9 bd 51 bb 84 3d 70 ee 2c 3d 2a 1c 82 bd
       -0.09042688 0.0648104 0.04221958 -0.06353028
000030 dc 39 1c 3d d4 06 eb 3c ea 02 e7 bc 8e 57 ce bd
       0.038141116 0.02868978 -0.028199632 -0.100752935
000040 64 d5 8b bd b8 32 08 3e 18 9d 07 3e 4c aa 30 bd
       -0.068278104 0.13300598 0.1324352 -0.043131158
000050 53 f8 43 3d 1e 85 87 bc 12 89 b1 3d dc 0f 10 3e
       0.047844242 -0.016542967 0.08668722 0.1406855
000060 6a 1a dc bd 77 42 33 bc 35 40 83 3d ab a2 cd 3d
       -0.107472256 -0.010941139 0.06408731 0.10040792
000070 25 6c 98 3d c6 be 22 3d 2e 57 32 3d e9 c5 16 bd
       0.07442502 0.039732717 0.043540172 -0.036809836
000080 de 28 0b be 16 be 37 3e be d3 02 3e fa b8 7f 3c
       -0.13589808 0.17943606 0.12776086 0.015608067
000090 58 1c 09 3e e2 78 9d bc 31 2a 31 3c c5 a9 77 3d
       0.13389719 -0.01922268 0.010813282 0.06046464
0000a0 18 d1 ac bc 6e c4 3b bd 05 b2 8a 3d 0e 54 da 3d
       -0.021095797 -0.045841627 0.06772236 0.106605634
0000b0 cb 4d 4d bd a1 31 b2 3d 6b b5 c0 bc 35 07 9a 3d
       -0.050123017 0.08700872 -0.023524007 0.07520906
0000c0 cb 7b 3c 3c 38 f0 c4 3c 6f b6 97 bc f7 a4 72 3c
       0.011504124 0.024040326 -0.018519608 0.0148098385
0000d0 c0 87 e7 bc b7 e2 29 bd 49 79 79 bc fc 20 93 3d
       -0.028262973 -0.041475978 -0.015226671 0.07184026
0000e0 8c 66 0a 3d 1a 76 d9 3c 82 d8 e0 38 c2 3d 02 bd
       0.033789203 0.026545573 0.0001072148 -0.031797178
0000f0 80 06 9a 3c ce 78 e9 bd a4 92 a9 bd 75 22 5a 3c
       0.018801928 -0.11399995 -0.082799226 0.013313879
000100 0a 06 39 3d 6d b3 7a 3d 6e 93 03 3d e6 41 05 3d
       0.045171775 0.06120627 0.03212302 0.03253355
000110 40 a9 fd 3c 45 34 6c bd 0e 32 49 3d 52 3e 37 3e
       0.030964494 -0.057667036 0.04912 0.17894867
000120 2d 9d 82 3c 2d 22 04 bd d6 f9 2a 3c 2c 7b d3 3d
       0.015944088 -0.032259155 0.010435542 0.103262275
000130 da 83 e3 3c ac 28 9d bd 90 dd e6 bc f8 5e dd bd
       0.027772833 -0.07673773 -0.028181821 -0.108091295
000140 18 a3 33 bd 45 3b 0b 3c 47 8e 23 3c 30 87 e6 bc
       -0.04385671 0.008498018 0.009982652 -0.028140634
000150 b7 01 a1 3c 7f 59 13 bc db 81 38 bc 3d 3f 55 3d
       0.019654138 -0.0089935055 -0.011261429 0.05206226
000160 e2 5e ae 3c ed be b1 bc 4a 1e 3a 3d 84 71 8e 3d
       0.021285478 -0.021697486 0.045439042 0.06955245
000170 cd bd 94 bd 19 af 75 3c 30 22 86 bd cc 50 ce bd
       -0.07262764 0.01499536 -0.065494895 -0.100740045
000180 d9 7f b9 3d 30 b4 2b 3d 8e 4a ca bd 3b 77 07 be
       0.09057588 0.041919887 -0.098775014 -0.13229077
000190 2a 3a 0d bd c5 e1 32 3d b4 66 63 bd 5f 1c d0 bb
       -0.034479298 0.04367234 -0.055517867 -0.0063510383
0001a0 56 e5 4e bc 0d f0 a5 bd 10 e9 eb bd 7a 19 02 be
       -0.01262792 -0.08102427 -0.115190625 -0.12705031
0001b0 0f eb 18 3d 1a 44 36 be fd 45 bf bd 0b ba 2a 3d
       0.037333544 -0.17799416 -0.09339521 0.04168133
0001c0 37 ad 86 3d a3 b2 9f bd bb be b4 bd 33 ad a7 bd
       0.06576007 -0.07797744 -0.088254414 -0.08187332
0001d0 ec 21 11 3d 3c d7 a0 bd 54 51 52 bd 15 f0 d6 3c
       0.03543274 -0.07853553 -0.05134709 0.026237527
0001e0 35 16 b3 3d c9 cd c5 bd 79 d7 d5 bd ad 19 f6 bb
       0.0874447 -0.09658391 -0.10441489 -0.007510385
0001f0 b7 73 03 3a e9 88 13 be bc 09 53 ba e6 36 4b bd
       0.0005014496 -0.14407696 -0.0008050462 -0.049612902
000200 d4 5f a5 3d e5 d2 09 be f8 0b 2d 3d 17 e3 6a bd
       0.080749184 -0.13459356 0.042247742 -0.057345476
000210 25 58 c4 bc d0 16 7f bd 17 68 c3 bd ab 4f 3b 3c
       -0.023967812 -0.062277615 -0.09541338 0.011432569
000220 21 60 4f 3d 09 75 8a bc 1d 01 a4 bb 08 69 15 3d
       0.050628785 -0.01690151 -0.0050050155 0.03647712
000230 f9 8c 89 bd 50 af fc bd d9 50 e6 bd ee a2 4d 3b
       -0.067163415 -0.12338126 -0.11245889 0.0031377631
000240 79 5e d8 3c e1 45 e7 3d ec 79 59 bd 17 bd 50 bd
       0.026412236 0.11292625 -0.05309479 -0.05096158
000250 84 ac d0 bd a2 26 79 bd 86 2c 2c be ec 6b 1f 3d
       -0.10189155 -0.06082786 -0.1681386 0.03892128
000260 17 76 b3 bc 44 8a 11 3e 83 3e 8f 3a f3 9d 94 3c
       -0.021906896 0.142129 0.0010928664 0.018141722
000270 94 5b ee bd 89 cc 81 3d 27 83 09 3e ec 66 05 be
       -0.11638561 0.0633784 0.13428937 -0.13027543
000280 59 e0 f1 3d bd 11 32 bd 30 9d 5b bd 7e ea e3 3d
       0.11810369 -0.043473948 -0.053616703 0.1112871
000290 10 0b 0b 3e 7d 71 8a 3d c5 8a f7 bd f3 48 bb bd
       0.13578439 0.067599274 -0.12087015 -0.09144773
0002a0 36 06 d8 39 95 1b 71 3c 9c 6d 7d bb b4 a3 98 3b
       0.00041203358 0.014716049 -0.0038670069 0.004658187
0002b0 e7 22 86 bd 4d 65 20 bd 6b 5e 6e 3c 99 97 5c be
       -0.06549626 -0.039159108 0.014548878 -0.21542205
0002c0 a2 16 a1 bd 4e 83 13 bd 13 fa 9b 3d cc ca ba bd
       -0.07865645 -0.036013894 0.07616057 -0.09120712
0002d0 cf 01 3b be fc 75 82 3d fa 5b 42 3e 16 db cc bd
       -0.18262409 0.0637016 0.18980399 -0.10002725
0002e0 79 09 30 3d 08 a6 8c 3c 13 67 a6 bc 9c a5 c4 bc
       0.042977784 0.017169014 -0.020312821 -0.02400475
0002f0 32 92 91 3c c7 4d be bd 0e c6 f9 bc a6 a0 16 3e
       0.017769907 -0.092921786 -0.030489948 0.1470972
000300 f2 7d 8e 3e 07 02 e5 3d b6 ff a8 bd b3 fc 24 3e
       0.27830464 0.11182027 -0.08251898 0.16112022
000310 ef 22 c2 3d 1d 30 ab bd 2c 96 8d bd 42 07 93 3d
       0.09479319 -0.08358786 -0.06913409 0.07179119
000320 c5 90 18 3e 3b 4f 3e bc 95 f9 e7 3d 48 25 5c 3c
       0.14898975 -0.01161557 0.11326901 0.013436623
000330 a5 54 34 be 1c 6f 49 3e 82 f8 f3 3d 8e 12 55 be
       -0.17610414 0.19671291 0.119126335 -0.2080786
000340 ce a6 2d 3c 3c c9 2c bd 33 7c db bd 8c 02 5e bd
       0.010598851 -0.0421841 -0.107170485 -0.054201648
000350 90 86 80 3e 5e ed 45 bb ef 36 6d bd 46 b4 19 bd
       0.25102663 -0.0030201296 -0.057913717 -0.037525438
000360 80 41 81 3c 8a 73 c9 bd b5 2e b0 3c c2 5d 5f 3d
       0.015778303 -0.098364905 0.021506647 0.054532774
000370 09 b9 f3 bd 22 15 f8 bd f4 2a 8f bb 9e 28 78 be
       -0.11900527 -0.12113406 -0.004369134 -0.24234244
000380 0f 72 57 be c0 04 f9 bd 90 69 78 3e c5 59 31 be
       -0.21039604 -0.12159109 0.24259019 -0.173194
000390 c4 5f 85 be 8e 26 08 3e 7f 14 9c 3d b1 a5 5e bd
       -0.26049626 0.13295957 0.07621097 -0.054357234
0003a0 c9 b5 31 3e 90 b1 51 3c 9a 1f 01 3d ec 7e 87 bc
       0.17354502 0.012798682 0.03152428 -0.016540013
0003b0 21 84 ab 3d 20 45 82 bb e8 74 41 bc c4 a6 80 3e
       0.08374811 -0.0039755255 -0.011807658 0.25127232
0003c0 58 fc 0a 3e 59 cd b9 bd 10 4b ff bd 89 62 24 3e
       0.13572824 -0.0907237 -0.12465489 0.16053213
0003d0 a0 96 57 bd 07 a9 00 be 5e da e9 bc 5d 68 c5 bd
       -0.05263388 -0.12564479 -0.028546508 -0.09639046
0003e0 1f 12 c1 bc 3a 70 f6 bc e9 62 df 3c a2 c5 29 3c
       -0.023568211 -0.03008281 0.027268844 0.010362061
0003f0 90 91 22 be ba c7 c5 3d d6 c7 1a 3d 86 f8 35 bd
       -0.1587584 0.096572354 0.037788235 -0.044426464

conv2d_3/Conv2D_bias f4 [32]
000000 c3 df ab 3f e5 48 8b 3e ff 9c d7 3f 06 4e bc bf
       1.3427662 0.27204052 1.6844786 -1.4711311
000010 ea a8 0d 40 32 a7 c6 3f 99 6d 6a bf 9a 1b fd 3f
       2.2134347 1.5519774 -0.9157348 1.9774048
000020 e9 0f a4 3f 10 26 49 3f 27 c9 9a be e8 f4 dd 3f
       1.2817355 0.78573704 -0.30231592 1.7340364
000030 f4 09 c2 3d 90 44 30 bf 64 1c f1 3f a8 06 e5 3e
       0.09474555 -0.6885462 1.8836789 0.4473164
000040 4c 08 1d 3f 73 52 e3 be 1f b6 d0 bf 05 3d a8 3d
       0.61340785 -0.4439884 -1.6305579 0.082147636
000050 99 aa c0 3e 20 18 06 bf d0 61 b7 3e 49 f0 64 3f
       0.37630156 -0.5238056 0.35816813 0.89429146
000060 18 e6 de 3e 2c 66 d4 3d cb 0d 34 40 97 49 5e 3e
       0.43534923 0.1037105 2.8133419 0.2170776
000070 02 51 37 3f 50 ad a8 3f 6b 83 14 be 56 c7 6c 3f
       0.71607983 1.3177891 -0.14503257 0.9249166

conv2d_3/kernel f4 [32, 3, 3, 16]
000000 a7 95 80 bd 04 35 4d 3c 5d 61 f6 bc b9 dd e5 bd
       -0.06278544 0.012524847 -0.030075723 -0.11223931
000010 e3 c5 10 bd 7f 66 31 be 74 3a 11 3d 9b 5e fe bd
       -0.03534497 -0.17324255 0.035456136 -0.12420388
000020 5d 35 41 be e4 6f 64 3d a6 bd dc 3c ff e3 93 3d
       -0.18868013 0.05577077 0.0269459 0.07221221
000030 0d 8b 16 3c d0 f3 b9 3d f2 75 53 3d 75 13 bd 3d
       0.009188426 0.09079707 0.051626153 0.09232227
000040 b3 1d e6 bd 48 58 02 3c b9 7a 2a bc 65 4b fd bd
       -0.112361334 0.007955618 -0.010405236 -0.12367896
000050 2c 9a 41 bd cc b6 24 be 4c c9 19 3d bd d1 30 be
       -0.04726617 -0.16085356 0.037545487 -0.17267509
000060 2a 22 0a be be 05 c9 3d 58 43 2b 3c ab f6 12 3d
       -0.13489595 0.09815548 0.010453068 0.035879772
000070 26 d4 0e 3d b3 8a 16 3e d0 f0 c0 3d 8d 00 ba 3d
       0.03487029 0.14701347 0.09420931 0.09082136
000080 6d 0a 83 bd 15 42 f3 3c 4c dc 02 3d a9 aa c6 3d
       -0.06398473 0.029694596 0.031948373 0.097005196
000090 c0 d5 78 bd 3c 8e fb 3d 09 05 a5 bc 6a f5 4b bd
       -0.060750723 0.122829884 -0.020144003 -0.049794592
0000a0 a4 fa 16 bd a9 29 55 bd 1f f5 0d 3b 9c 9a 13 bc
       -0.036860123 -0.052041683 0.0021660996 -0.00900903
0000b0 2d f9 15 3d 3d d1 93 3d d0 8c d9 3c f3 00 e3 3c
       0.036614586 0.072176434 0.026556402 0.027710414
0000c0 61 ec 22 3d 02 ee 57 bd c9 8f c4 bd 1a a3 98 bd
       0.03977621 -0.052717216 -0.09597737 -0.07452984
0000d0 0d b6 2a 3d dd 47 3d be 3a 79 7e 3c 38 10 cc bd
       0.041677523 -0.18484445 0.015531832 -0.09964031
0000e0 ac 5b 0c bd b0 b0 c0 bd 41 49 fd bd 92 8f 10 3c
       -0.034267113 -0.094087005 -0.12367488 0.008823292
0000f0 59 b3 6b 3d b1 5b c0 3d 97 f7 5b 3d c9 ce fe bc
       0.057544086 0.09392489 0.053702917 -0.031104462
000100 8e 56 68 bd f2 3b 86 bc 07 57 f7 bd 1f bb 1b be
       -0.05672317 -0.016386006 -0.12077146 -0.152081
000110 5a 49 a4 3d dc ac 9d be 9c ac 91 3d 73 39 52 be
       0.08021803 -0.30795944 0.07113001 -0.20529728
000120 5b e1 f1 bd 49 6d d4 3b f1 23 0d be 38 43 23 3d
       -0.11810561 0.0064827544 -0.13783242 0.039859027
000130 7b 0d 67 3d dc 02 01 3e e4 c6 4b 3d 52 d4 98 3d
       0.05640934 0.12598747 0.049750224 0.07462372
000140 21 9a 02 be b9 fd 85 3c a1 7b d7 bc 0e 0c 98 bd
       -0.12754108 0.016356336 -0.026304068 -0.07424174
000150 66 0f 21 3d 59 54 94 bd 3a a5 33 3b 8d ac 1c be
       0.039321326 -0.072426505 0.0027411715 -0.15300198
000160 22 c0 d4 bd 32 6d 49 bd d6 fa 27 bd a4 fe 24 3c
       -0.10388209 -0.049176402 -0.0410107 0.010070477
000170 59 42 4b 3d 0f a9 7a bc a9 b7 b8 3b 8b bf f1 3d
       0.04962382 -0.015299096 0.0056371284 0.11804112
000180 95 39 31 3e 79 ac 81 3c e9 e8 23 3d c9 50 a5 3d
       0.17307122 0.015829312 0.040017042 0.08072049
000190 a8 d8 ca 3d 46 2e 82 bd 00 48 10 be d4 8e 1f 3d
       0.09904605 -0.06356482 -0.14089966 0.03895457
0001a0 9c b4 a8 3d 12 fd cc bd c2 56 35 be cf 8f 90 3d
       0.082375735 -0.10009207 -0.17708877 0.07058679
0001b0 0a 23 78 3d ad 6c e1 3d 9f 74 9c 3d e9 d1 12 3d
       0.06058029 0.110070564 0.07639431 0.035844717
0001c0 d7 4a 43 3c 98 eb a8 3d 1f 8b 5c bd 25 31 63 bb
       0.011919699 0.08248061 -0.053843614 -0.0034666744
0001d0 12 91 aa 3d 1f 4c a0 be b6 13 17 3d d0 cd b1 bd
       0.08328451 -0.31308076 0.036884032 -0.08681834
0001e0 67 51 09 bd 36 d3 18 bd ba 5f 9f bd 6b f5 d3 3d
       -0.033524897 -0.0373108 -0.0778193 0.10349544
0001f0 54 d7 22 3c 22 58 fa 3d 37 f5 af 3d d7 74 3d 3e
       0.009939034 0.12223841 0.08591693 0.18501602
000200 4d 13 cf bd 48 dc ff 3d 5f cf 46 bd 52 06 8c bd
       -0.10111103 0.12493187 -0.04853761 -0.06837143
000210 d7 9f d9 3c 53 6b 22 be e0 bf 46 3d c5 90 db bd
       0.026565475 -0.15861253 0.04852283 -0.10720972
000220 8f 32 10 be 2d 98 58 3d bb c8 7b 3d 62 16 e4 3d
       -0.14081787 0.0528795 0.06147073 0.11137082
000230 7d 3c ae 3c 4d 5c 09 3b 24 e8 0c 3e 86 55 39 3e
       0.021269077 0.0020959557 0.1376043 0.18099031
000240 92 d9 1e 3d ac 03 4b 3d 83 aa 51 be 54 e8 4b b8
       0.03878171 0.04956405 -0.20475201 -4.8615344e-05
000250 95 21 6c 3e e9 54 52 3d 50 30 3a be 86 0a 7f 3c
       0.23059686 0.051350508 -0.18182492 0.015566474
000260 cc f1 8c bd e0 e6 5a 3d e8 42 91 bd 17 dc f9 bd
       -0.068820566 0.053442836 -0.070928395 -0.12200182
000270 81 4a 18 3d 07 f4 2c bd b6 45 15 3d c5 48 cc 3c
       0.037180427 -0.04222491 0.036443435 0.024937043
000280 3e 85 ba 3b 84 b6 ab bc 24 0a 49 3e 93 a7 dd 3c
       0.0056921532 -0.020961054 0.19632775 0.027057445
000290 18 10 ab be b5 65 9e 3c 71 77 19 3d 7a 50 b9 bc
       -0.33410716 0.019335607 0.037467424 -0.022621382
0002a0 43 eb a1 3d 35 d1 6c bd d4 ca f5 3d 5e 53 1f 3d
       0.07906201 -0.057816703 0.12001577 0.038897865
0002b0 64 9c b7 3b 04 0a c9 bc 84 85 82 bd b1 b5 08 bd
       0.00560336 -0.024540909 -0.06373122 -0.0333764
0002c0 7e ba f7 3b 34 12 05 bd 90 ba a2 3c 73 96 09 3b
       0.0075600734 -0.032488063 0.01986435 0.0020994216
0002d0 db db fd 3c 64 f8 fa bc e8 53 68 3d 74 7c 28 3c
       0.030988624 -0.03063602 0.056720644 0.010283578
0002e0 3d ba 49 bc 33 73 94 3d 5e ce 75 bd dc e7 1a 3d
       -0.012312469 0.07248535 -0.06001126 0.037818775
0002f0 1e a8 79 3c da cb aa bc e1 52 a0 bd 46 b5 a8 3a
       0.015237836 -0.020849157 -0.07828308 0.0012871407
000300 f2 51 d7 bd e6 97 2e 3e 97 e4 b9 be 36 a3 93 bd
       -0.10513677 0.17050132 -0.36307213 -0.072088644
000310 41 e5 a7 3e 9f cb 57 3d 7d ce 2a be 7a c3 54 3d
       0.32792094 0.052684423 -0.16680332 0.051944233
000320 3a 82 96 bd 79 ba 9d 3d e1 f4 3f be 8c f6 4e bd
       -0.073490575 0.077015825 -0.18745758 -0.050528094
000330 4d bc e4 3b 66 11 b6 bc 4c c1 97 3d fe ce bd 3d
       0.006980455 -0.022225093 0.07409915 0.09267996
000340 c2 83 c6 3c 95 ce ba bd 74 37 8e 3e 1e 83 dd 3d
       0.024232749 -0.09121434 0.27776682 0.10816024
000350 48 c5 d7 be e4 31 96 bd ae 72 72 3e 31 c4 a1 bd
       -0.421427 -0.07333735 0.2367656 -0.07898749
000360 a0 d0 46 bc 8a f9 e7 bd 5d e0 1e 3e 0f 11 44 3c
       -0.012134701 -0.11326893 0.15515275 0.011966958
000370 b3 47 e5 bc ff eb 53 3c 7d 47 75 bd 17 5f c7 3b
       -0.02798829 0.012934684 -0.05988263 0.0060843336
000380 8b 1b 73 3d 39 dd 32 bc 10 70 79 ba 75 3a 1b bd
       0.05935244 -0.010917001 -0.0009515295 -0.037897546
000390 4b b4 a0 3d c2 8c 40 bd d5 1b 22 bd 84 43 3d 3d
       0.07846888 -0.047009237 -0.039577324 0.046206966
0003a0 15 28 7b 3c 40 ad 82 3d 5e ee 6f bd 49 b6 55 3d
       0.0153293805 0.06380701 -0.058576934 0.052175794
0003b0 b3 1e be bc 03 b7 69 3c c4 06 29 bd 2c d0 3d 3d
       -0.023207998 0.014264825 -0.041266218 0.046341106
0003c0 6b 91 9a bd 79 c2 93 3d 60 ac f9 bd da 3c 18 bd
       -0.075472675 0.07214827 -0.12191081 -0.037167408
0003d0 23 28 4a 3e 70 5c d2 bc e1 34 3f bd 33 83 82 3d
       0.19741873 -0.025678843 -0.04668129 0.063726805
0003e0 34 56 4b bd e0 62 88 bd a4 ab 83 bd 9a f0 43 3d
       -0.049642757 -0.06659484 -0.06429222 0.047836877
0003f0 2d 34 b0 bc 4d 2b 92 bc 68 7f b2 bc cb 80 a7 3c
       -0.021509254 -0.017842913 -0.021789268 0.020447155

conv2d_4/Conv2D_bias f4 [32]
000000 42 10 c4 3f f0 f6 00 bf de c2 44 3f 0e 5f 3e bf
       1.5317461 -0.50376797 0.76859844 -0.7436379
000010 1c 83 24 3f 7c bd ce be 6a e5 6a 40 a0 e7 31 bd
       0.6426256 -0.4037894 3.6702523 -0.043433785
000020 b6 ac 68 40 d3 55 f1 bf b3 b7 e7 3e 9c 82 e8 3f
       3.6355414 -1.8854316 0.4525734 1.8164859
000030 93 88 ba 3f 3c db f5 3f 8e 52 dc bf 01 14 84 bf
       1.4572929 1.920753 -1.7212694 -1.0318605
000040 4e 92 53 40 49 3b 3d 3f 8e 5a 91 3e 47 20 1d 40
       3.3058047 0.73918587 0.283894 2.455095
000050 4a 76 1a c0 ac b4 b6 3f 04 b0 b9 3f fb a7 23 3e
       -2.4134698 1.4273887 1.4506841 0.15982048
000060 96 c6 36 be 55 a9 8d 3f dc b8 98 bf 20 3f 86 bf
       -0.17849192 1.1067301 -1.1931415 -1.0488014
000070 26 9a 47 40 bd af 97 be 18 1d db 3f 46 d0 78 3f
       3.1187835 -0.29626265 1.7118254 0.971928

conv2d_4/kernel f4 [32, 3, 3, 32]
000000 05 ed 85 be 09 66 ec bd 03 f5 24 3e 8e 27 dd bb
       -0.26157394 -0.11542899 0.1610909 -0.0067491
000010 68 20 a0 bd 10 6c 1d be 70 37 59 3d c8 fc 46 3e
       -0.07818681 -0.15373254 0.053031385 0.19432366
000020 89 e5 9b 3c d3 a8 93 3c b0 70 0c bd 5a 99 9e 3c
       0.01903035 0.018024838 -0.034287155 0.019360233
000030 79 d2 70 3c 59 7b 83 be dc f8 0a 3e 3c e1 c1 3d
       0.014698618 -0.25680044 0.13571495 0.09466788
000040 2f 55 ec bd 86 15 b8 bd 88 e4 85 bd 7c 68 dd bd
       -0.11539685 -0.0898848 -0.065377295 -0.108109444
000050 cb ff f4 bd 92 5c 45 be 94 12 75 be 32 86 e9 bd
       -0.11962851 -0.19273594 -0.23932868 -0.11402549
000060 37 a2 64 be 56 8e 33 3e 40 54 4d 3e 5e 50 f7 bd
       -0.22327505 0.17534766 0.2005167 -0.12075876
000070 6e 6d 33 bd aa 89 a3 bd 8e 18 b9 bd 0a 4b 80 be
       -0.043805532 -0.07985242 -0.090378866 -0.2505725
000080 ae 1a b8 3d 42 5e 8b bd a5 c6 9d 3e 8c 41 8d 3d
       0.08989464 -0.068050876 0.30815616 0.06897268
000090 e9 50 4d be 3e ea 1e be a7 16 12 3e a6 32 17 be
       -0.20050396 -0.15519044 0.14266454 -0.14765415
0000a0 56 17 fa bd 81 2b 75 3c 7f b4 d5 bd 64 db 34 3b
       -0.12211482 0.014963985 -0.104348175 0.0027596587
0000b0 bc ff 91 3c 47 bb 30 3c e7 9a 11 be a4 16 dc bd
       0.017822139 0.010786838 -0.14219247 -0.10746506
0000c0 01 07 aa 3d e4 63 33 be 5f 28 ea bd 7f 9f d5 bd
       0.08302117 -0.17518574 -0.114334814 -0.10430812
0000d0 63 c8 34 bd 88 e9 3e be 75 fd 0d be fd 31 41 3d
       -0.044136416 -0.18643773 -0.13866217 0.047166813
0000e0 d2 3b fa bd 91 41 33 bd 1b 62 46 3e 94 06 b0 3c
       -0.12218441 -0.0437637 0.19373362 0.021487512
0000f0 41 e5 64 bd 5c 41 81 bd ee 24 e7 bd 59 b2 e4 3b
       -0.055882696 -0.063112944 -0.11286341 0.0069792685
000100 f5 13 9e 3d 36 24 8f 3d 6c 8a 06 3e 10 f3 86 3e
       0.0771865 0.069893286 0.13138741 0.26357317
000110 ca b5 11 3c 5f 16 80 bd c1 6f ab bd 00 ab 9e be
       0.00889344 -0.06254267 -0.08370925 -0.30989838
000120 8a 9c 98 be f9 e2 3e 3d ec 3d a4 bd b1 8f 0e be
       -0.2980693 0.046603177 -0.08019623 -0.13922001
000130 0d 31 8f 3d 82 40 b6 3d 9d ec 52 be cb 22 6e be
       0.069917776 0.08899023 -0.20598073 -0.2325546
000140 ab 1e 53 bc 0b 0b 2e 3e 7d ab 76 bc 30 8e b3 bd
       -0.01288573 0.169964 -0.015055534 -0.087673545
000150 de 9d 10 be f2 05 8f 3c 46 31 c5 3d 71 e9 92 3d
       -0.14122722 0.01745889 0.09628539 0.07173432
000160 dd 38 4c bd 24 97 a1 bd 19 78 f8 bd 0a 3f 65 3d
       -0.049858917 -0.07890156 -0.12132282 0.05596832
000170 3c 8a da 3d 47 22 6b 3a 4d f8 9b bd bb 2b 7f 3e
       0.10670897 0.00089696463 -0.07615719 0.24919026
000180 05 a9 4d be 10 2f 4f be c0 e6 de 3d 50 70 af be
       -0.20084007 -0.20232797 0.10883856 -0.34265375
000190 97 c2 f7 bc 1d ec 19 be c3 9b 8e bd d3 17 ec 3e
       -0.030244155 -0.15031476 -0.06963303 0.46111926
0001a0 f5 87 70 3d d3 21 16 be 26 9c 99 bc 22 f8 39 bd
       0.05872341 -0.1466134 -0.018751215 -0.045402654
0001b0 f5 ad 35 bd cd 2d 00 be 50 4f 81 3e b8 e2 12 3e
       -0.04435535 -0.12517472 0.25255823 0.14344299
0001c0 4a 19 8c bd c8 6b e9 bd c8 ce 1d bd 7c 24 ac 3c
       -0.06840761 -0.11397511 -0.03852728 0.02101349
0001d0 04 92 0c 3d 4a 1c 04 3d 29 3a 73 be 4c 05 9f 3b
       0.03431894 0.03225354 -0.23752655 0.0048529264
0001e0 c1 42 71 be 7d 9a 2c 3e 72 eb c8 3d 0d 84 48 be
       -0.23560621 0.16855808 0.09810533 -0.19581623
0001f0 93 57 32 bc bd bc 72 3e d6 84 03 bd e6 8b 8b be
       -0.010885137 0.2370481 -0.032109104 -0.27255172
000200 d6 ff 5e 3e d8 32 35 be 24 fb 56 3e f8 1c 06 be
       0.21777281 -0.17695177 0.2099424 -0.13096988
000210 fc dd 75 be 7c 5e be 3d cc dd e9 3d 13 db 84 bc
       -0.24010462 0.09295365 0.114192575 -0.016217744
000220 ef bf 2a 3d 00 d4 0e 3d d4 8d 0d 3b 39 ca ad bd
       0.04168695 0.034870148 0.0021599429 -0.084858365
000230 87 e5 d2 3b f1 56 65 3d d6 3a 9b bd 95 8c cb bd
       0.006436053 0.055991117 -0.075795814 -0.09938923
000240 44 01 76 3d d3 8c 8d be e0 40 89 bc 69 f5 67 3c
       0.0600598 -0.27646503 -0.016754568 0.014157631
000250 97 7b 17 be 07 de 13 3d 33 fa c7 bd 2a 4d a4 3b
       -0.1479324 0.036100414 -0.097645186 0.0050140815
000260 ec 71 08 3d 26 f4 d7 bd f2 d4 1d 3e 6b b7 53 bd
       0.03331177 -0.105446145 0.15413263 -0.051688593
000270 25 1d 9d bd d6 a4 8c 3e 61 ba 1c bd 52 0c 75 3d
       -0.076715745 0.2746951 -0.038263682 0.059826203
000280 c2 0f 3c 3e 61 30 c6 3d 06 d2 1a 3d d6 d1 11 3e
       0.18365386 0.09677196 0.03779795 0.14240202
000290 d0 4a a8 be 89 5d 8e 3d 44 7d 88 3c eb 69 76 be
       -0.32869577 0.06951434 0.016661294 -0.24063842
0002a0 47 f0 8b bc 8e f5 8c 3e 7b b2 9a bb 2c 5a 68 3d
       -0.017082347 0.27531093 -0.0047209836 0.05672662
0002b0 3c 08 7b 3d 4e 8d 54 3e ed 20 af be 01 db cd bd
       0.06128715 0.20757028 -0.34204808 -0.10051537
0002c0 41 6d 0e bb 0b c6 89 3d 4b e5 5c 3d f5 b5 5d 3d
       -0.00217326 0.06727227 0.05392961 0.054128606
0002d0 e6 18 a6 3b 99 4e c5 3d 80 62 b5 3c ea 4e 29 3d
       0.005068886 0.09634132 0.022141695 0.041335024
0002e0 a7 7c af 3e fe 7b 2b be d3 1d 9d 3b a1 cb f4 3c
       0.3427479 -0.16746518 0.004794815 0.029882254
0002f0 0b f7 e6 3d cf 0e 3e 3e 3a ce 37 bd 98 76 0f 3e
       0.112775885 0.18560337 -0.044874407 0.14010084
000300 93 f7 f8 bd 7b ae 14 be 96 7c 88 bd ea 08 07 be
       -0.12156596 -0.14519684 -0.06664388 -0.13186994
000310 4c d3 6d 3e 6d 5b 37 be b5 08 17 bd f3 8e 42 3e
       0.23225135 -0.1790597 -0.036873538 0.18999843
000320 a2 49 0a be cb e9 62 be 42 ab 3f 3d ec ab 94 bd
       -0.13504651 -0.22159497 0.046794184 -0.07259354
000330 f5 f8 0a be 3c 0b ed bd ee 0a 57 3e a0 9e 8c bc
       -0.13571532 -0.115744084 0.21000263 -0.017165482
000340 c7 dc 00 be 7a 14 c5 bd 47 1e 1d bb ae 05 71 bb
       -0.1258422 -0.09623046 -0.0023974346 -0.0036777067
000350 cc 8d d7 3b bf c5 42 3d 4c 23 5a be 1c c4 9a bc
       0.006578183 0.047551867 -0.21302527 -0.01889234
000360 0a 78 01 bc e3 b7 22 3d 96 b8 36 3e 53 ec 5f be
       -0.007902155 0.03972615 0.17843851 -0.21867494
000370 d8 ab ed bd 4b f5 f6 3d 9a df 2d be c5 04 f4 bd
       -0.11605042 0.12058505 -0.16979828 -0.11914972
000380 a5 e5 74 3e 8d 1e 48 be b5 73 f6 3d 61 98 b2 3c
       0.23915727 -0.19542904 0.12033788 0.021801176
000390 7d 45 41 3e dd 7f 38 be e7 c8 e8 3c b2 29 04 be
       0.18874164 -0.18017526 0.02841611 -0.1290653
0003a0 03 95 1f be c3 6f e9 bd 0f 16 a7 3d 59 de a3 3d
       -0.15584187 -0.1139827 0.08158504 0.08001394
0003b0 7b 99 16 3c 26 50 e9 3d ae 4f 2e bd ae 5f 0d be
       0.009191866 0.1139224 -0.042556457 -0.1380603
0003c0 fa 31 9e 3b c5 fd 75 be 0c 9a 0b bd 90 2f 21 3e
       0.004827735 -0.24022587 -0.034082457 0.157408
0003d0 b2 83 42 be 6c 64 af 3d 7c 31 93 be 4b 16 81 bd
       -0.1899555 0.08564076 -0.2874869 -0.0630308
0003e0 b4 c0 15 3d 59 49 7d 3c 79 57 5e bd 1f d0 13 be
       0.03656073 0.015459382 -0.05428264 -0.1443486
0003f0 84 40 b5 bd b3 08 01 3c be 0a 38 bc 28 92 65 3d
       -0.08850196 0.007875609 -0.01123303 0.05604759

conv2d_5/Conv2D_bias f4 [32]
000000 0c 18 4a bc ef 92 10 3b 84 e8 27 3e cc f8 f8 bd
       -0.012334835 0.0022060235 0.16397291 -0.12156829
000010 58 1d a6 bd 2d 14 15 be f2 89 b6 bc ad 57 0f 3e
       -0.081110656 -0.14558478 -0.022282574 0.1399829
000020 34 1c 9f 3e fc 51 d5 bd 1f 09 d2 bd e5 32 80 bd
       0.31076205 -0.10416028 -0.10255646 -0.06259707
000030 81 fe 50 be dd 67 11 bd 97 98 80 3d b8 44 9c 3d
       -0.20409586 -0.035499442 0.06279104 0.076302946
000040 b2 17 b2 3c bf 5e af bd e9 7c 58 3e 85 f8 20 3e
       0.021739814 -0.08562993 0.211414 0.15719803
000050 d4 fc 87 be 7e 38 ca 3d 85 82 13 3e c6 69 18 be
       -0.2656008 0.09874056 0.14405258 -0.148841
000060 d2 9a 92 3c 67 3b 60 3d 45 32 7b be 19 11 16 bc
       0.01789609 0.05474415 -0.24530895 -0.00915935
000070 52 eb 4a 3e 6d 83 76 be 1b 91 c1 3d b3 e5 81 3e
       0.1981633 -0.24073572 0.09451505 0.2537056

conv2d_5/kernel f4 [32, 1, 1, 16]
000000 99 62 1f 3e 94 45 77 bc 4a fd b4 bd 4c b5 62 bd
       0.15564956 -0.015092272 -0.088373736 -0.05534868
000010 11 0a bf 3d fd 3d 30 3e a9 bf 86 3e b1 13 fd 3d
       0.09328092 0.17211147 0.263181 0.123572715
000020 9f 9a 80 3d da e1 17 3c 48 7b a8 3d 24 df 64 be
       0.06279492 0.009270156 0.08226639 -0.22350746
000030 77 37 00 3d 88 21 34 be 58 88 fa bd 29 81 4a 3c
       0.031302895 -0.17590916 -0.12233037 0.012359896
000040 95 52 6a bd f5 e2 d9 3d 93 d4 dd 3d 68 5b 2c be
       -0.057207663 0.10638992 0.10831561 -0.16831744
000050 4f 05 c7 bb 48 8e 37 3c 06 96 cd bd 49 8d c3 3d
       -0.006073631 0.011203356 -0.1003838 0.095484324
000060 39 d1 9a 3c 4b 78 49 bc cb 15 6b 3d f9 0c 53 bd
       0.018898593 -0.0122967465 0.05739383 -0.051526044
000070 52 63 79 3d 50 4c 24 3d ae 40 55 bd 57 c0 1a 3e
       0.060885735 0.04011184 -0.052063636 0.15112434
000080 a0 87 9e 3e 99 20 1c bd 46 9c 64 3d 37 3d 4a bd
       0.3096285 -0.038117025 0.055813096 -0.049374785
000090 d5 3a b6 3c 5b 6e 42 3c ea b7 74 3d 9a b8 e8 bd
       0.02224485 0.011867131 0.059745707 -0.11363335
0000a0 7c 81 86 3d a0 a3 ab bd a3 a2 40 bd 42 2d e8 3c
       0.06567666 -0.08380818 -0.047030102 0.028341893
0000b0 4f 03 35 3c 21 0d 89 3d 51 39 1e bd 39 01 34 3d
       0.011048152 0.06691957 -0.03862888 0.04394648
0000c0 dd dd 8e 3e e0 30 49 3e db f8 9a 3c eb ef c2 bd
       0.27903643 0.1964755 0.018917492 -0.09518417
0000d0 d0 3d e6 bd 57 98 64 3d 51 81 38 bd 50 4c f3 3d
       -0.112422585 0.055809345 -0.0450452 0.1187979
0000e0 84 08 7d 3e ac 1f ba bd 0d 46 4b 3c ba be d0 3d
       0.2471028 -0.09088072 0.012406838 0.10192628
0000f0 9c 1a f9 3d 3d 9e ce 3d 97 c3 4f 3d eb c6 90 3d
       0.121632785 0.10088775 0.05072364 0.070691906
000100 e2 64 80 3d f7 b5 31 be 0b dd 16 be 52 25 ef bd
       0.06269242 -0.1735457 -0.14732759 -0.1167704
000110 1b aa 91 bd a9 8d 0e 3f 1c d6 9c 3d 2a 96 41 3e
       -0.07112523 0.55684906 0.076580256 0.1890494
000120 ca c0 44 3e 5e 2a 2b be 36 58 18 3c e5 7b 83 be
       0.19214168 -0.1671538 0.009298375 -0.25680462
000130 7b dd f7 bd ae 4f 06 3c 36 b5 d0 bd a7 56 83 be
       -0.12102791 0.008197708 -0.10190813 -0.25652048
000140 15 ee 53 3b 24 25 1a 3c ff 40 8e 3d e0 e5 57 bd
       0.0032337953 0.009408269 0.06945991 -0.05270946
000150 6f 00 02 3e c4 68 cb 3d b6 8b f2 3b 94 d8 f6 bc
       0.12695478 0.09932092 0.0074019087 -0.03013257
000160 12 82 d6 bc 4a 24 20 bd 94 0c 3f 3d c5 91 d2 3c
       -0.02618507 -0.039097108 0.046642855 0.025704274
000170 c3 5a 83 3c e1 a9 43 3c 69 64 a0 3d fb cc 10 be
       0.01603449 0.011942358 0.07831652 -0.14140694
000180 7b 56 ac 3c 5a 3d e6 3d 7f 47 45 3e 05 0a ef bd
       0.02103733 0.11242171 0.19265555 -0.11671833
000190 0f ce b4 3d 1f 14 49 3e 0d b5 a4 bd e4 89 37 be
       0.08828365 0.19636582 -0.08042345 -0.17923695
0001a0 9f 93 1c 3c 65 dc 0e bb 81 55 66 3e 4b dc af be
       0.00955668 -0.0021798846 0.22493555 -0.34347758
0001b0 42 89 a9 3e c6 e7 a5 bd 66 39 b8 3d 99 f3 06 be
       0.33112532 -0.08100848 0.08995323 -0.13178863
0001c0 a1 f3 82 bd d3 c1 ad bd ec 51 9a 3d b3 32 12 be
       -0.06394125 -0.08484235 0.075351566 -0.14277153
0001d0 82 29 a6 3d b9 c2 51 3e f6 69 2a be 48 8d 1d bd
       0.08113386 0.20484437 -0.16641983 -0.038464814
0001e0 11 44 d0 bd aa 4b 37 3d 5a e0 98 3e 82 3b 5f 3e
       -0.10169233 0.044749893 0.29858667 0.21800044
0001f0 b7 57 64 3d 32 1b 93 ba 29 6f 1d 3e d4 29 a7 bd
       0.055747714 -0.0011223315 0.15374435 -0.08162275
000200 41 b8 b4 bc bd d3 cc 3d 99 5b 7f 3d cf 8d 60 bd
       -0.022060515 0.10001323 0.062343214 -0.05482274
000210 0b c4 e5 bd 8a 18 8e 3d 7f 37 d1 bc a2 41 a9 3c
       -0.11219033 0.06938274 -0.025539158 0.020661179
000220 d3 b7 21 bc a3 47 98 3d 51 8e 9c bd 84 95 86 bb
       -0.009870487 0.074355386 -0.07644332 -0.004107179
000230 71 c0 fb bd 96 f6 6d 3d 53 f2 02 3e 95 6a 9a bd
       -0.12292565 0.05809649 0.12787752 -0.0753986
000240 42 a4 ce 3d 1e 38 12 bd cb 81 ec 3c 87 c8 6c bd
       0.100899234 -0.03569805 0.028870484 -0.057808425
000250 64 d3 60 3c 47 e6 22 be db f4 98 3d 03 7c 22 be
       0.013722274 -0.15908156 0.074685775 -0.15867619
000260 14 07 5a be 91 5e 2b 3e ec 96 df 3d e7 a3 1c 3e
       -0.21291763 0.16735293 0.10917458 0.15296899
000270 e8 a0 80 3d 56 67 d7 3c b4 59 02 3e 85 13 4e 3d
       0.062806904 0.026294392 0.12729532 0.050311584
000280 29 d3 25 be db fc 6c be b7 a1 1e be 32 81 a5 bd
       -0.16193832 -0.23143332 -0.15491377 -0.08081283
000290 3a 61 ac bd c4 01 0e be fe 06 44 3d cb 7f 68 bd
       -0.08416982 -0.13867861 0.04785823 -0.056762498
0002a0 19 a0 1a 3e fa 67 71 be bc c0 42 bd bb 07 1a be
       0.15100135 -0.2357482 -0.047547087 -0.15042011
0002b0 9d 96 d6 3d 1e 94 3a be 8a d5 7a be 86 2e 1e be
       0.10477946 -0.18220565 -0.24495521 -0.15447435
0002c0 dd dc f1 be c7 0a 8b 3d 88 90 ec 3d a1 e6 44 be
       -0.47238818 0.06789165 0.11551005 -0.19228603
0002d0 d6 dc 09 be 0e 1f b7 bd 54 d7 95 3e 4d c8 f7 bb
       -0.13463148 -0.0894147 0.29265845 -0.0075617195
0002e0 2f 60 2b bd 2d ca 48 3e 39 26 bf bd b7 2a 67 3e
       -0.041839775 0.19608374 -0.09333462 0.22574888
0002f0 b0 18 8a be 10 9b 0f bc f9 3c 84 3e 07 e0 9e be
       -0.2697196 -0.008764997 0.25827768 -0.31030294
000300 20 a1 8e 3d d2 09 be 3d 6b 99 1c 3d 4e 69 ac bd
       0.06964326 0.09279217 0.03823225 -0.08418523
000310 25 00 a0 bd 38 58 13 3e 62 1f 4d be 83 a4 34 3d
       -0.078125276 0.14389122 -0.20031503 0.044102203
000320 f2 95 55 bc 86 d1 be be 27 dd d0 bc 11 74 71 3d
       -0.013036238 -0.3726923 -0.025496079 0.05894858
000330 32 2b b6 3d 64 d9 a1 3d f8 b8 2b bd be b7 86 3c
       0.088949576 0.07902792 -0.041924447 0.016445037
000340 88 c0 af bd af ce 52 3d a4 e3 a3 3c e6 cc 39 3d
       -0.08581644 0.05146664 0.020006008 0.045361422
000350 89 30 d7 3d 93 30 cc bd e4 93 76 3e 8d b2 de 3b
       0.10507304 -0.09970202 0.24079853 0.0067961873
000360 85 f0 ed bd 6b 76 fc 3d ac f3 8f bd a3 a0 0b 3d
       -0.11618141 0.12327274 -0.070288986 0.034088742
000370 0c 54 c3 bd a4 9f c2 bd 97 2b 63 3d 37 74 21 be
       -0.09537515 -0.09503105 0.055461492 -0.15766989
000380 18 9b a7 bd 05 1b 58 bc 37 60 6f 3c 93 36 5a 3e
       -0.08183879 -0.013190036 0.014610342 0.21309881
000390 6b 76 87 bd 66 a8 ea bc dc 81 56 be 2d 28 ee bd
       -0.06614383 -0.028644752 -0.20947975 -0.11628757
0003a0 53 b6 7d be d8 0a 2c 3e 26 4b 60 3e 18 d4 3d bd
       -0.24776582 0.16801012 0.21903667 -0.046344846
0003b0 ef b0 32 3d 26 01 56 bd aa 31 8f 3d 7e 67 ab 3d
       0.04362577 -0.05224719 0.069918945 0.08369349
0003c0 c8 d1 c3 3d e2 08 e5 3d ac d8 2b 3e d3 a5 79 3e
       0.09561497 0.11183335 0.16781873 0.24379663
0003d0 fd d2 e1 3d 5e ab 2e be e9 07 80 3e 4d b1 a3 bd
       0.11026571 -0.17057559 0.25006035 -0.07992802
0003e0 8b 2e fc 3d 5e a4 b2 3d 5d 44 18 3e df 2c 29 3a
       0.12313565 0.08722757 0.14869829 0.00064535247
0003f0 56 29 06 3f 71 f3 90 bc a1 7c a2 3d e5 2f df 3a
       0.52406824 -0.017694207 0.07933927 0.0017027823

conv2d_6/Conv2D_bias f4 [64]
000000 c4 ad 1d 3f 94 55 a0 3f c6 57 c4 3f 21 5b 81 bf
       0.6159327 1.2526116 1.5339286 -1.0105935
000010 74 74 20 be 44 47 b0 3e 80 e6 83 3f af 8b d9 bf
       -0.15669423 0.3442937 1.0304718 -1.6995753
000020 da 6e 9d 3e 2c bf ba 3e 80 82 d8 3f c2 fc 3c be
       0.30748636 0.36473978 1.6914825 -0.18455794
000030 a2 25 10 3f b6 46 79 3e c2 6e bb 3e 94 30 ab 3f
       0.56307423 0.2434338 0.3660794 1.33742
000040 f0 61 8f bc 83 b1 0a bf 88 05 53 3e 66 3b 68 3f
       -0.017502755 -0.5417711 0.20607579 0.90715635
000050 00 40 62 38 e9 de 88 3f 5e 97 1a bf 98 03 d1 bf
       5.3942204e-05 1.0693027 -0.6038722 -1.6329222
000060 b0 02 bb 3f 42 6d 69 3f e2 77 d5 3e d6 cf 72 3f
       1.4610195 0.9118234 0.41693026 0.9484838
000070 32 0a 1d bf a6 94 87 bf 85 18 ed be 07 8f eb bf
       -0.6134368 -1.0592239 -0.4630777 -1.8403023
000080 1e 29 cf bf 50 e8 a7 bc 76 ea 33 3f 52 7c 72 bf
       -1.6184423 -0.020496517 0.70279634 -0.9472095
000090 2e 22 af 3f dd e2 2d c0 3a b1 8a be b7 1d 03 40
       1.3682306 -2.7169716 -0.27088338 2.0486887
0000a0 b8 5b a1 3e ae d5 c1 3f 75 b7 d8 3f 64 3c bc be
       0.31515288 1.5143335 1.6930987 -0.36764824
0000b0 56 44 5e be fd 06 b2 be 71 4a fd 3f c4 a8 dd 3d
       -0.21705756 -0.34770957 1.9788343 0.10823205
0000c0 cc 9d d5 bf 08 ba 16 be 99 d3 b1 3e a3 8d 08 3f
       -1.6688781 -0.14719403 0.3473175 0.5334112
0000d0 5e b9 63 bf 72 53 c0 be c0 3d 63 bf e2 84 8c 3f
       -0.8895472 -0.37563664 -0.887661 1.0978053
0000e0 6d 84 a8 bf a8 ab 65 3f ca 1a 46 bf 16 f3 36 3f
       -1.3165413 0.8971505 -0.77384627 0.7146467
0000f0 3f 18 b9 be f7 c1 f9 bf 30 2a 0e 3f 43 b7 9d 3f
       -0.3615131 -1.9512318 0.55533123 1.2321552
