closed/Qualcomm/code/AIMET/KWS/trained_models/kws_model_source_h5_test_save.tflite (tflite, 94572 bytes, 20 tensors)

conv2d/Conv2D_bias f4 [64]
00000000: 2a25 8ebd 68cd 4c3b b302 9dbc 7f0d 6dbd
00000010: 0aa5 6dbd 8663 babd 561c 193d 73ce a5bd
00000020: b6d7 73be bf4e 1e3e 0cd3 7bbe 84e7 28be
00000030: 9d42 4bbb 008e 24be a83b 2ebe 0011 d239
00000040: 275d 3fbd ff11 f7bc 7464 193e 5317 933c
00000050: 96d5 8ebe bdb4 f63a a38e 233e 7f21 263d
00000060: 2aeb 9fbd f975 afbc f97e bf3d 8808 e0bd
00000070: fd7e 973d c49b 033e f511 923d a779 60be
00000080: c157 263d a806 24be 7b7a bc3d 5992 88bd
00000090: 4e7d 19be 670b 5f3d c2d1 38bd cbf3 33bd
000000a0: 2c6a 373d bd98 c2bc 2121 7b3e ebf1 31be
000000b0: 48ef aa3d 4133 83bd a4f6 c13c 4b61 69bc
000000c0: 561d 173d 8e11 033e c448 ea3d dc7c 1abb
000000d0: a13e 9fbc 5ce7 a43d ccd4 d13c 339f 353d
000000e0: 27da a33c 9065 b73b e215 2fbd 928a 23be
000000f0: d9fe 1fbe 9e12 62bd a225 61be 4669 a03d
-0.06940682 0.0031250361 -0.019166326 -0.0578742 -0.05801872 -0.09101014 0.03738054 -0.08096018
-0.23812756 0.15459727 -0.24592227 -0.16494566 -0.0031015046 -0.16069794 -0.17014945 0.00040066987
-0.046719696 -0.030159948 0.14979726 0.017955458 -0.27897328 0.0018822175 0.1597238 0.040559288
-0.07808526 -0.021418558 0.0935039 -0.10939127 0.07397268 0.12852389 0.07132331 -0.21921407
0.040611032 -0.16018164 0.09203049 -0.066685386 -0.14989206 0.054454233 -0.045121916 -0.04393367
0.044778988 -0.023754472 0.24524356 -0.1737744 0.083464205 -0.0640626 0.023677178 -0.014244388
0.03689321 0.12799665 0.1143966 -0.0023572957 -0.019439043 0.08051941 0.025614165 0.044341277
0.020001484 0.005596824 -0.04274548 -0.15970829 -0.1562456 -0.055193536 -0.21987012 0.07832579

conv2d/kernel f4 [1, 10, 4, 64]
00000000: 454e c53c 04c0 0ebc b3a1 123d 38c7 1cbd
00000010: 5599 46bb 8a5d f93b 81a3 1cbd 6477 9db7
00000020: 67ab 123d a553 133c b34e 133b 9e04 fc3a
00000030: 72ad 3fbb fae8 663c 17e4 d03c ea91 dd3c
00000040: 45e9 cbbc 30de 70bc eb97 9e3b a36c 66bc
00000050: fda1 853b 2e53 22bd 828f 42bc 30b9 573c
00000060: 6ef8 3fbc 2020 29bd 5125 1d3c 548f eb3b
00000070: 5485 83bc bb18 4e3d 7b80 b43d 7a3e 223d
00000080: c211 493c 0cb8 16bd 6482 85bc b473 313c
00000090: ebea ccbc 94d2 19bc fb31 09bd 02f9 173c
000000a0: 3cc5 5c3d fdce 353c 4ee1 f8bc c015 eb3b
000000b0: d4ee 1fbc 7c69 ae3c 1fc3 4ebc 8b06 6c3c
000000c0: bb0c 7c3c baed d53c fe52 fbbc 81bf 55bd
000000d0: 3fb4 95bc 75fe 1cbd bb6b b53c eca8 3d3b
000000e0: 75a5 81bc 227a d8bc 5c16 613d 1594 4a3c
000000f0: 2bf7 b3bc b1ab 363c 52f9 953c a8c6 edbc
00000100: a798 c03c 12e5 9fbc 7fc8 bdbc 0a8f 263c
00000110: 4452 c3bc 3b99 303d 913f 583d 0dd1 083d
00000120: ccf5 c5bb 41e5 10bb b8f4 143d e722 b03b
00000130: 60c6 8e3b 2e97 cfbc 1756 763c 4aaa 0a3a
00000140: f3a7 0e3c bf4f 31bb 16a2 0dbd 8325 c3bc
00000150: 4cb4 9abb c08b 47bc dc40 1d3d 0e92 b8bb
00000160: 63af a1bc e25e 883d cc4d b93c f29f 023c
00000170: 1b31 203c 84f2 5abc 64de 6b3c a35c fd3b
00000180: fcab 093d f2a5 89bc 0bfe 3fbd 3ded fa3c
00000190: 0dc7 eb3c c5c3 ebbb a283 8cbd f8b3 2b3b
000001a0: f816 383d 4d88 1e3d 0069 4ebb 44fc 9ebb
000001b0: 6778 2a3d 62df 5a3c 4dbc c5bc fc28 9e3c
000001c0: a39c 6dbc df24 1dbc fc20 6ebc 9497 563d
000001d0: 8348 dabb 0e2c b03c 5e5d 35bc b00e ef3c
000001e0: c05d f43b 1750 c8bc 1f1b 76bd a12b e53c
000001f0: aa13 2d3b 64d1 133c f99d 23bc 73a1 64bc
00000200: e1e4 f3bc 8499 a4bc 8d06 5d3c b813 afbc
00000210: e7b1 65bc 5d99 933c 31d0 9ebc 1919 eabc
00000220: 8488 103d 8534 91bb 8e0a 1b3d e459 a13d
00000230: 6deb 05bd 4b87 d73c 8ce7 093d b767 713c
00000240: a45f 4f3c bbfe c7bb 309f 833d b62a 86bc
00000250: 4461 2d3c 11a8 9f3d c49d 43bd c1b2 31bc
00000260: d662 9cbd 6c21 293d 7e6d a7bc d503 b83c
00000270: b904 a83c 3067 063c 7ea8 d13c fc0e a73c
00000280: b5e9 3c3d a812 cf3c c754 f3bb 8078 98bd
00000290: 1822 e1bd fd2b d239 9f56 093b 0358 f53c
000002a0: 6d06 40bc 659d 3ebc 86f3 c43c bf5d 7fba
000002b0: 3f26 45bc 60ab b23c 854d 933d 17c7 56bc
000002c0: a1eb a9bd 479d fbbb 98bf 69bd 8d5c 4cbd
000002d0: 85e1 143d 2963 6ebd 27cf ecbc eb67 823d
000002e0: 0ea3 41bc 87e5 4e3d 0d14 ad3d b495 86bd
000002f0: 555b c53d 1206 53bd 7bc2 a5bc 68b0 553b
00000300: 6979 11bd 45bd 8bbd 1d92 cabb 754c 5d3c
00000310: d096 ef3c 9dbe 9c3c 43ea 1bbd d187 de3d
00000320: 488d abbc 0d22 083c a165 273c fe01 d1bc
00000330: 4415 6c3c c588 ac3c a641 9cbd 206c e5bc
00000340: dea7 823c 20e2 27bb c2f0 dd3c 8508 5cbc
00000350: a42b 7ebc 3ea0 a63c 7682 fcbc 7574 ec3c
00000360: 5e67 3f3d fc85 62bc 9c63 d03c f4eb fabc
00000370: 0ca7 cdbc bc14 edbb f96b e2bd acb0 a43d
00000380: b65e 003c f3d6 a33d 61d2 403d a751 e5bd
00000390: d450 4ebd 1313 853c df73 c83c 076e 5ebd
000003a0: 8991 3a3e 5588 c9bc eb35 e93c 0777 bcbb
000003b0: 6ebe fe3b 51be 29bd 140d 64bd 5637 12bd
000003c0: 172e 843d f548 1d3d 8508 083d c1f2 cc3c
000003d0: f75a a5bc a614 013d 0bf3 b3bc 106b 723d
000003e0: e7b0 643d 8b54 253c 89cd 98bb 6127 d13d
000003f0: 6857 e7bc 42f8 e4bc d39b debc 3939 b53c
0.024085173 -0.008712772 0.03579874 -0.038275927 -0.0030303795 0.0076100277 -0.038241867 -1.8771454e-05
0.035807993 0.00899211 0.0022477328 0.001922745 -0.0029247669 0.014093632 0.025499387 0.027047116
-0.024891505 -0.014701411 0.0048398874 -0.014063987 0.0040781484 -0.039630108 -0.011875035 0.013166711
-0.011716945 -0.041290402 0.009591416 0.007188717 -0.016054787 0.050316554 0.08813568 0.039610364
0.0122723 -0.036796615 -0.016297527 0.010830808 -0.025014361 -0.009388585 -0.03349493 0.009275677
0.053899035 0.011096713 -0.030380871 0.0071742237 -0.009761531 0.021290533 -0.012619763 0.014405857
0.015383895 0.026114333 -0.030679222 -0.052184585 -0.018274425 -0.038328607 0.022146096 0.0028939797
-0.015825966 -0.026425425 0.054952964 0.012364407 -0.021968445 0.011149333 0.018307362 -0.02902539
0.02351029 -0.019518409 -0.023166893 0.010165939 -0.023842938 0.043114882 0.052794997 0.03340249
-0.006041264 -0.0022109302 0.036366194 0.0053752544 0.0043571442 -0.025340643 0.015035174 0.0005289657
0.008707034 -0.002705559 -0.034578405 -0.023821598 -0.0047212 -0.012179315 0.038391933 -0.0056326455
-0.019736951 0.066587225 0.022620104 0.007972704 0.009777333 -0.013363484 0.014396284 0.0077319904
0.033611283 -0.016802762 -0.046873134 0.030630702 0.028781438 -0.0071949684 -0.068610445 0.00261998
0.04494378 0.038704205 -0.003149569 -0.0048518497 0.04161873 0.013358923 -0.02413764 0.019306652
-0.014502677 -0.00959131 -0.014534231 0.05239065 -0.006661476 0.021505382 -0.011069624 0.029181808
0.007457465 -0.024452252 -0.06008446 0.027974905 0.0026409426 0.009022091 -0.009986394 -0.013954508
-0.029772224 -0.020092733 0.013490331 -0.021371707 -0.014019466 0.018017465 -0.019386383 -0.02857642
0.03528644 -0.0044313096 0.037851863 0.078784734 -0.032695223 0.02630963 0.033668086 0.0147342
0.01265708 -0.0061033643 0.06426847 -0.016377788 0.010582272 0.07795728 -0.04775788 -0.010845841
-0.07636039 0.04129164 -0.020437952 0.022462765 0.020510064 0.008203313 0.025593039 0.020392887
0.046121318 0.02527745 -0.0074258777 -0.074448586 -0.10992831 0.00040087095 0.0020956171 0.029949194
-0.011720282 -0.0116342055 0.024041902 -0.0009741447 -0.012033044 0.021810234 0.0719252 -0.01310899
-0.08296896 -0.007678661 -0.057067484 -0.04989295 0.036347885 -0.058200035 -0.028907372 0.06367477
-0.01181866 0.050511863 0.0845109 -0.06571522 0.09636561 -0.05151946 -0.020234337 0.0032606367
-0.035516176 -0.0682321 -0.006181969 0.013506998 0.029246718 0.01913386 -0.038065206 0.10865749
-0.020941392 0.0083089 0.010217101 -0.025513645 0.014409367 0.02106131 -0.07629709 -0.02800566
0.015949186 -0.0025616959 0.027092341 -0.013429766 -0.015513334 0.020340081 -0.030823927 0.028864125
0.046729438 -0.01382589 0.025438122 -0.03063009 -0.025104068 -0.0072351377 -0.110557504 0.0804151
0.007835081 0.07999983 0.047075633 -0.111972146 -0.050370052 0.016244447 0.024469314 -0.05430415
0.1821958 -0.024601141 0.028468093 -0.005751494 0.007774166 -0.041441265 -0.055676535 -0.035697304
0.064541034 0.038399655 0.03321125 0.025018098 -0.020184977 0.031513833 -0.021966478 0.059184134
0.05583277 0.010090957 -0.0046631736 0.10212589 -0.02823992 -0.02795041 -0.027173912 0.022122012

conv2d_1/Conv2D_bias f4 [64]
00000000: f742 a63e 257e 19bd 508d e73e 49b6 5c3e
00000010: 7677 4a3e cc26 e33e a837 923f 8ec6 5c3f
00000020: 4887 97bf ebb3 6e3d 5b6b 973e e37f ab3e
00000030: a4ab c7be d9b2 d13c 4004 593e 238b a3be
00000040: 17b1 8d3e 4a34 18bf a92c b33d 695e 81bf
00000050: 9423 2d3f 0ddf 243f b5ce 443f f868 4b3e
00000060: 5160 d13e 860e 963e 88b8 d23e 6d0b 2d3e
00000070: ebac 7ebf e925 8fbe f9dc c93e cdf6 25be
00000080: 845b 6bbe 0026 26be 393a 4e3e 3864 a53d
00000090: 4f45 2abd 1496 39be 36f9 92be 8489 443f
000000a0: bf37 3f3f 080a 57be 8fc1 093f 70b5 3d3e
000000b0: 6ba3 a43e 2011 7f3e d188 ef3e 724b 8d3e
000000c0: 73e7 dbbd 09a8 983f f500 a0be 049a 143e
000000d0: 4fe6 a23e 6b4b c33e 5753 8f3e 2aa1 e4be
000000e0: 4170 2e3f c114 d23d 08af fd3e 71ff 343f
000000f0: 0400 ad3e 08b5 a6bc 3144 293f 89a5 55bc
0.32472965 -0.037473816 0.45225 0.21553911 0.19772133 0.44365537 1.1423235 0.8624047
-1.183816 0.058277052 0.29574093 0.33496007 -0.3899814 0.025597977 0.21193027 -0.3194209
0.2767417 -0.59454787 0.087487526 -1.0106937 0.6763241 0.6440285 0.7687791 0.19864261
0.40893796 0.29307956 0.4115641 0.1689889 -0.994826 -0.2795861 0.394264 -0.16207428
-0.22984129 -0.16225433 0.20139398 0.08075756 -0.041570004 -0.18123657 -0.28705758 0.7677233
0.74694437 -0.2099992 0.5381097 0.18526244 0.32155928 0.24908876 0.4678407 0.27596623
-0.10737505 1.192628 -0.3125073 0.14511877 0.31816337 0.38143477 0.2799327 -0.44654208
0.68140036 0.10257865 0.495476 0.7070227 0.33789074 -0.020349994 0.66119677 -0.013039955

conv2d_1/kernel f4 [64, 1, 1, 64]
00000000: 582c ddbb 6c1f 283d 910d 48be 97b4 373d
00000010: 02fb 0abc f5e3 bcbb 7e89 66bd be87 863e
00000020: e978 123e b012 57be efa4 de3b ab21 673d
00000030: ce7d 24be 6ac3 943e 89f4 51be 17fa f8bd
00000040: 662a 833e 9415 0d3c 09c9 2f3e c9b0 2b3e
00000050: 5f5b 81be eb79 8cbb 7102 91be 4761 14bc
00000060: f9a3 313e cbde d2ba 846c 2bbe b3a2 483e
00000070: 37e6 a23e 4869 46be 2be7 eb3d 0db3 933d
00000080: 8682 16bd 4e56 cd3d 8322 a53d 4caa 3f3c
00000090: 49e6 59bd 1573 a3bd 635e aebd 1afc f73d
000000a0: 572b 413e 9ebc 233e 6545 793e 3278 36bc
000000b0: eb66 c03e 1b7b bfbe 59fe 8dbe ac9b 98be
000000c0: 459e 8cbe d427 80be 6f0f 37be 431c aa3b
000000d0: 21ee fcbc 90ce 44be 163a 4c3d 691c 86be
000000e0: b2ea 2abe d786 16be 68cb 663e 4dd9 3bbe
000000f0: a347 1b3e 8428 33be e989 ae3c 2e95 1abe
00000100: 29a1 d5bd 1a5e 17be 592d 18bd ff51 fc3d
00000110: 210c 7a3e 60e6 93bd 1409 823c 447d 4dbd
00000120: 3813 62b9 2a1f 613e 9ffb d3bd 78f1 7ebd
00000130: 1550 013e aded 313e 91ce 063e 345f 6d3e
00000140: 00f3 023c 5581 5bbe 4ee0 3f3d 6532 fb3d
00000150: e980 45bc 1bf6 b1bd df81 93bd 88e2 543e
00000160: dab6 c1bd c579 713d eb9c bc3c aa4d 2e3e
00000170: 2bb5 17be ec50 1e3c 6aa2 a33d 07cc d9bd
00000180: 4db6 d8bd 7898 253e 1f4c 743e eff6 a8bd
00000190: 15d7 9bbd 16b4 743e 3c65 acbe 9577 60be
000001a0: 3ca8 2f3b 0676 223e 6306 2fbd 893e 5c3e
000001b0: 1fae b3bd 5b88 5e3e 2f8d 323e 2b18 ab3d
000001c0: e935 6a3e 1ca9 8a3c 26d6 383e a064 1bbe
000001d0: 6bae 23be 60ea 153e e655 a0bd d488 783e
000001e0: f36a 55be 69a5 33be 4c0c 63be 3344 63bd
000001f0: 39db 073e b16f 0bbe a299 39bd e908 ddbd
00000200: c11c 813d bd7d 4e3d c5f2 783d a0f2 2dbd
00000210: 7096 a5bd 6a8c 1bbc f354 fdbd b515 49be
00000220: 4fcb a73e 6833 47be 18c4 debd cc3f f2bc
00000230: 49f1 ae3d 0cf7 88be 17ce f2bc 47b4 ab3b
00000240: 779c 4cbe 7ed2 7b3d d806 73bd c90d 1ebe
00000250: add8 8e3e 6a19 38be 4b61 ac3d 29c7 47be
00000260: 798c 1cbd 4e82 07bd 3783 afbb f643 343e
00000270: 27e3 c73c 629e 163e 7ce6 073e 1d83 40be
00000280: 3420 acbd 5cab 223c 9980 ed3c 0c2c 2a3d
00000290: 4407 d9bd e17e 253e 98fc f53d 9c86 61be
000002a0: 138e 88be 055a 21bd 7b59 18bd cb3d 143e
000002b0: e75e 5b3d 4a0c 73be 948c 1b3e 40c7 a03d
000002c0: 5ada 173d 18eb 14be 236a afbd 2377 bb3e
000002d0: aa9d 41be 0881 383d 11ab 28be 2bf4 253e
000002e0: bfed d43d b809 d1bd f573 8f3d 96c6 30bd
000002f0: bc3b 663d 36be 573d 8e38 1abe a97c e3bd
00000300: 3d64 4bbc d984 e8bc e16e 883d 26bb 623e
00000310: 53fa 37be ecc5 adbd 4c9b 6ebe 5f05 6ebc
00000320: 75a0 7a3e 4aef 3abe d272 dd3c c344 d53d
00000330: b7ff 853d 6d81 57be d103 083b 5b4e 893d
00000340: 9799 d5bd 347e 0cbd d3aa 15be a61c cabe
00000350: 8627 acbd ce86 943b b9fc 09bb 4d21 13be
00000360: ad99 9c3d dab8 6d3e 48a0 cd3d 6aea f73c
00000370: 6718 d0bd a75f 2b3e 2a80 e8bd ae8f e63d
00000380: dce9 a6bd fd86 903d d5c2 a0bd f356 32bd
00000390: 7186 4a3d 2242 91be 9bbc d3bc b9d8 b4b8
000003a0: d407 3e3d 505f 183e ba1e 2fbd 2563 863d
000003b0: ac37 483d b039 14be 9021 10bd 1a77 4bbb
000003c0: 7866 f5bc 7f76 24be ee88 21be 4c3a 02be
000003d0: aee4 0a3d b7cf fc3d c7ff 8fbe 81df 68be
000003e0: ceea f23d d81b 8e3e 111b 01bd 4dd8 dcbd
000003f0: a5ca bfba 6ae7 5dbd 9a8f 8dbc bfd9 4b3e
-0.006749671 0.04104559 -0.19536425 0.04484996 -0.0084826965 -0.0057644793 -0.056283467 0.26275438
0.14303936 -0.21003222 0.006794564 0.056428593 -0.16063616 0.2905534 -0.20503439 -0.12157076
0.25618285 0.008611102 0.17166533 0.16766657 -0.25265023 -0.0042869947 -0.28322175 -0.009056396
0.17347707 -0.0016088126 -0.16740614 0.19593315 0.31816265 -0.19376099 0.11518701 0.072118856
-0.03674557 0.10026227 0.08063223 0.011698317 -0.053198133 -0.079809345 -0.085140966 0.121086314
0.18864189 0.1598992 0.24342878 -0.011137055 0.3757852 -0.3739861 -0.27733114 -0.29806268
-0.274645 -0.25030386 -0.17876981 0.0051913573 -0.030875267 -0.19219422 0.049860083 -0.2619355
-0.16691092 -0.14699875 0.22538531 -0.18344612 0.15164046 -0.17495924 0.021305995 -0.1509597
-0.104311295 -0.1478199 -0.037152622 0.12320327 0.2441869 -0.07221675 0.01587347 -0.05016829
-0.00021560199 0.21984544 -0.10350727 -0.062242 0.12628205 0.17375822 0.13164736 0.23180848
0.007992506 -0.21436055 0.046844773 0.12265471 -0.01205466 -0.08689519 -0.07202505 0.2078954
-0.09458704 0.05895402 0.023024043 0.17021814 -0.14815204 0.009662848 0.079899624 -0.10634618
-0.10581646 0.16171443 0.23857163 -0.08250224 -0.07609383 0.23896822 -0.33670986 -0.21920617
0.0026803156 0.15865335 -0.0427307 0.2150823 -0.08773445 0.21731703 0.1743667 0.08354219
0.22872128 0.01692634 0.18050441 -0.15175104 -0.15984504 0.14640188 -0.07828884 0.24270946
-0.20841579 -0.17543568 -0.2217266 -0.05548496 0.1326722 -0.13616826 -0.04531253 -0.10792715
0.063043125 0.050412882 0.060778398 -0.042467713 -0.08085334 -0.009493927 -0.123697184 -0.19637187
0.327723 -0.19453204 -0.10877246 -0.029571436 0.08542115 -0.26750982 -0.029639287 0.0052399966
-0.19981562 0.061480038 -0.0593327 -0.15434946 0.27899686 -0.17978445 0.08416995 -0.19509567
-0.038219903 -0.033083253 -0.005356218 0.1760405 0.024400307 0.14708856 0.13271517 -0.18800016
-0.0840458 0.009928551 0.028991984 0.041545913 -0.10597089 0.16161682 0.12011069 -0.22024006
-0.26670894 -0.03939249 -0.03719471 0.14476697 0.053557303 -0.23735157 0.15190345 0.07850504
0.03707347 -0.14542806 -0.08565166 0.36614332 -0.189078 0.04504493 -0.16471507 0.16206424
0.10396909 -0.10206932 0.07004539 -0.043158136 0.05620931 0.052671634 -0.15060636 -0.111077614
-0.012414035 -0.02838366 0.066617735 0.22141704 -0.17966585 -0.08485016 -0.23301429 -0.014527648
0.24475272 -0.18255344 0.02703229 0.10413506 0.06542914 -0.21045466 0.0020754228 0.06704398
-0.104296856 -0.034300044 -0.14615946 -0.39474982 -0.08405976 0.0045326715 -0.0021055175 -0.14368172
0.07646499 0.23215047 0.10040337 0.030263145 -0.101609044 0.16735707 -0.1135257 0.112578735
-0.08150074 0.07056997 -0.07849661 -0.043539952 0.04944462 -0.28370768 -0.02584677 -8.6234366e-05
0.046394184 0.14880109 -0.042753913 0.06561879 0.048881218 -0.14475131 -0.035188258 -0.0031046332
-0.029956087 -0.16060828 -0.15774891 -0.12717551 0.033909492 0.12344306 -0.2812483 -0.2274151
0.11861192 0.27755618 -0.031519953 -0.107834436 -0.0014632536 -0.05417577 -0.017280389 0.19907282

conv2d_2/Conv2D_bias f4 [64]
00000000: d2d1 933e 2e7a 5abc c3f3 b4bd b49e b63d
00000010: 570b 16bf ae49 ffbe 4bfe 463f 1df5 243f
00000020: 9b38 803e 840f 35be 1c44 353f b05f 2c3f
00000030: d48b 103f aec0 923f 79dd 8ebe 029c dbbe
00000040: 34d8 70be 884f 7d3e bfa8 733e d418 653f
00000050: 74ef 6ebe 9148 653f 5ef9 81bf 67e3 1a3f
00000060: d9d1 f2bc c0e1 c43e bd09 4abf a1fe 173e
00000070: 53f0 c7be 9039 3e3e 22f4 d7bd 5286 15bf
00000080: ae54 0abf 89c1 d2be 4b5a a53e 85f6 953e
00000090: 36b0 803e c42b 69bc 74cb 5cb9 a94b 92be
000000a0: 8b74 8b3d 46df 173e d9cc c6be 50d5 84be
000000b0: 46d4 863f 6cc0 f33e 570f 363f 773b 1f3f
000000c0: e6b7 063f 4933 c43e 1d8c 713f df20 4ebf
000000d0: b442 78be 8602 44be b1e9 afbe 2043 fabe
000000e0: f666 c63e c44b 413f f613 1c3e d345 c4bf
000000f0: fece b73e daaf b4be 8027 27be b829 36bf
0.28871018 -0.013334794 -0.08835556 0.08916989 -0.58611053 -0.498609 0.7773177 0.64436513
0.25043187 -0.176817 0.7080705 0.6733351 0.5646336 1.1465051 -0.27903345 -0.42892462
-0.23519975 0.2473737 0.2379484 0.8949101 -0.23333532 0.8956385 -1.0154226 0.6050324
-0.029641079 0.38453484 -0.7892111 0.14843227 -0.3905054 0.18576646 -0.105446115 -0.5840808
-0.5403546 -0.4116328 0.3229545 0.29289642 0.25134438 -0.014231626 -0.00021056627 -0.2857335
0.06809338 0.14831266 -0.3882816 -0.25943995 1.0533531 0.47607744 0.71117157 0.6220011
0.52624357 0.38320377 0.9435442 -0.8051891 -0.24244195 -0.19141588 -0.3435798 -0.48879337
0.38750428 0.75506234 0.1524199 -1.5333809 0.3590011 -0.35290414 -0.16323662 -0.7115741

conv2d_2/kernel f4 [64, 1, 1, 64]
00000000: 28d9 bfbd 0423 1b3e ba8f 81be 72ac 9c3e
00000010: 08c1 b6bd c2ec 403e 54fb 243e e929 cb3d
00000020: d90f dfbd 7259 1c3e c931 3ebe f1ef 78bd
00000030: 2fa4 9e3d 52d4 443e 4c64 84be e946 41bd
00000040: d3ea 2ebe f5a3 dabd 8a1c a93c c89b 5fbe
00000050: 06ad 683d 3020 51bd ae94 c5bd f60b 1abd
00000060: f23a 3c3d 7877 ed3c 6711 19be 898a d3bd
00000070: f4bf 2cbe 88d4 cb3d 6834 913d a293 c13d
00000080: 389e 7bbd 1279 75be 6065 ddbb ad0e 16be
00000090: be2c ce3d 315c 2fbe 3300 88bd ee78 9d3b
000000a0: 4a2b e5bd 7bc2 d3bd f075 d23d d6ce 613e
000000b0: effa 38be 8ede e7bd 4bed 423e 835a 273e
000000c0: efbd babc 3cb8 393e ca88 5dbe d2f1 b6bd
000000d0: 0d0d 1cba 3349 d93c 91a5 bfbc 395d 4ebe
000000e0: 3fad 55be 33a7 263e ccf0 e13d ffb5 1b3e
000000f0: 2546 6abe 9081 7d3e 045a 313d 8734 16be
00000100: 46dd 87be 5882 213e f898 d2bd 7814 8abd
00000110: 9ef4 4a3e 15b8 ff3d 0e0c 6a3d d176 b3bd
00000120: 8b67 993e 4cc5 553b e113 4bbe 9cf5 3cbe
00000130: 722c 933b 161f 883d f5ad d3bd ee1f 89bd
00000140: 90e9 f8bd 1efa d73d 4456 bd3e 26b3 633e
00000150: ba7e 34be eb56 13bc a96c 17bc 6a3b 27be
00000160: ddf3 68bc dc61 0cbe 022b 3dbd a115 7f3e
00000170: 5997 cabd 22be 8cbe b2c4 033d 3866 b43e
00000180: db96 63be 168a 343d e144 14bd 18da 76be
00000190: 1fe7 7f3e f0e0 42be d708 e53c a4ee 50be
000001a0: 22bc 4c3e 6634 a0bd 7a70 70bd bc28 b63d
000001b0: 8a43 f33d 320a 23be db0f 0b3e 6cd2 0f3d
000001c0: 81d2 493e d765 ad3d 0147 613c 791c a33b
000001d0: 5a91 47bd bfd5 2dbe 8d06 473c 902d 60bd
000001e0: b6ae 59be e106 a2bd 90b2 df3e e494 4c3e
000001f0: 6fb7 a2be ac7c 7e3d 8af5 9ebe 9ff1 013d
00000200: 7591 1f3d 5b2f f7bd f6e7 b13d 61c7 ae3e
00000210: 8d93 963d 5d16 12bd 03e1 dd3c f502 02be
00000220: 1947 8bbd a526 04be 6432 edbd 6f87 3e3e
00000230: b466 943e 883f a0be b774 f73d ac45 8bbd
00000240: 0685 1e3d 5206 4e3d 8641 153d 12d6 8c3d
00000250: 492d 9e3d 52bf fc3d 8943 383d 2dd9 8a3d
00000260: 5560 7cbe f0b6 03be 2a89 59be 3904 a5bc
00000270: 736f dfbc 6683 363d 53dd d3bd e3b4 a93e
00000280: 225e 403e 5899 6cbe 5c91 b3bd bee1 7b3e
00000290: 2996 ddbd 102c 7bbe 8979 c13e ee21 50be
000002a0: 783a da3d 9d67 153e 888f dabe 027b 81bd
000002b0: 02fe b83e 4c6e 4fbe 8f4a 94be 917d 0a3d
000002c0: 7433 9a3d 19b6 5a3e a4a1 bcbc 1136 973b
000002d0: d3e7 42bc 1e55 013d 8e6e 82bd 9fa2 9d3d
000002e0: f3c2 ee3d a1af c0be a370 dc3e 9e8e 4ebe
000002f0: e2bc 54be 1ebf 8e3e 67e3 f73d 7e32 d6bd
00000300: e0c0 433e 7e8d 80be daa8 7abe 9fbd e83d
00000310: 08a2 94bd f62d 5d3e 326e 953a d40f 493d
00000320: 617b 093c 11e6 25bc 94a4 223e e979 7abe
00000330: 0f88 d9bd 9f26 df3d 7383 363d 24f0 1f3e
00000340: ed72 97be f631 da3c 265a 583e 6bf8 2b3e
00000350: aea3 44be 6815 98be 996d 8bbe 2c02 09be
00000360: f088 0ebe 4ddf 5dbe 9c66 b0be 8684 0f3e
00000370: b5a8 75be 7948 0f3d c80f 423c 0897 4bbe
00000380: a636 f13d 3282 01be 5dac 193e 8949 573d
00000390: 9b85 09be 9708 a13e 702e 193d bdce 9f3d
000003a0: 0e74 84bd e76a 013e 5fbe 9c3d e39a de3d
000003b0: 2cef 3f3c d87e e03d 7d21 8cbd 61a0 0dbe
000003c0: 465c 71bd 87dd 323c c298 1ebe 80b9 bc3d
000003d0: ba33 5f3d c383 343c 1f0b eb3d 5c48 08bd
000003e0: 4a2d 603e 534b 3f3e 6b00 d8bd 5bf6 363d
000003f0: 1073 11be 20e2 0fbe 458b 8a3d 63c2 eebd
-0.09367591 0.15150076 -0.25304967 0.30600315 -0.089235365 0.18840316 0.16111499 0.09920103
-0.108916946 0.15268496 -0.18573679 -0.0607757 0.07746159 0.19221619 -0.2585777 -0.047186766
-0.17081766 -0.106758036 0.020643491 -0.2183677 0.056805633 -0.051056087 -0.09647499 -0.037609063
0.045954652 0.028987631 -0.14948045 -0.10329158 -0.168701 0.099526465 0.07090074 0.09451987
-0.061430186 -0.23971966 -0.0067564696 -0.14654036 0.10067128 -0.17125012 -0.06640663 0.0048056757
-0.11189897 -0.103398286 0.10276401 0.22051558 -0.18064474 -0.11321746 0.19035833 0.16343121
-0.022795646 0.18136686 -0.21634212 -0.08932842 -0.00059528725 0.026524162 -0.023394378 -0.20152749
-0.2086687 0.16274719 0.110322565 0.15206145 -0.2287832 0.24756455 0.043298736 -0.14668475
-0.26536006 0.15772378 -0.10283083 -0.06742185 0.19819877 0.12486283 0.057140402 -0.08762897
0.2996181 0.0032618819 -0.19831802 -0.18453068 0.0044913823 0.06646554 -0.10335914 -0.06695543
-0.121539235 0.10545753 0.36979878 0.22236308 -0.17626467 -0.008992891 -0.009242215 -0.16331258
-0.014218298 -0.13709205 -0.046183594 0.24910595 -0.098921485 -0.2748881 0.032170005 0.35234237
-0.22225516 0.044077 -0.0361985 -0.24106634 0.2499051 -0.1903112 0.027958317 -0.20403534
0.19993642 -0.07822494 -0.058701016 0.08894488 0.118781164 -0.15921858 0.13580267 0.035112783
0.19709207 0.0846669 0.013749839 0.0049777594 -0.048722602 -0.16976069 0.012147558 -0.05473095
-0.21258053 -0.07911468 0.4369092 0.19978672 -0.31780574 0.062130615 -0.31046706 0.03172457
0.038957078 -0.12069579 0.08686821 0.3413649 0.07352362 -0.03566586 0.027084833 -0.1269644
-0.0680067 -0.12905367 -0.11581877 0.18606351 0.28984606 -0.3129847 0.120828085 -0.06800398
0.03870108 0.050298996 0.03643944 0.06876768 0.07723481 0.12341179 0.04498628 0.06779704
-0.24646123 -0.12862754 -0.2124373 -0.020143615 -0.027274823 0.044558905 -0.103449486 0.33145818
0.18785909 -0.23105371 -0.087679595 0.24597833 -0.108196564 -0.24528527 0.37788036 -0.20325443
0.10655683 0.14590307 -0.4268763 -0.0632229 0.36131293 -0.20256919 -0.28963134 0.033811156
0.07529345 0.21358527 -0.023026295 0.0046145995 -0.0118960915 0.031575315 -0.06368743 0.07697033
0.11658277 -0.37633994 0.43054685 -0.20171592 -0.20775178 0.27880186 0.121039204 -0.10458849
0.19116545 -0.2510795 -0.24478474 0.11364292 -0.072574675 0.21599564 0.0011400639 0.04908736
0.008391232 -0.010125653 0.15883094 -0.24460568 -0.10621654 0.10896038 0.044558953 0.1561895
-0.2957987 0.026635151 0.21128139 0.16793983 -0.19203064 -0.29703832 -0.27232054 -0.13379735
-0.13919425 -0.21667214 -0.34453285 0.14015397 -0.23990138 0.034981225 0.011844583 -0.19881833
0.117780015 -0.12647322 0.15007158 0.052560363 -0.13429873 0.31451866 0.037397802 0.07803104
-0.06467448 0.12638436 0.07653498 0.10869386 0.011714738 0.109616935 -0.06842325 -0.13830711
-0.05892589 0.010917074 -0.1548796 0.09215069 0.05449269 0.011017743 0.114767306 -0.033272132
0.21892276 0.18681078 -0.10546955 0.044668537 -0.14204049 -0.14051104 0.06764845 -0.1165817

conv2d_3/Conv2D_bias f4 [64]
00000000: 13d6 0f3f b3eb a93d 3968 c2be c789 383f
00000010: 0501 5b3f b01e 2ebe c720 afbf 4642 173f
00000020: 85e5 593d c41e 9d3e 2930 e8be 7a20 823f
00000030: 96f5 93be 689a 97be bd51 c3be d29f 803f
00000040: f6d6 1fbd 0a8d 7c3f 0714 e4bd 315f aa3e
00000050: 1985 86be d826 f1be 80ef f1be 9f4d b43e
00000060: 8cc2 dc3e a22e 25bf 34d2 d23d 5e39 28bf
00000070: 894b 8a3f 38d3 a03d 6432 30bf abac cf3d
00000080: 2284 adbd 90e7 893f 7b46 87be a9ea 303d
00000090: c615 32bd 2bbd 1c3f 3dfd d73f 01fd 473e
000000a0: ec8c c83d 0f73 4d3f ceee 2abe ceac dc3e
000000b0: 6613 083f fb85 3bbf 5ec2 35be 587f 903d
000000c0: 1241 7c3f 4860 a13e 0567 e43e f8ee 42bd
000000d0: 83cc b7be 6cdd 7a3e bcc7 243f 1d71 af3e
000000e0: cb36 2d3f 29bd f93e 5a79 92be 0869 4b3f
000000f0: 269c b33e 8db4 cb3e 3c7a d13c ff12 f1be
0.56186026 0.08296909 -0.3797014 0.7208523 0.8554843 -0.17003894 -1.3681878 0.590855
0.053197403 0.30687535 -0.45349243 1.0166161 -0.28898305 -0.2960999 -0.381483 1.0048773
-0.039023362 0.9865271 -0.111366324 0.3327575 -0.2627342 -0.47099948 -0.47253036 0.3521547
0.43117177 -0.6452428 0.10293999 -0.65712535 1.0804302 0.07852787 -0.6882689 0.10140356
-0.08472468 1.0773792 -0.2642096 0.04319254 -0.043477796 0.6122615 1.6874157 0.19530107
0.09792504 0.8025369 -0.1669266 0.4310059 0.531546 -0.7325131 -0.17749926 0.07055539
0.9853679 0.3151877 0.44609848 -0.04759118 -0.35898218 0.24498528 0.6436727 0.34265986
0.6766173 0.4877713 -0.2860821 0.7945714 0.3508007 0.39786187 0.025570981 -0.47084805

conv2d_3/kernel f4 [64, 1, 1, 64]
00000000: 02cf 3cbe 2a54 323c fe2f 1e3e 0db4 d5bd
00000010: 243f 8dbc 01e5 65bd 33da 10bd 0915 6dbe
00000020: 1153 263e a990 3ebe 2b6a b1bd 5f2a 03be
00000030: a6ba 38be 7a84 37be d4e8 b239 57c9 23be
00000040: 1aa1 30be 890d 15be 2336 e53d 0573 d3bc
00000050: 9c6e d23d ba88 6dbe 0b94 363d b041 22be
00000060: b50b 9e3d 02be 1d3d d877 343e 0971 6b3e
00000070: 2505 58be 5596 4dbe f33c c1bd a59b c83c
00000080: 2aa3 14bd a690 45be 2f8f 393e ee14 f3bc
00000090: 6819 23bc 65a4 66bd f368 2c3d f901 383e
000000a0: ab52 133e 7646 2cbe e64c 06be f87c 1f3e
000000b0: ba09 83be 8c0f ffbc 0295 663d 444e 7bbe
000000c0: d124 4dbc d990 a7bd fa97 a13c a8a9 e43c
000000d0: 5f25 753c b01f 22bd 390b debc 0af7 37be
000000e0: 4df4 033d 8695 7bbb 919f 2d3e f439 26be
000000f0: 7302 17be 56ff 123d e132 ba3d e6a3 08be
00000100: 3550 12bc b5fc 1e3e ff8d 1f3e e904 1fbd
00000110: ff3a 073e 6ae5 63be d792 df3d ad16 aabd
00000120: 09af d33b 7883 703d e86d 50bd 5a82 01be
00000130: 64b7 82bc 0b9e 9dbd e33b 96bd 2797 c83d
00000140: 282d 62be 890e 423c 6034 d03c aeba 08be
00000150: 110c 19be 6f01 36bc 9429 1ebe 7f45 b3bd
00000160: 094a 46be e3c0 b5ba fd9f af3d fb4b f1bd
00000170: b4f3 ebbd a6d7 14be 6ed5 583c 390e 19be
00000180: 91c6 143e ae8d 54be 7a9e 17bc 83c3 46bc
00000190: a0c3 6ebc d14c a0bc 2303 ad3d 745e 6e3e
000001a0: 2add a2bd 4c78 153e bc21 6bbd 7b04 333b
000001b0: 0b19 7cbc e74e 613d 6c63 cbbd 65b5 88bb
000001c0: 267a 163e de50 d63d f31f a3bc 37a7 da3d
000001d0: 8529 8fbd eaf7 153e 781b 17be 96c1 b1bd
000001e0: 516a 46bd 4cd9 7fba f1b0 01bd 3d60 adbd
000001f0: 2031 0fbe e41f 85bd 480e a53d faef e13d
00000200: dbc1 763e 2049 1d3e db73 883e 31a2 ad3d
00000210: a6a2 c0bd d44f 9bbe 9f13 1fbe 297f 063e
00000220: e46b 1ebd 1ead fb3c 33fc a4bb fb74 093e
00000230: 1ad8 35be e05b 23be 9d52 a2bc 72b9 86bd
00000240: 301b 6f3e ed30 563d cb17 04be c131 cb3c
00000250: ffdf 08be 84ad 55bc c7f2 15be 07b7 c5bd
00000260: f47c 1f3d 9edc 573e de19 cf3b ec98 6d3d
00000270: fce4 e43c 8cab 383e ef89 9e3d d48e abbb
00000280: dedd 963d b910 1bbc 4161 2ebc 50ca 3bbc
00000290: d324 f33d f9b2 9c3d a446 3ebe 356d ab3d
000002a0: 34b7 223e 2887 ccbd ec5d 463c 107e 153e
000002b0: 1bd9 28bd a88b 13be f75d 09be 26b7 0f3e
000002c0: b2f9 203c a287 7abd 90a7 333d 26b4 c5bd
000002d0: f1b0 4cbd 8aa1 563e 971c 0dbd e8d1 5ebe
000002e0: b679 943d daa0 5a3d a95a 9ebd 2ed4 c2be
000002f0: 5600 083d 444b 6f3d 2368 403e 5012 053e
00000300: 736c 1ebe f07c 87bd f8eb 6c3d b18c 9bbd
00000310: b487 663c 7a61 33bd f7be 8cbe 25c6 41be
00000320: 37a0 923e 0e9b 653d c585 b7be f3d3 b73e
00000330: 8cc0 36be e67d e63d 1b07 72be 38a9 233e
00000340: f3de 2dbd 8763 a0bd 4e54 a93d efb5 293e
00000350: 5e29 ad3d 751d 243d 6838 04be c2d5 c63d
00000360: 10fa 74be 3d61 9fbd 530a d0bd 21df dd3d
00000370: cf64 b03d 1f68 89be d575 43be 012d edbd
00000380: 43e1 4fbe 6ada 37be 7bef bd3e e6b7 98be
00000390: bc5b 17bd 2068 903e 4888 05bd 50d9 003d
000003a0: 4550 173e 5e08 bb3d 75ae 7ebe 2fb4 febd
000003b0: 6924 2d3e 2366 083e 2ae3 8bbe a63b 55be
000003c0: 3e3e 363e 081e 4b3d fc46 8d3e 8d08 c7bd
000003d0: bb12 bc3d 08cc 763e 3051 bebd 3370 ffbd
000003e0: c023 20be 62d9 9d3d 867d 48be 805a 64be
000003f0: 0c18 5a3e f91d 813e 2ac4 453e 1f8e 65be
-0.18438342 0.010884324 0.15447995 -0.104347326 -0.017242022 -0.0561266 -0.03536434 -0.23152556
0.16242625 -0.18609871 -0.08662828 -0.12809132 -0.1803995 -0.1792163 0.00034124276 -0.15994774
-0.17248955 -0.14555945 0.111919664 -0.025811682 0.10275003 -0.23196688 0.04457478 -0.1584537
0.07717077 0.038511284 0.17623842 0.22992338 -0.21095712 -0.20076878 -0.09435453 0.02448828
-0.036288418 -0.1929346 0.18121026 -0.029673066 -0.009954788 -0.056309123 0.042092275 0.17969503
0.14387004 -0.16823754 -0.13115272 0.15575016 -0.25593358 -0.031135343 0.05629445 -0.24541575
-0.012520985 -0.081819244 0.019725788 0.02791293 0.014962523 -0.039581 -0.02710496 -0.17965332
0.032215405 -0.0038388683 0.16955401 -0.16233045 -0.14747028 0.03588804 0.09091736 -0.13343772
-0.008930256 0.15526088 0.15581511 -0.038823042 0.13206099 -0.22255483 0.10916679 -0.08305106
0.006460075 0.05871913 -0.050886065 -0.12647381 -0.015956588 -0.0769616 -0.07335641 0.09794455
-0.22087538 0.011844286 0.0254156 -0.13352463 -0.14946009 -0.01110874 -0.15445548 -0.0875349
-0.1936418 -0.0013866689 0.08575437 -0.1178207 -0.11521092 -0.14535388 0.013234479 -0.14946832
0.14528872 -0.20757172 -0.009254092 -0.012131575 -0.014573008 -0.019567879 0.08447864 0.23278219
-0.0795234 0.14596671 -0.05740522 0.0027315903 -0.01538683 0.055006888 -0.099310726 -0.0041720145
0.14695033 0.10464643 -0.019912696 0.10676425 -0.06990341 0.14645353 -0.14756572 -0.08679502
-0.048441235 -0.0009759858 -0.031662885 -0.084656216 -0.13983583 -0.06500223 0.080593646 0.110321
0.24097387 0.15359926 0.2665089 0.08478201 -0.09406023 -0.30334342 -0.15534829 0.13134445
-0.03867711 0.030722197 -0.0050349473 0.13423531 -0.17758217 -0.15953016 -0.019814784 -0.0657834
0.23350215 0.052292753 -0.12899701 0.024803998 -0.13366698 -0.013041858 -0.14643393 -0.0965405
0.038937524 0.21080253 0.0063202223 0.058007166 0.02794122 0.1803419 0.077411525 -0.0052355323
0.073665366 -0.009464436 -0.010643304 -0.011461809 0.11872258 0.07651324 -0.18581635 0.08370439
0.15890199 -0.099867165 0.012107354 0.1459887 -0.041222673 -0.14408743 -0.13414751 0.1403471
0.009825157 -0.061164506 0.043860972 -0.09653501 -0.049973432 0.2096006 -0.034451094 -0.2175976
0.07249777 0.053376056 -0.07732136 -0.38052505 0.033203445 0.05842139 0.18789725 0.12995267
-0.15471058 -0.06615627 0.057842225 -0.07595194 0.01407044 -0.043794133 -0.27489445 -0.18923242
0.2863786 0.056056075 -0.35844246 0.35903892 -0.17846888 0.11254482 -0.23635523 0.1598252
-0.04244895 -0.07831483 0.08268033 0.16573308 0.08455156 0.040067155 -0.12912142 0.0970874
-0.23923516 -0.077822186 -0.10158219 0.10833574 0.08612978 -0.2683725 -0.19087918 -0.115808494
-0.20300774 -0.17954412 0.37096772 -0.29827803 -0.03695272 0.2820444 -0.03260067 0.031457245
0.14776714 0.09132455 -0.24871238 -0.12436711 0.1690842 0.13320212 -0.2732175 -0.20823535
0.17797181 0.049589187 0.2759322 -0.09718428 0.0918326 0.24101269 -0.09292829 -0.12472572
-0.15638638 0.07707478 -0.19579133 -0.22300148 0.21298236 0.2521818 0.19313112 -0.22417496

conv2d_4/Conv2D_bias f4 [64]
00000000: aa09 b33e 9079 98be 868a 803d e04e 22bf
00000010: a129 0cbf f0d6 c9bd 1e1f 803f 4aa0 b5be
00000020: e624 6b3d 8597 79be 1a68 753f aa30 963f
00000030: 1595 3bbf 80e4 223f 220c 7a3f eb16 4f3e
00000040: a847 233f 98aa 3c3d 8eae 5a3f b76a 893d
00000050: dd8e 023f 3d79 73bf 4819 923e 54bf 183e
00000060: 5e4c 1740 e46d 4d3f 057f 9abe df50 6d3e
00000070: 1188 0740 7273 b43d 6147 8a3f de46 193e
00000080: 3d81 bc3f 10ad be3f 2d73 35bf 54c3 5a3f
00000090: 627d b6be 7545 3cbe b34f 923f 756a b43f
000000a0: 12c4 863f 0e6f 113f 1bd4 d63d c5e9 313f
000000b0: 4288 54bf 1c69 cc3f 3781 b43e 481a 103e
000000c0: 2bb3 133f c976 823f 9472 1c3f 98e5 073f
000000d0: 6086 8f3f df80 2c3f f056 2c3e a3b2 563f
000000e0: 5be1 b1be 2c87 8e3e b50c ef3e bafc b53e
000000f0: 564e 9e3f 75d3 5f3f d37f 5c3f 4ed7 7e3f
0.3496831 -0.29780245 0.06276421 -0.63401604 -0.5475102 -0.09855449 1.0009496 -0.35473853
0.057408236 -0.24374206 0.9586197 1.1733601 -0.73274356 0.63629913 0.97674763 0.20223586
0.63781214 0.04606113 0.854226 0.06709807 0.5099924 -0.9510687 0.28534913 0.14916736
2.364036 0.80245805 -0.30175033 0.23175381 2.1176798 0.08811082 1.0803033 0.1496844
1.472694 1.4896564 -0.7087887 0.854543 -0.35642534 -0.18385871 1.1430572 1.4094988
1.0528586 0.5681008 0.10489675 0.6949733 -0.8302041 1.5969577 0.35254833 0.14072526
0.57695264 1.01925 0.6111233 0.5308471 1.1212883 0.6738414 0.16830039 0.8386633
-0.34742245 0.27837503 0.46689382 0.35544378 1.2367656 0.8743203 0.86132544 0.9954728

conv2d_4/kernel f4 [64, 1, 1, 64]
00000000: 220b 9a3d 3384 ddbc 15af 11be 0dd3 c03d
00000010: b18d 10be de9c dfbe a859 e0be 73c1 493e
00000020: 81a0 32be bfdc b3bd f264 40be 479b 0d3e
00000030: 4124 acbe 8a5f 48be 8abb 8e3e 755e 893d
00000040: 677d 63be 1614 363e 0a7a cebe 2725 fdbd
00000050: 7dc7 b0be 219c 4f3e 2c52 c6be 0e8b b7be
00000060: 6dc7 e33e 7bfd bbbd 6fc4 1b3f e378 a5be
00000070: b3d9 d93b 6db2 c2be 62b8 97be a022 9d3d
00000080: 9564 24be eee1 e43e ae99 a33e ff9e 0b3e
00000090: 69d4 0b3e f0b0 e83e 5b6f 7cbe a1ce a7be
000000a0: 8ef2 153e da33 79bc 1d49 1c3f 0964 683f
000000b0: 1d45 413e 06fc a13e b2f2 25be d4b3 a6be
000000c0: 2be7 72bc 2025 14bf 7cc1 b6be 7a78 173f
000000d0: ce92 353e 7701 bdbe 3b76 ca3e 9849 b8bd
000000e0: 8191 df3e d8ef d23e 0204 50bd 33ac 0abe
000000f0: f9a7 343e 4e42 87bd bf25 32be d271 efbe
00000100: cc1f 9abd 7ebd 1c3f 8f49 28bd 9f0b b5bd
00000110: 6ad7 c53e eab9 193f dde9 fc3e 62b2 96bd
00000120: 6beb a2be 24f0 35bf 6194 b3be 2878 24be
00000130: f765 40bf e927 35be ab02 5ebd 4508 99bd
00000140: d659 cd3d 6ee9 663f e9bf bebe cdfa 403f
00000150: ba4d cfbc 3cfd d9be b9b1 d23e d037 533e
00000160: 87a9 883c ec41 fe3e 8a09 0c3e 35ae 92be
00000170: ad27 9d3e d3d6 913e 0c68 a03e f49c a93e
00000180: fe7a da3e 7873 81be cdf1 5bbe e2bb 91be
00000190: fec1 7a3e e7cd 2bbe cd44 2f3f 54ce 8abe
000001a0: 4d75 e3be 0cbb 833e d071 5cbe aae2 a13c
000001b0: 00ad 81bf c85a e8be c47f 76be f9a9 883f
000001c0: 7fe3 6bbe 886d ad3d 909f 95bc d161 083e
000001d0: 1a07 bb3d 4993 8fbe 78fb cdbe 305f e03e
000001e0: 4343 3dbe 29ad 4ebd 938c 2fbe 9fe9 95bd
000001f0: f785 c7be 37f8 80be e8bb 2cbe efda a13e
00000200: f421 d63d 9009 7dbd d047 3ebd edab a7bd
00000210: e0c1 463f dfa0 683d ff70 8abe 10b0 e9bd
00000220: 987b 24bf 4eb7 fdbb bba8 e3bd 8e62 42be
00000230: cd50 72be 7225 d4be 2a10 e83d acd3 19be
00000240: 3c05 443d fd20 e93e d378 0ebf 2073 c4bc
00000250: a6b2 4fbd 9add 8d3e d73d 6e3d cfe1 1cbf
00000260: f4aa 0e3f d9cb 94be 2b3e ab3e 43f3 0fbe
00000270: 8baa 9e3e 47a4 b4bd 8fc7 cb3e 2ac1 18be
00000280: a08b 17bd 3b24 93bd b977 5f3e 7984 f2be
00000290: 5b4b 303f c96e b73e b5af 573c 1d5a febe
000002a0: 9228 31bd 6369 1fbf b330 ce3d 58fc e53e
000002b0: 5518 013f 456b 0b3e 14e1 d63d 9221 cf3d
000002c0: a988 033f fc4f 41bf dbe4 21be bbdd 40bc
000002d0: 4f22 fc3e dc87 a9be 1b41 86bd 2356 c93c
000002e0: a939 37bd 4289 b63e 857e 323d 9772 a8be
000002f0: b3e4 693e 8612 273f bdb8 aabd fd5d c9bd
00000300: f554 e4bd 3f31 85be b348 593e 97f2 3fbe
00000310: 265c 3b3e bc31 b63e 36d2 1cbf 7874 1e3e
00000320: ee1e cdbe e642 85be 9e82 993d b086 1abe
00000330: 3ee4 58be 9e34 fe3d ab84 0e3e 6b82 30be
00000340: 2b99 8bbe 03bb f93d 144a f93c 267f 2abe
00000350: bff9 01bf 2478 d3bd a855 91be 4371 ac3e
00000360: 0a97 563e 40ba a5bc b898 f73e 4f30 873e
00000370: 66f2 1d3d e09f 183e fde9 99bd 0642 8cba
00000380: 85fa bf3e df23 323f 0c4d 153f c18a a13e
00000390: 02ef 613b 92a5 e63e 37dc cdbe e5a7 35be
000003a0: 9391 40bd fc93 efbe 5f68 cf3d ead4 cc3e
000003b0: bf50 dd3d 38c2 97be 32de 9a3e ec03 febe
000003c0: a6b3 963e 2217 41be 04a5 b0be 9027 803e
000003d0: e21b a73e 3eb1 743e 9fc3 973d a973 ef3e
000003e0: 2d3a 893e 5144 fa3e c542 163f 8f08 9cbe
000003f0: 2938 08bd 5d01 bfbe c091 f4be 78ba 5f3e
0.07521655 -0.027040577 -0.14226945 0.09415255 -0.14116551 -0.43674368 -0.43818402 0.19702701
-0.1744404 -0.08782338 -0.18788508 0.13828765 -0.3362141 -0.19567695 0.27877456 0.067074694
-0.22215806 0.177811 -0.40327483 -0.12360602 -0.34527197 0.20274402 -0.38734567 -0.35848278
0.44488087 -0.09179207 0.6084661 -0.32318792 0.006648266 -0.38026753 -0.2963286 0.0767262
-0.16053994 0.4470362 0.31953186 0.13634871 0.13655247 0.45447493 -0.24651854 -0.32774833
0.14643309 -0.015210116 0.6104906 0.9077764 0.18874021 0.3163759 -0.16205862 -0.32559073
-0.014825623 -0.5786915 -0.35694492 0.5916821 0.17731783 -0.3691518 0.39543328 -0.08998412
0.43665698 0.4119861 -0.050785072 -0.13542251 0.17642201 -0.066044435 -0.17397211 -0.46766526
-0.07525596 0.6122664 -0.041085776 -0.08840107 0.3864091 0.6004931 0.49397174 -0.073582426
-0.31820235 -0.7106955 -0.35074142 -0.16061461 -0.75155586 -0.17691006 -0.054201763 -0.074722804
0.100269005 0.90199935 -0.3725579 0.7538269 -0.025305618 -0.42576015 0.41151217 0.2062676
0.0166824 0.4965967 0.13675514 -0.28648534 0.30694333 0.2848421 0.3132938 0.33127558
0.4267196 -0.25283408 -0.21478958 -0.28463656 0.24488065 -0.16777764 0.68464357 -0.2711054
-0.4442543 0.25728643 -0.21527791 0.019761402 -1.013092 -0.4538176 -0.24072176 1.0676872
-0.23036002 0.08468157 -0.018264562 0.13318564 0.09132214 -0.28042057 -0.40230918 0.43822622
-0.1848269 -0.050458107 -0.17143469 -0.0731995 -0.38969395 -0.25189373 -0.16868556 0.31612346
0.10455695 -0.061776698 -0.046455204 -0.08187089 0.7763958 0.056794044 -0.27039334 -0.114105344
-0.6425109 -0.007742799 -0.11116167 -0.18982908 -0.23663636 -0.41434819 0.11331208 -0.15022153
0.047856554 0.4553298 -0.55653113 -0.023980677 -0.05070748 0.2770813 0.058164444 -0.61282057
0.55729604 -0.29061773 0.33445868 -0.1405764 0.3098949 -0.08820396 0.3980069 -0.14917436
-0.03699839 -0.07184645 0.21823014 -0.47366694 0.68864983 0.3582671 0.01316445 -0.49678126
-0.04325158 -0.6227018 0.100678824 0.44919086 0.5042775 0.13615139 0.10492149 0.10113825
0.513804 -0.7551267 -0.15809958 -0.011771615 0.49244925 -0.33111465 -0.06555387 0.024577206
-0.044732723 0.35651594 0.04357769 -0.32899925 0.22841148 0.6526264 -0.08336017 -0.0983238
-0.11149017 -0.26014134 0.21219139 -0.18744884 0.1829687 0.3558482 -0.61258256 0.15474117
-0.4006266 -0.26027602 0.074956164 -0.15090442 -0.21180817 0.1241238 0.13917796 -0.1723725
-0.27265295 0.12193873 0.030430831 -0.16650066 -0.5077171 -0.103256494 -0.28385663 0.33680162
0.20956054 -0.020230412 0.48358703 0.26404044 0.038561247 0.14904737 -0.07515333 -0.0010700829
0.3749582 0.69585985 0.5832069 0.31551173 0.0034474735 0.45048195 -0.40207073 -0.17739828
-0.04701383 -0.4679259 0.10127329 0.4000619 0.10806417 -0.29640365 0.30247647 -0.49612367
0.29433936 -0.1885648 -0.34500897 0.25030184 0.3263846 0.23895738 0.07410359 0.4676793
0.26802197 0.48880246 0.5869563 -0.3047528 -0.033256683 -0.37305728 -0.47767448 0.21848476

dense/MatMul_bias f4 [12]
00000000: 686e cabd 64da b5bd 4ad5 a5bd cd48 fbbc
00000010: 4ef6 6bbd 2319 69bd 4db6 b9bd dda9 b9bd
00000020: 86d0 46bc a967 80bd 645a 55be b10c 143e
-0.098843396 -0.08879545 -0.08097322 -0.030674363 -0.05760794 -0.056908738 -0.09067974 -0.09065602
-0.012134677 -0.062697716 -0.20835263 0.14457966

dense/kernel/transpose f4 [12, 64]
00000000: 0e5e a1bc ae85 c4be c61b 49bf 7747 5fbe
00000010: ab6d 413e 5eb3 ea3e f936 ecbe b6f1 993e
00000020: bd5e f93e 8981 533e 096c 9abd e5b3 e1bd
00000030: 5057 bcbe 5a19 8b3e 4741 92be e133 093f
00000040: e01c e3be 86a1 4abf 924c 05bf bbc3 b83e
00000050: 2278 19be c9ca 3b3e 82ac 1abf 3214 30bf
00000060: a992 dc3e c12c 0cbf 9111 13be a49c 033f
00000070: 8ef9 16bf 6ffa 06bf 6573 c2be 0c00 1dbf
00000080: 9c27 afbe 574a a83e a69a c7bd a456 c7be
00000090: 5659 27bf c61e 1ebf a41f 1cbe 8c26 e03d
000000a0: b89e 553e fcc1 2bbe 03d5 8ebe bc39 243d
000000b0: 8eea 33bf 962b de3e ccce 4ebf c603 263e
000000c0: d7db 5c3e e173 14bf 7d02 a6be 0fa7 c4be
000000d0: 41eb cf3e 757e b9be 8e73 ab3e 7364 1d3e
000000e0: b517 2b3d e205 f13e 789d d63e e032 003f
000000f0: 3906 80bd 21fc abbc 0d7d cbbe 7e17 01be
00000100: b0a2 b2be 88e6 08bf bd57 06bf 2e89 523c
00000110: 3bcb 12bf 567f 03bf dbb6 3c3e ebd8 ba3e
00000120: f166 f0be e977 fbbe ffef dabe 7626 00bf
00000130: c725 063f 5ed4 973e ef93 c33e c75f cdbe
00000140: 894c 7c3d 642b 17bf da3d 08bf 305e 10bf
00000150: c483 cfbd 070c 313e e146 2e3e 571e c63c
00000160: d05a 4d3e 36b7 b23e 991a abbe f5bd ddbe
00000170: 6015 49be 951d 14bf e2cd 0e3f 4cd8 65bf
00000180: 7988 9fbd b57d bd3e 7dcd a83e cdb5 e13d
00000190: b9b9 e3be 00ba 11be 8d96 12bf 0ed8 113f
000001a0: e38e 94be 5df8 16bf d160 ffbd 6257 e03e
000001b0: fd09 28be 6592 f33e d5d7 08bf 7900 e3be
000001c0: ff95 28be 4a5c 6a3d 0f3a a13e 8c1b de3d
000001d0: 9142 193e 6be2 b6be b53f 023e 0bb6 fdbc
000001e0: 0ca1 c23e 8171 b33e 7352 bb3e 9013 9a3e
000001f0: 4104 28bf 68a3 1dbf b3b4 9bbe fa61 32be
00000200: 6c95 0dbf df98 fb3e 52d8 f93e 44e2 bcbe
00000210: 3654 073f fdb3 c73e 0459 ae3e 18f8 41be
00000220: 496e 05bf 213c 57be f715 843e 4030 8cbe
00000230: 5e71 2bbe 639d 33bf 03d2 d23a ee73 2bbf
00000240: e863 4bbf b552 443e 4616 13bf f401 553e
00000250: 945e 843e a93b a7be 5863 89be a57b 053f
00000260: 72dd 29bf c148 d63d 6872 48be 63bf 29be
00000270: 7c34 c7bd 9892 8f3e 092f 30bf 8237 efbe
00000280: 72de a4bd e17a fdbe a1e2 05bf 650f df3e
00000290: ad8e ab3d cecb 483e d721 05bf 1b10 f0be
000002a0: a534 983e 9c7f a93e 2c0d b9bc d121 a1be
000002b0: f1a2 013f c33a e6be 78de eebd b442 96be
000002c0: 0cbf 8bbe fab2 fa3e 6522 f1be 778b 4dbd
000002d0: 1f89 15bf 7e35 99bd 0553 15bf 688d 9e3e
000002e0: f757 48be 3d7c e4be 0804 ccbe b619 f8be
000002f0: 372d a3bd 1d5f 233f 382f efbe 1709 b43e
00000300: 3ede dbbe 6bff 0e3f 3a49 46bf 5e7e d2be
00000310: a5b7 683d dc18 fcbe 1559 40bf 5b15 453e
00000320: a873 1b3d def4 ddbe da1d 2ebf f0dd 24bd
00000330: 3446 d83e 2b8d a4be 43b2 043f 9fd3 acbe
00000340: fe3d f3ba dff1 1bbf ba07 a1ba fae0 fd3d
00000350: 15c9 983e 9c84 98bc 21c9 e33e 00df 7b3e
00000360: dabf af3e 851c a8be cb0e 2fbe 2711 c3be
00000370: 4700 8ebe e6cc 6abe 949f 373e 7c00 33bf
00000380: 1f10 b43e 7a2f 32be d56d 1dbf e814 fd3e
00000390: dda3 bbbe a7f5 c1be cde9 1bbf ed32 8a3e
000003a0: 25c3 27bf 57d0 073c 702d 17bf 7b3f 46bf
000003b0: 2c36 8cbe 93d0 b2be 45cf f0be bd26 1d3f
000003c0: f886 96be 05a9 9abe e0cd 1fbe b4ca 10bf
000003d0: 3a03 e8be d0d0 cd3c 3c1d 1e3e 21a1 d73e
000003e0: 97f7 8a3e b142 483e 1e42 0d3f 6f45 953e
000003f0: 452b ffbe e886 973e f865 5bbd 8ef4 a73b
-0.01969817 -0.3838324 -0.78558004 -0.21804605 0.18889491 0.4583997 -0.4613569 0.30067223
0.48705092 0.20654882 -0.07540137 -0.1102064 -0.36785364 0.2716778 -0.28565428 0.53594786
-0.44357967 -0.79152715 -0.5206996 0.3608683 -0.14987233 0.18339075 -0.60419476 -0.68780816
0.43080643 -0.5475579 -0.1436217 0.5141089 -0.5897454 -0.5272588 -0.37978664 -0.61328197
-0.34209907 0.32869217 -0.09746294 -0.3893329 -0.6537069 -0.61765707 -0.15246445 0.10944852
0.20861328 -0.16773218 -0.2789689 0.040094122 -0.7027978 0.43392628 -0.80784297 0.16212377
0.21568237 -0.5798932 -0.32423773 -0.38408706 0.40609172 -0.36229292 0.334866 0.1537035
0.041770656 0.470748 0.41917014 0.5007763 -0.06251187 -0.020994248 -0.39743844 -0.12606618
-0.34889746 -0.5347676 -0.5247763 0.012850089 -0.57341355 -0.51366174 0.18429129 0.3649362
-0.46953538 -0.49114922 -0.42761227 -0.50058687 0.52401394 0.2965421 0.38198802 -0.40112135
0.061596427 -0.59050584 -0.5321938 -0.5639372 -0.10132554 0.17289744 0.17019226 0.024184389
0.20054173 0.34905404 -0.3341873 -0.43308988 -0.1963706 -0.5785764 0.557829 -0.8978317
-0.07789702 0.3700997 0.32969275 0.11021004 -0.44477633 -0.1423111 -0.5726097 0.569703
-0.29015264 -0.5897272 -0.12469638 0.43816668 -0.1641006 0.47572628 -0.53454334 -0.44336298
-0.16463469 0.05721692 0.31489608 0.10845098 0.149668 -0.35719618 0.12719615 -0.030970594
0.38013494 0.35047534 0.3658634 0.3009305 -0.6563149 -0.61577463 -0.304113 -0.17420188
-0.55306125 0.4914007 0.48797852 -0.36891377 0.5286287 0.39004508 0.3405229 -0.18942297
-0.52121407 -0.21019031 0.25798008 -0.27380562 -0.16742465 -0.7016203 0.0016084317 -0.6697377
-0.7944932 0.19172175 -0.5745586 0.20801526 0.25853407 -0.32662705 -0.26833606 0.5214179
-0.66353524 0.104630955 -0.19574893 -0.16576914 -0.097268075 0.2804153 -0.6882177 -0.46722037
-0.080502406 -0.49507812 -0.52298933 0.43566433 0.083768226 0.19608995 -0.5200476 -0.46887287
0.29727665 0.3310517 -0.022589289 -0.31471112 0.50639254 -0.44966707 -0.11663526 -0.29347765
-0.27294195 0.48964673 -0.47096553 -0.050181832 -0.58412355 -0.07480906 -0.583298 0.3096726
-0.19564806 -0.44626036 -0.39846826 -0.48457116 -0.079676084 0.63817006 -0.46715713 0.35163185
-0.42942995 0.55858487 -0.77455485 -0.41112036 0.056815762 -0.49237716 -0.7513593 0.19246428
0.037952095 -0.4335088 -0.680143 -0.04025072 0.4224106 -0.32138953 0.51834506 -0.33755204
-0.0018557904 -0.6091594 -0.0012285628 0.123964265 0.29840913 -0.01861792 0.44489387 0.24596786
0.3432606 -0.3283426 -0.17095487 -0.38099024 -0.27734587 -0.22929725 0.17931968 -0.69922614
0.3516855 -0.17400923 -0.61495715 0.49430013 -0.36648455 -0.3788273 -0.60903627 0.26991978
-0.6553214 0.008289418 -0.5905371 -0.77440614 -0.2738508 -0.34924755 -0.47033134 0.61387235
-0.29399848 -0.30207077 -0.15605879 -0.565593 -0.45314962 0.025123984 0.1544084 0.4211512
0.2714202 0.19556691 0.5517901 0.29154536 -0.498377 0.29595113 -0.05356404 0.0051255887

depthwise_conv2d/depthwise_bias f4 [64]
00000000: 3c3f 173b f28c 28be 0e85 b03d 14c6 2b3f
00000010: 3324 ba3d 9e07 2c3d 56b0 7d3e 76fa c4bd
00000020: 6cee 393f a488 c6be 267e 133f ad07 ce3c
00000030: 9e89 a63e 765c ebbd 10fd 563e 9a95 8d3d
00000040: 779c 50be d38e 6e3c 4033 6f3d 2651 0a3e
00000050: 0743 e2bd eabe ebbd 1007 c03d 20bf f33c
00000060: da24 1b3d 5fc8 863e ead7 933d 406b 3b3e
00000070: 8b5b 003f 90bc 50be 8e40 d53e 217a 3e3e
00000080: 2ac4 143e 4172 2c3f 022e 3f3e f308 a03e
00000090: 56f6 033f cef5 fabd cc97 423f 01de 313f
000000a0: 5ecd 223f fe3b 523f 6296 7b3e 10fe 943e
000000b0: 9471 5ebe f968 293e bee6 573d 8e5f f33d
000000c0: 82ab eb3d 7b36 383e d250 d23e 228c 82be
000000d0: 15b2 4d3e ff6f 243f e2cf 283e fdac 843e
000000e0: dcaf ac3e 3011 473f 36c3 0a3f 006b 39bc
000000f0: 1eec fa3e e982 773e d576 ab3e 5519 d6bd
0.0023078462 -0.16460016 0.08619128 0.6709912 0.09088936 0.04199945 0.24774298 -0.09618084
0.7262943 -0.38776124 0.5761436 0.025150144 0.3252687 -0.11492245 0.20994973 0.069133
-0.20372187 0.014560419 0.058398485 0.13507518 -0.11047941 -0.11511023 0.09376347 0.029754221
0.03787694 0.26324746 0.07218917 0.18302631 0.50139683 -0.20384431 0.41650814 0.18601276
0.14527956 0.6736184 0.18669894 0.31256828 0.51547754 -0.12253915 0.76012874 0.69479376
0.63594615 0.8212279 0.24569085 0.29100084 -0.21723014 0.1654395 0.052710287 0.1188346
0.11507322 0.17989533 0.41077286 -0.25497538 0.20087464 0.6423339 0.16485551 0.2591323
0.3372792 0.777606 0.5420412 -0.011317015 0.49008268 0.24171032 0.334891 -0.104540505
