closed/Qualcomm/code/AIMET/KWS/kws_saved_model_variables.tflite (tflite, 94572 bytes, 20 tensors)

conv2d/Conv2D_bias f4 [64]
00000000: b332 3abe 239e 5ebd a563 75be 55cb 573d
00000010: e795 c3bd 6d27 a8be dd14 0cbd aa79 51be
00000020: 6200 f3bc e91d 70be a3b7 46be 97a0 23be
00000030: 330d 96bd 74fc 5e3d 1518 88be 3d33 67be
00000040: 04e0 d4bd 24e3 40be 2dd5 efbd b04c 5abe
00000050: c860 433d 6b17 3a3e 05d9 c53d 4352 cdbd
00000060: 7985 023d ea25 aebd f646 463e 29aa 15be
00000070: 62fa c6bd fcb5 44be f233 ba3d 4c3d 003e
00000080: 8951 633d 2d63 213e f026 93bc d6dd 9ebe
00000090: 6bd6 4b3e 57e3 283d 0954 98bd 09ee 59be
000000a0: ee3c cbbd cd44 a2bc 383e 8fbd 8da8 cf3d
000000b0: 4cec c53c b977 ecbd f5ec c43d 5974 1dbe
000000c0: 0acd f63b e06b 1a3e 58f2 90bd c470 86bd
000000d0: 3095 88be 8596 c43d b58d 7cbd 09a0 05be
000000e0: eec3 f2bd f4da 133e 83c4 4c3d 1ae3 ce3d
000000f0: 1ad6 b73d 019f cdbd 4f0d d93d 9540 0f3d
-0.18183403 -0.05435003 -0.23963793 0.052684147 -0.09550076 -0.3284258 -0.034199584 -0.20456567
-0.029663268 -0.2344891 -0.1940599 -0.15979229 -0.07326736 0.054439977 -0.26580873 -0.2257814
-0.1039429 -0.18836647 -0.11710582 -0.21318316 0.04769972 0.18172996 0.09660534 -0.10025456
0.03186557 -0.08503325 0.19363007 -0.14615692 -0.097157255 -0.19210047 0.09091939 0.12523383
0.05549768 0.15760489 -0.017962903 -0.31028622 0.19906013 0.041232433 -0.074379034 -0.2128221
-0.09923731 -0.019808197 -0.06994289 0.101395704 0.024160527 -0.11546273 0.096155085 -0.15376414
0.007531767 0.15080214 -0.070774734 -0.06564477 -0.2667632 0.09599022 -0.06165858 -0.1304933
-0.11853777 0.14438993 0.049992096 0.1010191 0.089763835 -0.10040093 0.105982415 0.0349737

conv2d/kernel f4 [1, 10, 4, 64]
00000000: 6957 b33c f8e4 c5bc 4ff8 af3c e535 4bba
00000010: 78c6 b1bc e568 3fbc 754d 123b c59d b0bc
00000020: 8582 8ebc b79c 61bc db2c 7bbc 65f7 b23c
00000030: f0d5 afbc f1a0 be3c 4b5b b63d 135b 3f3d
00000040: 1b0b 7a3a f07f cfbc 44ec 93bd be50 d6ba
00000050: d943 93ba c798 4bbc eccd 2dbd e35e 6a3c
00000060: 49b8 b5bc 4bfa c73c 1b2a 613c f06c f63c
00000070: 9e82 e9bc c744 ea3c 7d98 bd3c 9d3d 4ebb
00000080: 09b7 413d 5507 9b3c aa52 9fbc dff3 473d
00000090: 070d 90bb fd48 c73c ae1c 633d 157b 5f3d
000000a0: 9f93 553d 7469 b43c b6d4 b43b 1a0e 97bc
000000b0: caf7 afbc 48f8 26bc 5952 423c 4a34 a73c
000000c0: 3677 e53b df9b 0dbd 7361 f93c c746 353c
000000d0: b2b9 593c 98e6 efbc bf41 1abd 8108 cb3c
000000e0: fc24 38bd c6b5 4bbb 1017 eb3c 229b 913c
000000f0: 7c24 8e3b 4f25 9a3a e5fe b1bc a9b9 e5bc
00000100: bed5 5d3d 02a7 6a3c fa81 083d 7c79 2b3d
00000110: ccd8 353c a073 4ebc 4ff6 8cbc 4d73 f23b
00000120: bd6b 8d3d 38e5 52bc 0898 1dbb 749e 3d3d
00000130: bc3f 6abc 5ae4 91bc 6ebc 8cbc f497 f3bc
00000140: 3d74 9e3c c46a 85bc 8b76 393c 1099 d438
00000150: db61 a8bd e7ee 093d 5bd9 55bc 2f7a cdb8
00000160: b12d ea3c 0a1d 47bd 4eb0 e93c dc7a 493d
00000170: 0316 5dbc dfaf fc3c 3b2e b23b e6dd 723b
00000180: 0154 cfbc de44 113d af49 4fbc 60f9 873c
00000190: 3808 413c d36e b7bc c8bb 2fbd 38b1 973d
000001a0: d23f ae3b d9d3 333c da5f f53a dd50 04bd
000001b0: 69d3 a6bc a523 e43d 8ce7 a0bc 9249 a4bb
000001c0: a556 183c 9ec0 2dbd 0684 fc3c baee 633b
000001d0: a0bb 053d 5ff1 a3bb 0a18 be3b f15d 213d
000001e0: 1b8b 263d e44e dbbb 9a69 86bb c8c2 08bd
000001f0: 61bd 5fbc 026d 803d c09d 2f3d 3379 1fbc
00000200: a9d2 fe3c bcf7 24bc 9b17 8b3b 373d d83b
00000210: 5b0b 803d 52d9 723c 1ccf 06bd a2f7 363c
00000220: 2302 df3c 2291 7d3b edf4 88bc 8c40 533d
00000230: 2c5d 38bc 173b 19bc 1839 543d 7cdd 183e
00000240: 88dc f63b 982a 27bd 45ba c0bc ffc1 47bc
00000250: b95b 0d3d de85 f4bc bee6 cdbd c364 3a3c
00000260: 01d9 d53a 7d16 1b3c 0161 843c 2e80 fd3c
00000270: af96 1fbc b7e1 80bc 907c 0bbd e3fb 54bc
00000280: 0450 6a3d 0bf1 3bbd ccad 983c 726a e5bc
00000290: f88e a1bd 10e1 913a f325 7dbc 4e9e f6b9
000002a0: 6fc1 ed3c 66d6 8e3c f26e d4bc b582 a33b
000002b0: c950 c93c 0518 9fbc 41f6 453d 7691 74bd
000002c0: 49be 223d 86c8 3abc 945e 56bd e059 ff3b
000002d0: ff1a 9ebc a480 7c3d 65e1 723b 5750 353c
000002e0: e30d c9bd d549 ab3a aa6e 50bc 873f 7abd
000002f0: e2d2 603b 47d0 8d3c 2f63 59bd 8412 653c
00000300: 8a19 b4ba cb49 dd3a 6e60 49bc e87a 903c
00000310: dd14 2ebc 564f 82bc a2e3 783c 0797 823c
00000320: fb82 7ebd f9e9 123d ea1b 6bbc a586 a43a
00000330: 569d 3cbc 2dc8 40bd e569 29bd 3afe c23c
00000340: 6b42 5a3c 5499 823d 8a39 9d3c b634 213c
00000350: a2b7 143d 3e67 93bc 48cc 82bd 8a17 dc3c
00000360: ced2 32bc fca4 713c 4636 92bc a039 a4bc
00000370: 24fe 8b3d 1682 0ebd 643f 873c df84 e03a
00000380: 89f7 583d 70ae 8b3d 41bc bcbc 9178 be3a
00000390: 9b90 eb3c 1628 863b 9ef3 0a3d eabe 193b
000003a0: ed36 793c d222 8e3d b24b edbc 69c0 723c
000003b0: b015 b63d cf11 92bd 539d 6fbc 8f56 a73b
000003c0: 95b1 36bd 2614 353d 6d29 7c3d 1be9 e23b
000003d0: a209 4d3d 1c36 913d d46b 693d 9975 4f3b
000003e0: 2b54 373d 5b95 94bc eee0 b73c 5d8c e63c
000003f0: ab81 dd3a cf51 25bb 3d88 d3bc 2aff 863c
0.021892266 -0.024157032 0.021480707 -0.00077518664 -0.021701083 -0.011682724 0.0022324 -0.021559605
-0.017396221 -0.013770274 -0.015330519 0.021846483 -0.021464318 0.023270102 0.089041315 0.046717715
0.0009538398 -0.02532956 -0.072227985 -0.0016350967 -0.001123543 -0.012426562 -0.04243271 0.014304849
-0.0221826 0.024411341 0.013742949 0.030081242 -0.028504666 0.028597249 0.023144001 -0.003146983
0.047293697 0.018924395 -0.019448597 0.048816558 -0.004396084 0.024326796 0.055447273 0.05456074
0.052142736 0.02202294 0.005518521 -0.018439341 -0.02148046 -0.010191031 0.0118604535 0.020410676
0.0070027364 -0.03457248 0.030441975 0.011064238 0.013288902 -0.02928476 -0.037660357 0.024784328
-0.044957146 -0.0031083687 0.02869752 0.017774168 0.0043378454 0.0011760386 -0.021727988 -0.028042631
0.05415892 0.014322044 0.03332708 0.041863903 0.011099052 -0.012600809 -0.017207293 0.007398999
0.06905315 -0.012872033 -0.0024046917 0.04629369 -0.014297422 -0.017809082 -0.017179694 -0.029735543
0.019342536 -0.016286261 0.011319767 0.00010137458 -0.082217894 0.0336751 -0.01305231 -9.79792e-05
0.02858624 -0.04861168 0.028526451 0.049189433 -0.0134940175 0.03084558 0.00543764 0.0037058531
-0.02530861 0.035466067 -0.012651845 0.016598403 0.011781745 -0.022391712 -0.04290369 0.07406849
0.0053176666 0.010975801 0.0018720583 -0.03230368 -0.02036448 0.11139611 -0.01964166 -0.005013653
0.009298001 -0.042420022 0.030824672 0.0034779743 0.032649636 -0.005003139 0.0058012055 0.03939623
0.040660005 -0.006692754 -0.004101944 -0.033388883 -0.013655991 0.062707916 0.04287505 -0.009733486
0.03110631 -0.01006883 0.0042447574 0.0065990943 0.06252166 0.014822321 -0.03291236 0.011167439
0.027222699 0.0038691242 -0.016718352 0.05157523 -0.011252683 -0.009352467 0.05181226 0.1492824
0.0075336136 -0.040812105 -0.02352632 -0.012192248 0.0345113 -0.02984899 -0.10053776 0.0113765625
0.0016315283 0.009465811 0.016159536 0.03094491 -0.009740516 -0.01573263 -0.03405434 -0.012999508
0.057205215 -0.045884173 0.01863756 -0.028004859 -0.07888597 0.0011129696 -0.015450942 -0.00047038723
0.0290229 0.017436218 -0.02593181 0.0049899467 0.024574654 -0.019420633 0.04833055 -0.059709035
0.03973225 -0.011400348 -0.05233629 0.0077926964 -0.019299982 0.06164612 0.0037060615 0.011066518
-0.09817102 0.0013068268 -0.012721697 -0.06109574 0.0034305383 0.017311228 -0.053073104 0.013981465
-0.0013740521 0.0016882954 -0.012291057 0.017636731 -0.010625091 -0.015906971 0.015190991 0.015941156
-0.06213663 0.035867665 -0.014349917 0.0012552334 -0.011512121 -0.047065903 -0.041360755 0.023802865
0.013321499 0.06376901 0.019192476 0.009839227 0.03630794 -0.017993566 -0.0638662 0.026866693
-0.010914518 0.014748808 -0.017848145 -0.020047009 0.06835583 -0.03479203 0.01650972 0.0017129442
0.052970443 0.06820381 -0.023038985 0.0014531781 0.028755477 0.004094134 0.033923738 0.002345974
0.015210849 0.06940235 -0.028966758 0.014816382 0.08890855 -0.07132303 -0.014624911 0.005106754
-0.04460295 0.04420867 0.061562944 0.006924761 0.050058015 0.07090399 0.0569876 0.0031655787
0.044758003 -0.018137624 0.022446122 0.028143102 0.0016899606 -0.0025225764 -0.0258218 0.016479094

conv2d_1/Conv2D_bias f4 [64]
00000000: 988d d6bd b38f f33e f55b fd3e ef1c d93e
00000010: df15 89be 38c2 0f3f c915 20bf 1b34 5bbd
00000020: 2cd0 a03e 33b0 c5be 7ec3 b23e 246a 0d3f
00000030: bbab 333e 2cfd 2fbd 24f6 cf3f a2ba 0f3e
00000040: d607 e23d 7f23 303e be27 4c3f 5382 b73e
00000050: 2ed5 0f3f c18b c03e f870 e83e 435f ecbd
00000060: 60a9 b73e da01 113f 5e1e 66be be32 e63e
00000070: d5c8 963f 3ffe 503f ddf9 ecbe 9513 e0be
00000080: f61b e13e e99f 663f e04d 8a3e c9ac 5f3f
00000090: 9427 423f 6188 663e 7cc7 9e3d 5c47 b93e
000000a0: 36b2 d93d 5672 513e 8510 da3c f76e 7d3e
000000b0: dccf 863e 4134 8b3e d780 163f a38d 163e
000000c0: e0bc c33c 8506 0a3e c87f a03e 4aca 8b3e
000000d0: e0ed d93c 7baf cabb 28c6 a9be e72e 02bf
000000e0: 681e b73d 52aa 1f3f aa02 f23e d588 75be
000000f0: b9e6 71bf 36de 2a3f aeaa 9b3e 3417 963e
-0.104762256 0.4757057 0.4948422 0.42404887 -0.267745 0.5615573 -0.6253324 -0.05351649
0.31408823 -0.38610992 0.34914774 0.5524008 0.17545979 -0.042966053 1.6246991 0.14036039
0.11036651 0.1720104 0.7974814 0.35841617 0.5618466 0.37606624 0.45398688 -0.11541607
0.3587141 0.5664345 -0.22472522 0.44960588 1.1780039 0.8163795 -0.4628438 -0.4376494
0.43966645 0.90087754 0.2701254 0.87373024 0.7584164 0.22512962 0.077528924 0.36187255
0.10629694 0.20453772 0.026619205 0.24749361 0.2633046 0.27188304 0.58790344 0.14702468
0.023893774 0.1347905 0.3134749 0.27302772 0.026602685 -0.0061854697 -0.33158994 -0.5085282
0.089413464 0.62369263 0.47267658 -0.23977979 -0.9449268 0.66745317 0.30403656 0.29314578

conv2d_1/kernel f4 [64, 1, 1, 64]
00000000: b3b6 f13d a249 503c cd6f 3ebe 49f3 91be
00000010: 5e56 b13d 15e3 823d 4685 3dbd 67f5 cfbd
00000020: d236 3b3e b9b1 93be 8b5d 5bbe 4c39 7e3e
00000030: 26fc 55bc 7086 2f3e cad0 68bd da32 363d
00000040: 39a4 5ebd 5ebb dfbc 7610 25be 3e26 583e
00000050: ab09 d6bd b936 7f3c ec5f fd3d 6e52 323d
00000060: 7cbb 2d3e 4832 ffbd 1b93 813d 18b0 9ebd
00000070: 757a 433e f0cc 47bd 2ae9 00bd c840 fd3d
00000080: dc82 3ebe 6a98 1f3e 2822 393a 71cd 2d3e
00000090: f9df a73d b51c 933d 096d 203e 185a 16be
000000a0: 0645 403d f718 083e f823 8e3d 8508 703d
000000b0: eaad 013e d954 d0bd 3b0c 8dbd 117d 03be
000000c0: 71de 7fbd 94f7 38bc 084f 56bc 8a81 513d
000000d0: 79b3 b2bc 710f 3c3d ebf1 2c3e 64cb 953d
000000e0: a58f 82be 611e 873d a580 0bbd e2b0 82be
000000f0: 4f70 b3bd 516f 1cbd e090 7fbe 8ec9 623e
00000100: 88cf 5bbe 752e a0be e766 bb3e 9f98 f33d
00000110: bcec 323e 4cf4 093d 05d5 18be 5207 90be
00000120: 00f4 863e b167 98bd 14ed 8fbd 5ea0 543d
00000130: 4298 5cbe 6b2d 003e 1e81 24be 8462 4dbe
00000140: abfc 263e 2327 b0be 52d9 8e3d f1de c93b
00000150: 5ab1 c73b bd3a c63d 9aa4 05be f269 c2bd
00000160: e089 a9bd e4db 90bd a56c fd39 1bbd 46bc
00000170: 87a8 283e 8d0a f43d 1401 bbbe 1500 2dbe
00000180: a3c1 0ebe 2411 973d e01c a23b 902a 5b3d
00000190: 81d3 0a3e d726 0dbe 9eac 273e 311e 2bbe
000001a0: e482 313b 1515 8cbd 220e d5bd 1de3 843e
000001b0: c44a eabd 4935 5f3e a46d 4b3e d93b a03d
000001c0: 650f 54bd a06d d03e b96b d13b 00a2 c5bd
000001d0: dbc2 133d 54cb 85bd d192 29bd c9e4 90be
000001e0: 4809 d33d 63a0 c2bd 3dc0 dcbd b337 16be
000001f0: b248 bdbd 0bc6 9c3d 3582 94b9 a231 b3bd
00000200: c092 2fbe d1e1 393d a3ed b8be b1c6 a3bd
00000210: 9cab d83e c94c f8bd 67b7 9ebe 630a 343e
00000220: afb1 2dbb f69c 06bd 016c a4be 08cc 053f
00000230: b963 2dbe 1a37 35be 8cfb b9bd 3e7d 1dbe
00000240: 7294 003e aace b1be e18a dabc 031b 533d
00000250: a896 6f3d 6fed a7be 7549 693c ae1b 193d
00000260: 1273 a53d 4690 ca3d 3678 f23b e774 c13d
00000270: 08c7 5ebc 0b60 78be a49d 89be 6f23 763b
00000280: e07a 12bd 00e4 71bd 0c76 7c3c d039 993e
00000290: 0022 adbe fc87 b4be e938 373d 26c2 863e
000002a0: a2dc 0f3d 8f78 103e d567 643d 4bfb bb3e
000002b0: 054f 053e c49b c7bd a66b 5fbd 0ef6 15bd
000002c0: 60af 133c d279 5c3d f365 5ebe b3f0 2a3e
000002d0: fee9 7c3d 7950 2e3e 245a 45be d25a 50be
000002e0: 795f 3cbe 01f3 f8bd 6e9e 38bd deaa 7cbc
000002f0: 9de8 86be c455 b33e 735d 11bd 2c62 943e
00000300: f433 6b3e ff26 56bc 8748 c83d 9187 203d
00000310: 2bfc 86be 53c8 8fbc 7c4b 313d 0f5b fdbd
00000320: ce94 d23d ef26 6d3d 60cc bdbd 7c0d 86bc
00000330: 47e1 303d 5f76 0dbe 61a8 d73b d543 e63d
00000340: 3318 9a3c 1fcb 3cbe e663 9abd c856 79bb
00000350: 0283 b3bd 1625 48be b231 3ebd 08cb 003e
00000360: ddd4 5fbe 9bb9 38be 808d 4bbd 3a0d 203c
00000370: bfde f93c 0613 a23d cb50 ebbd 841a 65bc
00000380: 25bb cd3c 55e5 a3bc c3ab 9abd 288f f7ba
00000390: 9e26 c73b 5d08 d63c 4bd0 c33c c0cb 8ebe
000003a0: 922d 4b3d 38fe 133e b185 3b3e 24ba 52be
000003b0: 3aab 393e 1dc2 99be 72d8 513e 26e1 97bd
000003c0: a3ff 6b3d 7691 d1bc ef50 cebd 64e4 293e
000003d0: 4e35 cfbe 7d3e 253e 68a4 acbc 81d2 b33c
000003e0: 8a92 0fbe 803d c33d 50db 8c3d f51a d93d
000003f0: c4b4 a73d 1c5d 86bd 7f7b 60bd 9e2c 86bb
0.11802425 0.012712868 -0.18597336 -0.28505924 0.08659051 0.06390969 -0.046269678 -0.10154229
0.18282631 -0.2884653 -0.21422403 0.24826545 -0.013060605 0.17141128 -0.05683974 0.04448209
-0.054355834 -0.027311023 -0.1611956 0.21108338 -0.10451063 0.015577012 0.12371811 0.043535642
0.16966051 -0.12460762 0.06326886 -0.07748431 0.19089682 -0.048779428 -0.031472363 0.12365872
-0.18604606 0.15585485 0.00070622796 0.16972901 0.08197016 0.0718321 0.15666594 -0.14682806
0.046940826 0.13290773 0.06940454 0.058601875 0.12663999 -0.101724334 -0.068870984 -0.12840678
-0.062467996 -0.011289496 -0.013080366 0.05114893 -0.021814095 0.045913164 0.1688916 0.07314184
-0.25500217 0.06597591 -0.03405823 -0.25525576 -0.087616555 -0.038192097 -0.24957609 0.221472
-0.21465886 -0.31285444 0.36601946 0.118943445 0.1747312 0.033680245 -0.1492501 -0.28130585
0.26358032 -0.074416526 -0.07027641 0.05191075 -0.21542457 0.12517326 -0.1606488 -0.20057112
0.16307323 -0.3440486 0.06975044 0.00616061 0.00609414 0.09679172 -0.13051072 -0.09492864
-0.08278251 -0.07073191 0.00048336867 -0.012130047 0.16470538 0.11916075 -0.3652426 -0.16894563
-0.13941054 0.07376316 0.00494729 0.053507388 0.13557245 -0.13784347 0.16374442 -0.16710736
0.0027086074 -0.068399586 -0.10403086 0.25954524 -0.11440042 0.2179767 0.19866043 0.07823915
-0.051772494 0.40708637 0.0063910154 -0.0965004 0.0360745 -0.065329224 -0.04139978 -0.2829955
0.10304505 -0.095032476 -0.10778854 -0.14669685 -0.09242381 0.07654961 -0.00028325772 -0.08749701
-0.17145824 0.04538137 -0.36118802 -0.07996882 0.42318428 -0.121240206 -0.309993 0.17582087
-0.0026503613 -0.032864533 -0.3211365 0.5226445 -0.16932572 -0.17696801 -0.09081182 -0.15379807
0.12556627 -0.34727985 -0.02667755 0.051539432 0.058493286 -0.32798335 0.014238705 0.037379913
0.080785885 0.09890799 0.007399584 0.094461255 -0.013597257 -0.24255387 -0.26878083 0.003755774
-0.035761714 -0.05905533 0.015409004 0.2992692 -0.33815002 -0.35259998 0.044732008 0.26319999
0.03512252 0.1410849 0.055763084 0.3671516 0.13018425 -0.09746507 -0.05454602 -0.03661161
0.009013981 0.053827114 -0.21718578 0.16693382 0.06174659 0.17022885 -0.19272667 -0.20347145
-0.18395795 -0.12155724 -0.045072965 -0.015421597 -0.26349345 0.3502637 -0.03548951 0.2898115
0.22969037 -0.013070821 0.097794585 0.039191786 -0.26364264 -0.017551577 0.043284878 -0.12370884
0.102822885 0.057898458 -0.09267497 -0.016363852 0.04318359 -0.13814686 0.0065813516 0.11243407
0.018810367 -0.1843686 -0.07538585 -0.003804611 -0.08765222 -0.19545397 -0.046434112 0.1257745
-0.21858545 -0.18039553 -0.04969549 0.009768778 0.030501721 0.07913785 -0.114900194 -0.013983373
0.025113652 -0.020006815 -0.07552292 -0.0018887268 0.0060776016 0.026127035 0.023903033 -0.27889824
0.049604006 0.14452446 0.18312718 -0.2057882 0.18131724 -0.3003091 0.20492724 -0.074159905
0.05761684 -0.025582056 -0.100740306 0.1659103 -0.40470356 0.16137119 -0.021074489 0.021950962
-0.14020744 0.095332146 0.06877768 0.10600845 0.08188775 -0.06560728 -0.054805275 -0.0040946743

conv2d_2/Conv2D_bias f4 [64]
00000000: e2e1 0c3f 3116 063f 22f1 bd3e 03eb 0d3e
00000010: 465f a6bf 1647 0d3e cf01 4dbf b072 2a3d
00000020: de89 fa3e a9fa 9bbd 9274 8b3c 5035 b83e
00000030: d763 a63e b200 de3e d13b bfbe 3091 4f3e
00000040: ce56 0e3e ccef 783f f83b 07bf b1f0 9ebe
00000050: 0946 23bd 783f 3dbe 68a2 c3bc 0c81 11bf
00000060: 418e 3a3e 2185 3b3f e7ed 0fbf 0513 773e
00000070: 5015 9f3e 14cd f03e 8f5b abbe ec87 113f
00000080: ca38 b53e c77c 29bf b375 90be e179 863f
00000090: c193 6cbe 2950 823f 764a b13b 23d6 02bf
000000a0: 0efc ba3d 54bc 663f 9c7e af3e b17b de3e
000000b0: 09bd 5cbd d261 c33d dda8 773e 7f99 46bd
000000c0: ed1f 0d3e 5e75 803f f20b 76bf 1e45 42bd
000000d0: d3a9 03bf a1c4 c7be b5e0 8e3f d238 41bf
000000e0: 3b3f 6abf 1d27 593f b878 623e 0a7a d33d
000000f0: 6ee7 16bf 9ff1 a8bf b16c f73e 6380 a43e
0.5503217 0.5237761 0.37098032 0.13859181 -1.2997825 0.13796648 -0.80080885 0.04161328
0.4893331 -0.07616169 0.017023358 0.35978174 0.32498047 0.43359905 -0.37350324 0.20270228
0.13900301 0.972409 -0.5282588 -0.31043008 -0.039861713 -0.18481243 -0.023881152 -0.56837535
0.18218328 0.73250014 -0.56222385 0.24128349 0.31070948 0.47031462 -0.3346829 0.56848025
0.3539489 -0.6620602 -0.28214797 1.0505944 -0.23103239 1.0180713 0.0054104878 -0.51107997
0.09130107 0.90131116 0.34276283 0.43453744 -0.053891215 0.09540142 0.2418551 -0.04848623
0.1378171 1.0035818 -0.9611198 -0.047429197 -0.51431006 -0.39017203 1.1162325 -0.75477326
-0.9150273 0.8482531 0.22116363 0.103260115 -0.58946884 -1.3198737 0.48325112 0.321292

conv2d_2/kernel f4 [64, 1, 1, 64]
00000000: 7c8b a73d a558 2fbe 5eb6 e6be 2983 35be
00000010: a4d1 3bbe fa1d c43d 9318 56be 5077 403e
00000020: 1dd1 4bbe b9ba 6fbe 4fe5 563d 620f 943d
00000030: 9649 a53e ffca 013e 6949 78be 4cce cf3d
00000040: 9587 153d 38ff 42be ac08 153b d0d1 483e
00000050: 2bee ca3e 112f 73be fc31 59be 9fbd 903e
00000060: 9270 30be 985e a1be df53 c93d 5fc7 71be
00000070: 0042 d0be 8631 b1bd f59e 303e 26c2 37be
00000080: 0e13 913d ce61 093e 91ee 173e 4d66 293e
00000090: 698b ecba 40ae c83c bf3c 043c 770d 933e
000000a0: 7cac 9f3e 5bb1 0d3e 10cf 8ebe b993 4d3d
000000b0: c608 5d3e 46e2 ef3d 4dce d2bd adc5 cfbc
000000c0: 72f8 a7bd 6660 21be a2b6 a3bd 6e07 18be
000000d0: c7a7 bdbd 5138 4fbe 347d 5c3e 2b17 3ebe
000000e0: e153 4f3e 50d0 b1bc 7913 ddbd c015 2cbe
000000f0: b954 2f3e 4865 6b3d 6c34 b13e 871a 783d
00000100: 294a 98be 6d0d 393d ed5e cbbd 352d 26be
00000110: 0ad9 e43c d13f de3d 85cf c23d 6915 b2bd
00000120: 8d6a 0abc c919 0b3e 6b94 343d 8fe5 0c3d
00000130: 3ae3 c3bd 4642 213e f32b a4bd ba9d d63c
00000140: 6727 133e ba1a 0c3e b975 c1bd 5d05 683d
00000150: b1ba 9dbd f90e eb3d 95f0 243e bf39 82be
00000160: a2df 18be ea30 9d3c 0205 743c a479 8ebd
00000170: 27ba a8bd 4bdf 6cbd 0b7b ef3c 834c 91bd
00000180: cda2 1d3e 2a54 4c3d b5f9 e1bd 53a0 123e
00000190: 7be8 023e 6d94 62bc 6fba 53be 1506 17be
000001a0: 3688 36bd 3379 85bc f48c acbd a213 60bd
000001b0: 1980 dc3c 7c01 823d c8da 38be ad23 cebb
000001c0: 4ba4 523e 3469 39be 6e31 933d baa0 253e
000001d0: 3b08 46be 43f5 623e 60fd 12be b20f 2bbe
000001e0: 0a7e 45be 9c84 913d 08f7 50bc ad26 78bd
000001f0: a313 a8bd e994 c2bd 43df 9c3d 03e2 48bc
00000200: d5bc 6fbe 8aaf 5cbd e32e 22be bc1b 0c3e
00000210: eaf8 8dbe 5367 01bf f2bb 80be f802 e3bd
00000220: f47c 1f3d 88f9 d0be 55a0 10bc d3b8 68be
00000230: 21ac 0bbe d03c c83c 6b4f f33d c885 9cbc
00000240: c07b bebc a284 7dbe c028 893e 85e5 d5bb
00000250: 8384 ec3d 09a1 bd3e 979c 403e 1cb2 49be
00000260: 8777 a6be f04e c73e c380 36be 9a71 903b
00000270: 58b0 79be bcab bd3c 6b89 b93d fd4c 4f3e
00000280: e0cd 843e 180a 0d3d 5eb3 4bbd 65d6 683e
00000290: a1eb 08bf ab92 bf3a 6d62 073f d1db 2e3e
000002a0: bcab 463d d738 bf3e 02fc 6b3e cdb8 15be
000002b0: dc40 893e 1c42 1d3c 101e 8a3d eaa5 433d
000002c0: c22b cdbd 9204 893e 7a53 7ebe 59a6 acbc
000002d0: f4ca dcbc c230 f03d 0f95 c83e 750a 3fbe
000002e0: f906 cf3d 1344 d9be 1e6a cebe 7e05 c33e
000002f0: d6a2 84be a91b 77be 707c 243e bccc 8d3e
00000300: f296 2cbe d6b3 273e 90fb 5c3e 24c1 2a3e
00000310: 118c 413e f26e d9ba ae83 1fbe 4ba3 8fbd
00000320: 24c9 94be c7ef dfbb 0629 81be f322 da3d
00000330: 813c ac3d 1a2e 9fbe fb02 5cbd 783b 3fbd
00000340: 274f 82bd 6d12 11be 9278 283e 7233 06bc
00000350: 5456 de3d b9e9 ff3c 0194 c0bb c542 a03d
00000360: ecad 04be c59a 64be 082b 133e 9f92 253d
00000370: d018 e0bc 9a12 263e 9650 2e3e 5f8d 5ebe
00000380: 447f e43d 8a47 12be 6eed 0bbe d7ed 4bbd
00000390: 628e 303e 5fb8 243e aede 6e3e 3970 7d3c
000003a0: f51c 46be a797 343d 1ee5 76bd 5491 ccbd
000003b0: ecb9 b9be 7b96 0abe 729d 03be ba26 fa3c
000003c0: 6466 183e 6476 16be 9485 aebd cbdf 463e
000003d0: 27cd 433d d2e6 093e 4a00 86be 37d6 a83d
000003e0: c9eb a7bc d2a6 b53d c8af e2bc 28e2 54be
000003f0: f008 d7bd 7cfa bf3c 284b 023e 7843 403d
0.081809014 -0.17123659 -0.4506101 -0.17725815 -0.1834169 0.0957603 -0.20907812 0.18795514
-0.19903989 -0.23411073 0.05246478 0.072294965 0.32282704 0.12675093 -0.24246754 0.1014677
0.036506254 -0.1904267 0.0022740765 0.19611287 0.39634833 -0.23748423 -0.21210474 0.2826967
-0.17230442 -0.31517482 0.0983045 -0.2361121 -0.40675354 -0.08652024 0.17248137 -0.17945156
0.070837125 0.13416216 0.148371 0.16542931 -0.0018046919 0.024497151 0.008071124 0.2872121
0.31186283 0.13837187 -0.2789235 0.050189707 0.21585378 0.1171308 -0.10293255 -0.025362814
-0.08201684 -0.1575943 -0.07993819 -0.14846584 -0.092605166 -0.20236327 0.21532136 -0.18563525
0.20246841 -0.021705776 -0.1079473 -0.16805172 0.17122163 0.057469636 0.34610307 0.060572173
-0.2974408 0.04517882 -0.09930215 -0.16228183 0.027935524 0.10852016 0.095122375 -0.0869549
-0.008448255 0.13584055 0.044086855 0.03439861 -0.095648244 0.15747938 -0.08016195 0.026198257
0.143705 0.1368207 -0.09446282 0.05664574 -0.07701624 0.11477465 0.161074 -0.25434682
-0.14929059 0.019188363 0.014893772 -0.06956795 -0.08238631 -0.057830136 0.029233476 -0.070946716
0.15394135 0.049884953 -0.11033956 0.14318971 0.12783997 -0.013829333 -0.20676588 -0.14748414
-0.044563495 -0.016293144 -0.08425322 -0.054706223 0.02691655 0.06347939 -0.18052208 -0.006290874
0.20570485 -0.18106538 0.07187162 0.16174594 -0.19339077 0.22163872 -0.14354467 -0.16705206
-0.19286361 0.07105371 -0.012754209 -0.06058376 -0.082068704 -0.095010586 0.07659771 -0.012260917
-0.23411877 -0.053878345 -0.15838198 0.13682455 -0.2772897 -0.50548285 -0.2514339 -0.110845506
0.038937524 -0.40815377 -0.008827289 -0.22726755 -0.1363988 0.02444306 0.11880382 -0.01910676
-0.023252368 -0.24757627 0.26788902 -0.006527605 0.11548712 0.37036923 0.18809734 -0.1969685
-0.32513067 0.38927412 -0.17822556 0.0044080736 -0.24383676 0.023153178 0.090594135 0.20244212
0.2593832 0.034433454 -0.049731605 0.22738035 -0.5348454 0.0014615854 0.5288456 0.17076041
0.048503622 0.37348053 0.23045352 -0.14621277 0.26807296 0.009598281 0.06744015 0.04776565
-0.10018112 0.267613 -0.24836531 -0.021075414 -0.026952244 0.1172805 0.39176223 -0.18656333
0.10108752 -0.4243475 -0.40315336 0.38090128 -0.25905484 -0.24131645 0.16063094 0.27695262
-0.16854456 0.16377196 0.21580338 0.1667524 0.18901087 -0.001658885 -0.15577576 -0.070135675
-0.29059708 -0.0068340036 -0.2522661 0.10651197 0.08409978 -0.3108986 -0.05371378 -0.046687573
-0.06362753 -0.14167185 0.16452244 -0.008190976 0.108563095 0.031239377 -0.0058770184 0.07825235
-0.12956971 -0.22324665 0.14371884 0.040423032 -0.027355582 0.16218033 0.17022929 -0.21733616
0.111570865 -0.14285102 -0.13664791 -0.04978737 0.17241815 0.16085957 0.23327133 0.0154686505
-0.19346984 0.04408994 -0.060277097 -0.09988657 -0.3627466 -0.13533966 -0.1285303 0.030536044
0.14882809 -0.146936 -0.08521572 0.19421308 0.04780307 0.13466957 -0.26172096 0.08243983
-0.020498173 0.08869709 -0.02767171 -0.20789397 -0.104997516 0.02343487 0.12723982 0.046939343

conv2d_3/Conv2D_bias f4 [64]
00000000: 06ab 843d 3c15 0abe ce83 363f b166 fc3e
00000010: c877 7fbc f844 c9bd c979 ac3e b4a8 41bf
00000020: 4c5b c9be f8ae c03e b570 763e cb63 273f
00000030: 87a9 0cbe adc6 c0be 2d23 0b3f 5cc8 8f3e
00000040: 7490 2ebf 8157 963e 16f4 94be 4f10 9a3c
00000050: 3752 4cbf 623b 4b3f 4ca6 71bd a68f 943e
00000060: 76c1 053e 3e80 9e3e 810b 6a3d a6f9 ddbe
00000070: 4b6e abbe f167 e5bd f966 c3be 29d7 8fbd
00000080: be5f d53e 1882 073f 37fe f2bd 9985 88bf
00000090: 62db 47bf 16a6 8e3f f5ae 9fbd 1ea8 d63e
000000a0: 6de2 783e f6e9 643d 084c 9d3f 510f 7cbe
000000b0: 0ea4 b6be 8689 dabe 2388 fd3e a860 a43f
000000c0: 10a4 53bf 617a f53d 910d 0f3f 7244 7e3f
000000d0: 035c e8bd da4b c03e 722d 12bf 18f5 343e
000000e0: aded 35bf 10d8 12bf 0862 5dbe 284a ac3e
000000f0: 93ac 7abe 8bce 30be 7dde 1b3f 1644 883f
0.06477933 -0.13484663 0.7129487 0.49297097 -0.015592523 -0.09827608 0.33686665 -0.75648046
-0.39327466 0.3763349 0.24066432 0.65386647 -0.13736545 -0.37651578 0.5435055 0.2808255
-0.6818917 0.29363635 -0.29092473 0.018806605 -0.7981295 0.79387486 -0.058996484 0.29015845
0.1306208 0.30957216 0.057139877 -0.4335453 -0.33482584 -0.11201466 -0.381645 -0.070234604
0.41674608 0.5293288 -0.11864894 -1.0665771 -0.78069127 1.1144435 -0.07797042 0.41925138
0.24305125 0.055887185 1.2288828 -0.24615218 -0.3567204 -0.42683047 0.49517927 1.2841997
-0.82672215 0.119862325 0.55880076 0.9932319 -0.11345675 0.3755787 -0.57100594 0.17671621
-0.7106579 -0.57360935 -0.21619427 0.33650327 -0.24479894 -0.1726629 0.60886365 1.0645778

conv2d_3/kernel f4 [64, 1, 1, 64]
00000000: 2032 61be f14e d2bd 8ca6 453d 54b9 27be
00000010: 5e05 32bd af50 43be 0b44 453d 3352 f23d
00000020: d7fa 8ebd e3c7 653e 5c5c 2bbd 71b7 a5bd
00000030: 3649 373e 2527 933c 905b 6f3e 7100 7f3e
00000040: ab86 f9bd 2c10 313d 86ed 89be 01d3 b63d
00000050: a0bd 03be c346 28bd d193 fabb 75d1 16be
00000060: b179 f0bd 7aa5 06be 493d b53d b88d 2f3d
00000070: 47e8 83be 8f8b 693e 56f0 d6bd 07ac 3a3e
00000080: 7412 77be 310e 6e3d d9df 3b3e f0ea 76be
00000090: f052 883e 74ad 223e a4f1 19be cb66 b4bd
000000a0: f202 a73c 9ad6 efbd 802a 183e 4783 64be
000000b0: 0bf3 6a3e 7b0a 5abe 6d5c 563e 993e 573e
000000c0: 4349 b63d 57d4 6ebe 864f 1fbc b7de 2e3e
000000d0: 7408 d1bd 9067 5c3d 563f 38be b7f9 6cbe
000000e0: 67d7 533c 2fba 7c3e 6b3f 333c 1b76 8ebe
000000f0: e96f 923e 2777 853e c796 b8bd 5385 123e
00000100: 4ee5 90be bece 1abe dab9 4c3e 3938 4ebd
00000110: a2ff 0a3d 6746 84bd e5fb 613d df9c c83d
00000120: 828c a5be ed44 8e3e 8196 73bc 5e3a a7be
00000130: 0c59 2bbe 9a66 d33d ec7a 87be d4f1 7abe
00000140: f7c6 f538 3d41 9739 a7a7 1b3e 8176 7abe
00000150: 50b5 203e 0c53 adbe 31a3 e23c 3867 87bd
00000160: 6b6e 7d3d 8400 57be 044d dd3e 1027 213e
00000170: 2ede 21be 31f2 8d3e 7197 fdbe ef38 053f
00000180: f1d4 e43d 191c 01be f656 edbd 36a6 cdbc
00000190: c9ae 843e 7ff6 9dbd aed9 753d 830f 0abe
000001a0: 4f5b 993e 2309 ad3e 4cfe 05bf 7a8d d43d
000001b0: 54aa 223c d17f 8f3d d9ec 1d3b 1bc7 1fbd
000001c0: 30da 32bd c55a 283e e4cd 07be 7855 dc3d
000001d0: 8273 5f3e 32b5 d93e 25ca 833c 6dae 363e
000001e0: 2a74 85be 025c bd3d 3da5 973b 0ff1 0f3d
000001f0: 0047 3c3e 8b6c fb3d 354c 8bbe 3f7a 2bbd
00000200: 7e95 053e e6f9 2b3e b34a 80be 4e90 01be
00000210: 4120 943d f434 78bd c271 8cbe 5d50 dc3d
00000220: c1bb e8bd b18e 1fbb d0e4 bdbe 4980 13be
00000230: 7692 913e 35fe aabd cdbc 353e fc11 923e
00000240: 2204 6ebc 19e1 3cbd 7055 c8bd b8fd 843e
00000250: cf4d 1c3e d9ed 803c 293b ab3d 2a35 cebd
00000260: 99eb 22bd 9c50 843e d281 9cbe 96ab 0a3e
00000270: 71c7 53be 0766 a9bb 9e5a 493d 7e31 04be
00000280: 8d1f 523e 9a31 babe 89da b63d e36d 57be
00000290: 98fc 4f3d c7ee 4bbe 1032 843d faeb b0be
000002a0: 2ab7 15be f198 9c3d 129f 03be 653b 97bd
000002b0: ea00 aabd 0533 f1bd c7b0 4d3d 7210 853e
000002c0: 4ded 933d 8a87 303e f1f1 aebd 7755 30be
000002d0: c54d 023e c8de cbbe 35b7 263e 68f0 d2bc
000002e0: 16c7 a4bd 2323 a93e e4d6 dbbd 8d3b aebd
000002f0: 146a 543c aaa8 0ebe 26c4 3bbd 895a b8be
00000300: e0ae a7bd b347 86be 1b0d 603e 9016 ee3d
00000310: ba03 d6bd ffb4 3ebe bef2 c6bb e9bd dbbd
00000320: c70f 4cbc ac51 70bc 7e52 f03d e8be 64bb
00000330: b45e 0cba f68e 633e badc 2d3e c3c9 1bbe
00000340: 2a8b adbd 3a99 033d eeb5 113e 3df1 b03e
00000350: ec5c 4c3e 44fc 01be 7fbd 9c3b e245 283e
00000360: 858f 693e 67bd 473c 6bc1 1fbe 4b07 d93c
00000370: ef12 673e 3d8b 8cbe 3c35 823d 1557 393d
00000380: 089b 06be 81e1 783d 1f3a 3dbe b834 9fbe
00000390: fbcf b13d 6546 d33c 38ff 33be 385b 59bd
000003a0: 6cd1 a93e e173 09bc 6e5c 2bbe 01eb 6a3d
000003b0: 7338 583d 4806 853c 54f7 333e 008f 3d3d
000003c0: e211 2bbe eb03 da3a 233f ccbc 5aeb 0d3e
000003d0: 51f2 d6bd 7fbb 07bd 1938 bdbd 167a 043e
000003e0: acdb 53be ad20 c3bd 6022 aebe 2fab 3f3d
000003f0: 746c 57bd 9a5d afbd 2d1c cd3d 6cdc 883d
-0.21991777 -0.10268963 0.048254535 -0.16379291 -0.04346215 -0.19073747 0.048160594 0.118320845
-0.06981438 0.22439532 -0.041836128 -0.08091629 0.17899022 0.017963002 0.23374772 0.24902512
-0.12183889 0.043228313 -0.26939029 0.089269646 -0.12865305 -0.04108311 -0.0076470156 -0.14728339
-0.11741961 -0.13149062 0.0884958 0.042859763 -0.2576315 0.22807144 -0.10495059 0.18229686
-0.24128133 0.058119003 0.1834711 -0.24113059 0.26625776 0.1588648 -0.15033585 -0.08808669
0.020387147 -0.11710854 0.14859962 -0.22315703 0.22944276 -0.2129306 0.20933695 0.21019973
0.08900692 -0.23323189 -0.00972355 0.17077146 -0.102066904 0.053809702 -0.1799291 -0.23142134
0.012929774 0.24680398 0.010940413 -0.27824482 0.28601006 0.2606747 -0.090131335 0.14308672
-0.28299946 -0.15117928 0.19992772 -0.050346587 0.033935197 -0.06458741 0.055171866 0.09795546
-0.3233376 0.2778696 -0.014867426 -0.32661718 -0.16733187 0.10322304 -0.2646097 -0.24506313
0.000117195705 0.0002884957 0.15200673 -0.24459268 0.15694165 -0.33852422 0.027665706 -0.06611484
0.06187288 -0.2099629 0.4322282 0.15737557 -0.15807411 0.2772384 -0.49529603 0.5204
0.11173428 -0.12608375 -0.11588852 -0.02510367 0.259146 -0.07713031 0.06002205 -0.1348248
0.29952475 0.33796033 -0.5234115 0.10378547 0.009928305 0.07006801 0.002409747 -0.03900824
-0.04366511 0.16440876 -0.13262135 0.10758489 0.21821406 0.42521054 0.016087601 0.17839976
-0.2606519 0.09246065 0.0046278522 0.035142 0.1838646 0.12276562 -0.2720658 -0.04186463
0.13045308 0.16794547 -0.2505699 -0.12652704 0.072327144 -0.060597375 -0.2743054 0.107575156
-0.11363936 -0.0024346525 -0.37088633 -0.14404406 0.28432053 -0.083492674 0.17747803 0.28529346
-0.0145273525 -0.046113107 -0.09781921 0.25974822 0.15264057 0.015738415 0.08360893 -0.10068734
-0.039775465 0.2584275 -0.30567795 0.13542017 -0.2068155 -0.0051696333 0.049158685 -0.12909505
0.20519848 -0.36365968 0.08928401 -0.21038012 0.050778 -0.19915305 0.06454861 -0.34555036
-0.14620653 0.07646359 -0.1285365 -0.073843755 -0.083009556 -0.11777309 0.050217416 0.2598911
0.07222996 0.17239204 -0.085422404 -0.17220102 0.12724979 -0.39818406 0.16280825 -0.0257494
-0.08045785 0.3303462 -0.107343465 -0.08507452 0.012964744 -0.13931528 -0.04584136 -0.36006573
-0.08187652 -0.26226577 0.2188 0.11625397 -0.104499295 -0.18623732 -0.0060714176 -0.10729582
-0.0124549335 -0.01466791 0.11734484 -0.0034903828 -0.0005354688 0.22222504 0.16978732 -0.15213685
-0.08473809 0.03212855 0.14229557 0.3455905 0.19957322 -0.12693888 0.004783332 0.16432908
0.22808655 0.012191153 -0.15601127 0.026492735 0.22565816 -0.2744998 0.0635781 0.045249064
-0.13145077 0.060761932 -0.18479203 -0.3109491 0.08682247 0.025790403 -0.17577827 -0.05306551
0.3316759 -0.008389444 -0.16734478 0.057353023 0.05278821 0.016238347 0.17574817 0.046278954
-0.1670604 0.0016633248 -0.02493245 0.13859311 -0.10495437 -0.033137795 -0.092392154 0.12937197
-0.20689267 -0.09527717 -0.340106 0.046794113 -0.052593663 -0.08562775 0.1001514 0.06682667

conv2d_4/Conv2D_bias f4 [64]
00000000: 7913 0240 1fb7 623f 6e0f df3f 9d5b 933b
00000010: e9d0 c83f 66f3 933e 95c6 fd3f 4060 d0bf
00000020: bbb1 b9bf 4d27 c5bd 5cf6 c0bf e302 a03f
00000030: 3d43 80bf c8c9 60be 4510 913c 29ab 953e
00000040: 2e68 3140 4712 043f 1953 773f 0b54 6c3f
00000050: c48e 77be b5c3 45bf cb6f ac3e 8f53 adbe
00000060: 1742 abbf ddfc 913f c1b5 8d3e 2561 913f
00000070: 02c1 ad3e 31f6 af3f cb8f 2240 51cf 853f
00000080: d164 0c3d 82a6 b4be 6860 ae3f 7dde 1dbe
00000090: b830 9a3f 8c9d 523f adb2 043f 3e4b a63f
000000a0: 3cc4 5f3f f1a7 83bf cf33 ad3e 2c3f 83be
000000b0: abf7 cf3d 5149 533f 7986 a1bf 78c5 6dbf
000000c0: 853f 323e 47b5 d3bf cfcc a33f c4bc 1bbf
000000d0: c447 a5bf f978 a53e fcfc e13f a58a a43e
000000e0: d97d 683f 3df0 713f 42b3 46bf 1ff8 e73f
000000f0: a95e 103e c598 10bf 0765 4240 4faf b63f
2.0324385 0.8856067 1.7426584 0.004497005 1.5688754 0.28896636 1.9826227 -1.6279373
-1.4507364 -0.09626637 -1.5075183 1.2500881 -1.002052 -0.21951973 0.017707953 0.29232147
2.7719836 0.5159039 0.9661117 0.9231574 -0.24175555 -0.7725175 0.3367904 -0.33852813
-1.3379544 1.1405293 0.2767773 1.1357771 0.33936316 1.3747007 2.5400264 1.0453893
0.034275834 -0.35283285 1.3623171 -0.15416904 1.2046118 0.8227165 0.5183514 1.2991712
0.87408805 -1.0285627 0.3382859 -0.25634134 0.10154661 0.82533747 -1.2619163 -0.9287944
0.17407043 -1.6539696 1.2796878 -0.6083491 -1.2912526 0.32318857 1.765533 0.32137027
0.9081703 0.945072 -0.77617276 1.8122596 0.1409861 -0.5648311 3.0374162 1.427225

conv2d_4/kernel f4 [64, 1, 1, 64]
00000000: b116 f4bd 4095 2e3e 0b01 55be 165b 2dbf
00000010: 3917 01be 623a a63e 876f 74be 2fde c53d
00000020: 9a6c 4dbe 028f 93bd 6f16 d0bd 0a31 9ebe
00000030: 2478 60be 9424 5bbc 7f01 a8be 62e6 a23e
00000040: f7ea a93c 08bf 95be a5f4 c33c 86eb edbe
00000050: 4f64 8e3e fe21 46be 33b2 153f 1ec5 cc3e
00000060: 453b b5be d6c7 343f bbdc 98bd add5 43be
00000070: 7fff 78bd 0b36 413f 386e 353e 3e5e 49be
00000080: b674 d53d ee2d ae3e baf5 503e 4537 f7bd
00000090: b108 1e3d 81bb e9be b923 1b3f ece2 92be
000000a0: 07c6 18bf 3ac7 f13e 555b af3d 9c6f 55be
000000b0: 7098 f8ba 378d ab3e a65e 61be f462 193e
000000c0: fba2 0dbf af68 b93d eb8f fe3d 637c 35be
000000d0: 8f3c 6bbe 0e5e 8dbe d834 a0be 171c 31bf
000000e0: 5f98 ae3e 0394 303d 481f b8be 6e7a 32bf
000000f0: 394f 0dbf 96d8 58bd 568e 3e3d 36c4 c0bd
00000100: a2d9 c53e 9389 f4be 9b4c 0d3f bfd3 ef3d
00000110: 9f25 c73e 1a73 c93d 1bb1 bbbe a3d6 f5bc
00000120: f709 40bf a531 003f 45c4 1d3f f36e 893e
00000130: 769e dc3c 7c5d 2a3e b25a 83be fe74 b2be
00000140: f1fb 923e 3fad 4fbe abf7 ddbe f6b4 563f
00000150: 5f3a 9fbe 6ffb fdbe bc33 ca3e 83fe e1be
00000160: 6d53 903e 84e7 26bf 69d1 643f 9581 34bf
00000170: 929a 043e 12c8 b6be 92c4 a73d c74e 273d
00000180: f8e4 2b3f dd58 953f d30b 023f 9a35 93be
00000190: ba8e d33e 4630 1a3e b5c0 59bd 073e 363e
000001a0: 3c1f 9b3f acd1 e0be 2905 65bf 9ab6 c3be
000001b0: d92f 89bd 4733 0a3e b7cb b7be 5074 5fbf
000001c0: 1172 80be 77fa c8be eb2e 5abe f133 f23d
000001d0: 354e 2a3e 3f56 15bf fd6a 563e df99 0c3f
000001e0: 717f 61be 665e e93d 2ebf 68be 6804 79bf
000001f0: b779 b7bd 58f5 2dbe d8c3 6bbb 62ab fc3e
00000200: abc8 cfbe 2248 77bf faea bebe a4f9 06bf
00000210: 02c5 97ba 0bf6 39bf e3a1 f7be 82f2 803a
00000220: d58a 28bf a01a a83e 2ad8 c8bd f8c6 49bf
00000230: e3f3 8bbd a681 56bf d8df 283e dac6 b13d
00000240: 1051 b8be 184e f7be 22d6 053f 993a 5fbe
00000250: fc46 973e 1c60 5dbe 39ae 8c3e 086e 3cbe
00000260: e766 b43e d279 503f bee5 9ebd 26c1 3e3f
00000270: 2c32 353d a587 7c3f 4c1d d6be 344c ea3c
00000280: b0df f23d a8ab 863d 8b8d 03be 7aff 263e
00000290: e886 ddbe e3d7 55bf 7e07 3ebf d678 79be
000002a0: 3844 53bc 8a00 933e d114 933e 5d39 673f
000002b0: 83c8 19be 55c7 043f ccb9 c4bb 1683 a9be
000002c0: 2449 14bf e23d 25be 2d23 c5be 70ce 25be
000002d0: 680c 4b3f c97b 8bbd 470f 1cbc 2c7b 9f3e
000002e0: fdd0 263f bec0 2bbf a74d 30bf 2465 aebe
000002f0: ba93 85bd ac50 f73e a6ab 203e e481 fa3e
00000300: b981 22be 6af4 e1be 74b2 503d 4387 043e
00000310: 3dae f7be 808c bfbd 04af 42bd 3c08 b43e
00000320: 855e afbd 45fb d6bd 090c 303e 9fbf 92bd
00000330: 03fe a13e 9f45 5f3e cf32 413f 2681 5cbf
00000340: 822b 26bf a327 f03d 4d20 c93e 4c35 73be
00000350: b692 17bf e823 1ebe dc0b e03e cde1 443d
00000360: 648d 073e e145 1dbf 9a80 75be 64f5 1cbe
00000370: c2a1 e6bc 1fc3 81be 72a4 613e 8d3d e5bd
00000380: 533d e93e 376e e0be 7c8a 143d 21e7 653e
00000390: 34ba 59be d950 b73c 4115 36be ec31 c1bd
000003a0: 648f d2be d7c6 9ebe 08d6 70be 0dd0 02be
000003b0: 773c 713b d62b 9cbe 50b5 44be 8f52 403f
000003c0: befc 14bd bee2 0a3f 29b0 f13d cb55 8e3e
000003d0: f16d e5be cc70 993f fb1f 2fbe cf6e 8c3e
000003e0: d368 a43e 07b2 1ebd 56dd 223f 7191 a9bc
000003f0: 10ad 3cbe 2004 233f 6237 96bd e73a a4bd
-0.119183905 0.17049122 -0.20801179 -0.6771711 -0.12606515 0.32466418 -0.2387067 0.09661519
-0.2006096 -0.07205011 -0.10160529 -0.3089679 -0.2192083 -0.01337542 -0.3281364 0.31816393
0.020741923 -0.29247308 0.023920367 -0.46468753 0.27810904 -0.19348904 0.58475035 0.39994138
-0.35396782 0.70617425 -0.07463976 -0.1912448 -0.060790535 0.7547309 0.17717826 -0.19664857
0.104226515 0.34019417 0.20406237 -0.12071089 0.038582508 -0.45650867 0.60601383 -0.28688753
-0.59677166 0.4722231 0.08562342 -0.20843357 -0.0018966328 0.33506176 -0.22008762 0.14979154
-0.55326813 0.0905317 0.12429794 -0.17723231 -0.2297232 -0.2761082 -0.31290317 -0.69183487
0.34100625 0.043109905 -0.35961366 -0.6971806 -0.5519901 -0.052940927 0.04652246 -0.09412424
0.38642603 -0.4776121 0.55195016 0.11710309 0.3889589 0.09836407 -0.36658558 -0.030009573
-0.75015205 0.5007575 0.6162761 0.2684246 0.026931029 0.16637224 -0.25655133 -0.34854883
0.2870784 -0.20280932 -0.43353018 0.83869874 -0.3109922 -0.4960589 0.39492595 -0.4413949
0.2818865 -0.65197015 0.89382035 -0.70510226 0.12949589 -0.35699517 0.0819179 0.040846612
0.67146254 1.1667744 0.5079929 -0.28751832 0.4131983 0.15057477 -0.053162295 0.17797099
1.2118907 -0.43909967 -0.89461 -0.3822525 -0.06698579 0.13496123 -0.3589761 -0.87286854
-0.25087026 -0.3925359 -0.2130696 0.11826313 0.16631396 -0.58334726 0.2093925 0.5492229
-0.22021271 0.11394958 -0.2272918 -0.9727235 -0.08958762 -0.16988122 -0.0035974886 0.49349505
-0.40582785 -0.9659444 -0.37288648 -0.5272467 -0.0011579099 -0.72641057 -0.48365697 0.0009837898
-0.6583684 0.32832813 -0.09806855 -0.7881923 -0.06833627 -0.8379158 0.1649164 0.08680506
-0.35999346 -0.48301768 0.52279866 -0.21799697 0.29546344 -0.21618694 0.2747667 -0.18401349
0.35234758 0.81435883 -0.077586636 0.7451347 0.0442373 0.9864448 -0.41819227 0.02860079
0.11859071 0.065757096 -0.12846963 0.16308394 -0.43266988 -0.8353254 -0.7423018 -0.24362502
-0.012894683 0.2871135 0.2872682 0.90321904 -0.15017895 0.51866657 -0.006003594 -0.33107823
-0.57924104 -0.16136888 -0.385034 -0.16192031 0.79315805 -0.068107195 -0.009525127 0.3114866
0.6516264 -0.67090976 -0.6886849 -0.3406154 -0.06522317 0.48303735 0.15690479 0.48927224
-0.15869798 -0.44131786 0.050951436 0.12942223 -0.4837512 -0.0935297 -0.04753019 0.35162532
-0.0856295 -0.104971446 0.17192091 -0.07165455 0.31639108 0.21803902 0.7546815 -0.86134565
-0.6491014 0.1172631 0.39282456 -0.237508 -0.5920824 -0.15443385 0.43759048 0.048066903
0.1323753 -0.6143475 -0.23974839 -0.15327984 -0.028153304 -0.25344178 0.22035387 -0.111933805
0.455546 -0.43834087 0.03626488 0.2245145 -0.21262437 0.022377418 -0.17781545 -0.0943335
-0.41125023 -0.31011078 -0.23519146 -0.12774678 0.0036809721 -0.30502194 -0.1920979 0.75125974
-0.036373846 0.5425223 0.11801178 0.2779983 -0.4481044 1.1987548 -0.17102043 0.2742829
0.32111225 -0.038744 0.6361898 -0.020699235 -0.18425393 0.6367817 -0.07334782 -0.08019047

dense/MatMul_bias f4 [12]
00000000: 60b7 08be 5e69 03bc 0362 83bd 949c afbd
00000010: 3847 54bd c592 9ebd ab6d 1bbe 4451 a9bd
00000020: 3c68 48bc dc41 d3bd de3a 09be 93fc 0d3e
-0.13351202 -0.008020727 -0.064151786 -0.08574787 -0.051825732 -0.07742838 -0.15178554 -0.08267453
-0.012231883 -0.10315296 -0.13401362 0.1386588

dense/kernel/transpose f4 [12, 64]
00000000: 4632 10be e3b3 0d3f 08af 02bf f472 bcbe
00000010: c741 b4bd 3161 0bbf 3866 983e 4ab7 77be
00000020: 722f 14bf b134 4c3e 4bb9 e4be d590 0a3f
00000030: f256 3ebf e1da 50bf 253c 1fbf f847 dbbe
00000040: 2558 2ebd a9bf df3d b5da 0fbf a953 b03e
00000050: 1120 d13d 1117 76bd 0569 d9be 0e80 123e
00000060: 0a74 ef3d 5010 17be fc27 aebc c617 b5bd
00000070: c3b9 edbe 0508 573e 40f1 b03e 7328 c7be
00000080: 2279 16bf 904d 1cbd 14a8 a93e 617f 0fbf
00000090: d783 8abe 4980 46be 5e2d 58be 1a69 9a3d
000000a0: 65d5 b53e 984f 123d 3152 dc3e 14da 04bf
000000b0: 310d 4dbf 6a6b 073f 6cd2 9ebe 00be c03d
000000c0: 907a 11bf 376b 90be cd12 073f 024a 00bf
000000d0: 5a46 c1bd 4d26 b53d 8f98 2dbf 7f40 fabe
000000e0: 0f59 283d 4664 ea3e 15f4 84be ae79 a2be
000000f0: dffa 1ebe 1c24 78be 1491 983e b935 073f
00000100: e048 d03e 0242 79be dc9c 35be c97a 96be
00000110: f6fc c83e 4ba9 11bf 6491 f4bc 6eb6 08bf
00000120: bb54 f6be fc55 43b9 5280 8abe a43f 533e
00000130: ee72 11bf ea74 abbe e56f babe 8156 1bbf
00000140: 7714 f13e 9462 c23e dc0a 283f b0a8 a83d
00000150: ad78 9ebe 09a5 bcbb 2b00 1dbf a960 1fbf
00000160: 8226 2fbf 24cc e9be 5dc8 0ebf 563b ddbd
00000170: dcbe 983c 7881 f63e 694e 09bd bde6 c83e
00000180: 57a1 4dbd 14a4 c5be c6f8 3a3d 083d c73e
00000190: 4fda ac3e 0697 0dbf 0969 c6be e74f 3e3d
000001a0: 5823 16bf 6497 ec3d 6c7a 1dbf 1631 ea3e
000001b0: 89c2 11bf f43e d53d 110f e0be 7096 b0be
000001c0: f4a1 1ebf 6094 17bf 8a02 ab3e a44c a93e
000001d0: 6112 f1be 9f42 c0be bdd1 e13c 87b6 cebe
000001e0: a676 b03d 988a a13b 60bd 4fbd 4413 153f
000001f0: aff1 6c3e f748 25be 0e93 933e 43c1 8ebb
00000200: 4937 11bf 2e0b a8be 95cf 7d3e 2865 30bf
00000210: 4267 48bf b87e 023f e854 01bf 5322 53be
00000220: 01f0 76be bd64 8dbe 4f15 f93d 9c46 38bf
00000230: 5e87 dbbe a979 923e 33d3 073f 67e2 573e
00000240: c2eb 02bf 9c00 79bc 27b3 01bf 5813 2bbf
00000250: 2b71 38be f6d9 5cbe c737 44bf 3060 c23e
00000260: 86b5 1a3d 7215 cd3e e2d5 db3e 0b7d e83d
00000270: bb09 c83e 6b86 eebe 7f10 febe ecce 42be
00000280: 30f2 15bf 66f8 35be 4859 20bf ce45 4b3e
00000290: 20e0 06be 62d6 40be d8c4 043f 50a9 063f
000002a0: cf10 9f3e ea71 a1be 7e6a b8be 9cd0 72be
000002b0: 8b84 133e 27c5 ddbe cd4d 8abe f45b 423e
000002c0: 1c74 84be 5c1d cbbe c14e 2abf cc72 fbbe
000002d0: d455 a33e 0967 893e 88a3 ea3e 978a d83e
000002e0: 3bfc c93e 38c0 4cbd ab98 023f 4644 0dbf
000002f0: 98b5 2ebf 2d37 f8be 3aea 2fbf 9242 2fbf
00000300: c327 dc3e bdff 44bf 287c b83e decb 83be
00000310: d5c1 3dbf dbdd 02bf b8c2 e8be 8143 e8be
00000320: 74ff ccbd 7fae fe3e ae1b 2dbe 725b 2abf
00000330: 653d 0cbf 95a5 2bbe f8c9 143f 0714 d1be
00000340: b157 973e aefb 583e 4c6a 933e 11dd 933d
00000350: 3eb0 fdbe d74c 0dbf a7bf dcbe 8d2e 13bf
00000360: 7052 a43e 7b62 41bc ea4c 5c3e 7896 30be
00000370: dc94 0abf d599 c5be f967 abbe e68d b73e
00000380: 60f5 bebe db0f a5be ed6d 583d c5f3 b53e
00000390: aeb1 02bf 6f88 bd3d 183d 00bf 920d b7be
000003a0: ebc1 673c ce27 03bf 15c6 a93e c1b8 f2bd
000003b0: 3901 b1be 5499 ff3e e516 c83b 8b5a e6be
000003c0: 4f0d aabe be7e dcbe 6dae debe c477 d9be
000003d0: 6976 fbbe 3f48 b9be 88bb a2be edbb 4ebe
000003e0: 406e c03e 1126 7d3e 3900 babe e208 073f
000003f0: 4224 083e 7b2b e9be c769 f03e fbdd 933e
-0.14081678 0.5535261 -0.51048326 -0.36806452 -0.088016085 -0.5444518 0.29765487 -0.24191013
-0.57884896 0.19941975 -0.44672617 0.54127246 -0.7435142 -0.8158398 -0.6220115 -0.42828345
-0.04256453 0.10925228 -0.56193095 0.34438828 0.10211194 -0.06008059 -0.42462936 0.14306661
0.116920546 -0.14752316 -0.0212593 -0.08842425 -0.46430787 0.20999153 0.3455906 -0.38898048
-0.58778584 -0.038159907 0.33136046 -0.5605374 -0.2705371 -0.19384874 -0.21111056 0.07539578
0.3551437 0.035720438 0.43031457 -0.5189526 -0.80098253 0.52898276 -0.31019914 0.094112396
-0.5682764 -0.28206798 0.5276306 -0.50112927 -0.094372466 0.08845196 -0.6781091 -0.48877332
0.041100558 0.45779628 -0.2596747 -0.3173346 -0.15525387 -0.24232525 0.29798186 0.5281635
0.406806 -0.24341586 -0.17735618 -0.29390553 0.39255494 -0.56898946 -0.029854484 -0.53403366
-0.4811152 -0.00018628681 -0.27051026 0.20629746 -0.56815994 -0.33487636 -0.36413494 -0.6067887
0.47085926 0.37965834 0.6564157 0.082352996 -0.30951443 -0.0057569784 -0.6132838 -0.62256867
-0.68418133 -0.4566356 -0.5577448 -0.10802333 0.018645696 0.48145652 -0.033522043 0.3923854
-0.050202694 -0.38601744 0.045647405 0.3891375 0.33760306 -0.5530857 -0.3875201 0.04646292
-0.5864768 0.11552313 -0.61514926 0.45740575 -0.5693746 0.10412398 -0.43761495 -0.34489775
-0.6196587 -0.5921078 0.33400375 0.33066285 -0.47084334 -0.37550828 0.027565831 -0.40373632
0.086163804 0.0049298517 -0.05071771 0.5823252 0.2313907 -0.16141115 0.2882313 -0.0043565347
-0.56724983 -0.3282103 0.24786218 -0.6890435 -0.7828256 0.5097461 -0.5052018 -0.20618562
-0.24114992 -0.2761592 0.121622674 -0.7198274 -0.42876714 0.28608444 0.5305664 0.2108246
-0.5114099 -0.015197899 -0.5066399 -0.6682639 -0.1801192 -0.2156752 -0.7664761 0.3796401
0.03777077 0.40055424 0.42936617 0.11351975 0.39069924 -0.46586928 -0.4962196 -0.19024247
-0.58572674 -0.17770538 -0.6263623 0.19850847 -0.13171434 -0.1883178 0.5186286 0.526021
0.3106751 -0.31532222 -0.36018747 -0.2371239 0.1440603 -0.43314478 -0.27012482 0.1898039
-0.25869834 -0.39670837 -0.6652642 -0.4911102 0.3190142 0.26836422 0.4582789 0.42293236
0.3945025 -0.049988 0.510142 -0.551823 -0.6824584 -0.48479596 -0.68716776 -0.68460953
0.42999086 -0.76952726 0.36032224 -0.25741476 -0.7412389 -0.51119775 -0.4546106 -0.45364
-0.10009661 0.49742505 -0.1690509 -0.66545784 -0.5478118 -0.16762383 0.5812068 -0.40835592
0.2955909 0.21189758 0.28792036 0.072198994 -0.49548525 -0.55195373 -0.4311497 -0.57492906
0.32094145 -0.011803265 0.21513715 -0.172449 -0.5413339 -0.38593927 -0.33477762 0.35850447
-0.3729658 -0.3223866 0.05283921 0.35537544 -0.5105237 0.09254538 -0.5009322 -0.3575254
0.014145355 -0.5123261 0.33158937 -0.11851645 -0.34571245 0.49921668 0.006106245 -0.44990954
-0.3321328 -0.43065447 -0.4349245 -0.42474186 -0.49113777 -0.36187932 -0.317837 -0.20188875
0.37584114 0.24721552 -0.36328295 0.5274793 0.13295081 -0.45540985 0.46955702 0.28880295

depthwise_conv2d/depthwise_bias f4 [64]
00000000: d204 463f 808c 06bd 5694 ad3e e690 e93d
00000010: 760f 75be cd3d 5b3e 1879 87bc ce34 353e
00000020: e45e 163c 625f e0bd 9956 fabc 40fe 813b
00000030: 6a99 a6bd a72b 323c 815e c4bc 173b 163e
00000040: 6dd2 0b3e fdee 2d3f d962 ff3c 6070 34be
00000050: cfc0 be3e 7468 b73e c035 99bc 2b50 353f
00000060: 00cf e23e fed8 0f3f 29fe 5c3f 5ca1 ae3c
00000070: 07c0 d53d 1425 20be a661 633f 9e9f 0f3e
00000080: b017 7c3c 098f 2c3f d04a 27bb 38a9 ffbb
00000090: ff56 133e 475d 1a3e 3702 343e 7b26 363e
000000a0: fe54 99bd e259 fdbd 9ae4 6bbe 5a5d 1c3f
000000b0: eac2 80be 8699 d9bd fdd3 073e 80ed c03b
000000c0: 178b bb3e 9d32 193f d934 1a3f 6550 b5be
000000d0: 0e45 df3d 17d8 fa3e d44a 163e 9695 5b3f
000000e0: 35a2 c23d ec63 9a3e 2c51 e83d 2b98 a1bd
000000f0: 99a7 d23e 9f06 483e a82c ec3e 43e5 3a3f
0.77351105 -0.032848835 0.33902234 0.1140459 -0.23931679 0.21410294 -0.016537234 0.17695925
0.009177897 -0.10955693 -0.030558871 0.0039670765 -0.0813473 0.010874665 -0.023970844 0.14670978
0.1365449 0.6794279 0.031175064 -0.17620993 0.37256476 0.3582188 -0.018702388 0.7082545
0.44298553 0.5619048 0.8632532 0.021317177 0.10437017 -0.15639144 0.88820875 0.14025733
0.015386507 0.67405754 -0.002552677 -0.007802155 0.14388655 0.15074645 0.1757897 0.17788117
-0.07486914 -0.123706594 -0.23036423 0.61079943 -0.25148708 -0.106249854 0.13264461 0.005887687
0.36629555 0.59842855 0.6023689 -0.354129 0.10901843 0.48992988 0.14676982 0.85775125
0.09503595 0.3015436 0.11343607 -0.07890352 0.41143492 0.19533776 0.4612782 0.73006076
